runs/phase3/pessimist.pt (torch, 910173 bytes, 18 tensors)

posterior_enc.0.weight f4 [256, 10]
0	0xbc83481f	-0.016025601
1	0x3e49fe14	0.1972583
2	0xbe8b6b97	-0.27230522
3	0xbe7ed506	-0.2488595
4	0xbdec9518	-0.11551875
5	0x3dd59750	0.10429251
6	0xbc815c9b	-0.015791228
7	0x3e5cb7b2	0.21554449
8	0xbc26e424	-0.010186229
9	0x3dcea688	0.10090357
10	0xbdb32d2c	-0.0874885
11	0xbd7ae8e5	-0.06125726
12	0xbe955d02	-0.29172522
13	0xbe498d22	-0.19682744
14	0xbe0c70a4	-0.13714844
15	0xba87e2af	-0.001036724
16	0x3dccf849	0.10008294
17	0xbdfddb0c	-0.123952955
18	0xbe5b638f	-0.21424697
19	0xbe0e2edc	-0.13885063
20	0x3dcd1021	0.10012842
21	0x3e856f11	0.260613
22	0x3d02cd70	0.0319342
23	0x3e723d45	0.23656185
24	0xbd2eff40	-0.042723894
25	0x3d2c615b	0.042085033
26	0x3e77189d	0.24130483
27	0xbecd6d2a	-0.40122348
28	0xbe4ec132	-0.20190886
29	0xbd9474d9	-0.072488494
30	0xbdf8b18a	-0.12143238
31	0x3e8c08b5	0.27350393
32	0xbe52a4d5	-0.20570691
33	0xbe176766	-0.14785537
34	0xbe613472	-0.21992663
35	0xbe96e1b6	-0.2946908
36	0xbe3b221c	-0.1827473
37	0x3e8c19ad	0.2736334
38	0x3e12b055	0.14325078
39	0x3e1f8dcf	0.1558144
40	0xbd889efc	-0.06670949
41	0x3cc08c34	0.023504354
42	0xbb430f0b	-0.0029763605
43	0xbf2904f7	-0.660232
44	0x3d8912b5	0.06693021
45	0x3c29b16d	0.010357243
46	0x3c006993	0.007837671
47	0x3e94b7fe	0.29046625
48	0xbdbaae82	-0.09115316
49	0xbdbaef52	-0.09127678
50	0x3e3c20a5	0.18371828
51	0x3e9e6f1d	0.30944148
52	0x3ddeaa8f	0.10872375
53	0x3d872760	0.06599307
54	0x3e6aac8c	0.22917384
55	0xbe2c6e64	-0.16838986
56	0x3ce583cc	0.028016947
57	0xbe9db06a	-0.30798656
58	0xbe63dca7	-0.22252141
59	0xbe2194ef	-0.1577947
60	0x3e142ea0	0.14470911
61	0x3dffe2ed	0.124944545
62	0xbe42458f	-0.18971847
63	0x3dc5d502	0.09659769
64	0x3e344aa3	0.17606597
65	0xbd1903cd	-0.03735714
66	0x3c619c08	0.013770111
67	0x3d99bd06	0.075067565
68	0x3e48e8b9	0.19620027
69	0x3e9af91f	0.3026819
70	0xbe77d8e5	-0.24203832
71	0xbdf1f2dd	-0.118139006
72	0x3df98691	0.1218387
73	0x3e86b0a8	0.26306653
74	0x3e8e2d63	0.27769002
75	0x3e90284f	0.28155753
76	0x3d845176	0.0646085
77	0xbe8be01e	-0.27319425
78	0x3cefec17	0.029287381
79	0xbe4b861d	-0.19875379
80	0xbe95f655	-0.292895
81	0x3e8f9042	0.28039747
82	0x3e74d65c	0.23909897
83	0xbea2c47e	-0.31790537
84	0x3d78797a	0.060662724
85	0xbd535be2	-0.0516013
86	0xbd4da6e8	-0.050208002
87	0xbe12616e	-0.14294979
88	0x3dfd0ece	0.123563394
89	0xbe3d4251	-0.18482329
90	0x3df3504d	0.118805505
91	0x3e1b8d8a	0.15190712
92	0x3e7aac4d	0.2447979
93	0x3e76e616	0.24111208
94	0xbe92b679	-0.2865484
95	0xbe31bb96	-0.17356715
96	0x3e007721	0.12545444
97	0xbb0b1160	-0.0021220073
98	0xbe7cbe3a	-0.2468194
99	0xbe3eb8f8	-0.18625247
100	0x3e961a8f	0.29317138
101	0x3dbf7115	0.093477406
102	0xbe020c1e	-0.12699935
103	0x3ee4b669	0.44670418
104	0xbe81a788	-0.2532313
105	0xbc3946c6	-0.011308378
106	0xbe259f58	-0.16174066
107	0xbd1073a4	-0.035266533
108	0x3dbfcf3e	0.093657
109	0xbd841e34	-0.06451073
110	0xbe0253bb	-0.12727253
111	0x3e413ad1	0.18870093
112	0xbe440f3f	-0.19146441
113	0x3e91d3a8	0.28481793
114	0x3e5cf7b9	0.21578874
115	0xbe88db44	-0.26729786
116	0xbd9d2962	-0.07673909
117	0x3c83c5d6	0.016085546
118	0x3d46b4cb	0.04851226
119	0x3d9e020b	0.077152334
120	0x3e133e9d	0.14379354
121	0x3ca22eec	0.019797765
122	0xbe017be0	-0.12644911
123	0x3e29803e	0.16552827
124	0xbea014b1	-0.31265786
125	0xbe4ad4d8	-0.19807756
126	0xbd6879d3	-0.056756806
127	0xbdfe8207	-0.124271445
128	0xbdde3de1	-0.10851646
129	0xbe858686	-0.26079196
130	0xbd86362a	-0.065533
131	0x3d858f39	0.06521458
132	0xbe5594c0	-0.20857525
133	0xbc797e03	-0.015227797
134	0x3e6a6bd3	0.22892694
135	0xbcf76c35	-0.030202964
136	0x3c2d6aca	0.0105845425
137	0xbcd0bbdc	-0.025480203
138	0x3d84f771	0.06492508
139	0x3e4d2e92	0.20037296
140	0x3e9e03cc	0.30862272
141	0x3e4f1016	0.2022098
142	0x3e9e7252	0.30946594
143	0xbc87349a	-0.016504575
144	0xbe9644a0	-0.29349232
145	0xbe244814	-0.1604312
146	0x3e5fd4f6	0.21858582
147	0xbcb4846b	-0.022035798
148	0xbe1f0817	-0.1553043
149	0xbe7ab2cb	-0.24482267
150	0xbe9bd862	-0.30438524
151	0xbe87ae6c	-0.2650026
152	0xbd84beed	-0.06481729
153	0x3e338472	0.17530993
154	0x3e38e89d	0.18057485
155	0xbe97ae3c	-0.29625118
156	0x3d8691a3	0.06570747
157	0xbe9e58ab	-0.30927023
158	0xbd855549	-0.065104075
159	0xbe037544	-0.12837702
160	0x3c5e6e04	0.013576034
161	0xbd584a14	-0.05280502
162	0xbdd8cf5f	-0.10586428
163	0xbe9541e1	-0.29151824
164	0xbddbd556	-0.1073405
165	0x3d5dfee8	0.054198176
166	0xbe1265c7	-0.14296637
167	0x3dcc5e7d	0.0997896
168	0xbe84a37b	-0.25905976
169	0xbd7414ee	-0.059590273
170	0x3e8d7bf8	0.27633643
171	0xbe018922	-0.12649968
172	0x3e937efd	0.28807822
173	0x3de8a130	0.11358869
174	0xbe935da5	-0.28782383
175	0x3e4aae2e	0.19793007
176	0xbd1cad19	-0.038251016
177	0xbe12654d	-0.14296456
178	0x3e80d2a9	0.2516072
179	0xbe82a2b1	-0.2551475
180	0xbcb8e67d	-0.022570843
181	0xbe4215a7	-0.18953572
182	0x3e2b5cb1	0.16734578
183	0x3de15e45	0.110043086
184	0x3e2e15a8	0.17000449
185	0x3db07210	0.08615506
186	0xbdb3e796	-0.08784406
187	0xbccfcfe4	-0.025367685
188	0xbe7f52f3	-0.24933986
189	0x3e5ce973	0.21573429
190	0x3e9dd285	0.30824676
191	0x3e27e3b5	0.16395457
192	0xbd71bbd8	-0.059017032
193	0x3dcc81c9	0.09985692
194	0xbe6ad33f	-0.22932146
195	0xbdeea1eb	-0.11651977
196	0xbdf143b7	-0.11780494
197	0x3da39d32	0.07988967
198	0xbe1e988f	-0.15487884
199	0xbd960f16	-0.07327096
200	0x3c39e899	0.0113469595
201	0x3e4fc30a	0.20289245
202	0xbe75712e	-0.23968956
203	0xbe5c1c04	-0.21495062
204	0xbe3b8d0f	-0.18315528
205	0x3e6255e2	0.22103074
206	0xbded080e	-0.11573802
207	0x3e87a1ff	0.2649078
208	0x3de4ef1b	0.11178418
209	0x3d1acc3a	0.037792422
210	0xba0a3e0f	-0.00052735297
211	0xbd7fb994	-0.06243284
212	0x3d1ea7bc	0.038734183
213	0xbd98a500	-0.07453346
214	0xba89ed09	-0.0010522912
215	0x3d2b9974	0.04189439
216	0xbe7b6b16	-0.24552569
217	0xbe27e009	-0.16394056
218	0x3e83ce38	0.2574327
219	0xbe821535	-0.25406805
220	0xbd1aa8a3	-0.03775848
221	0x3e9c58b9	0.3053644
222	0x3dec97e7	0.115524106
223	0x3d3e978f	0.046531256
224	0xbe801f17	-0.2502372
225	0x3e33bd20	0.17552614
226	0xbe83a049	-0.25708225
227	0xbe4d6c66	-0.20060882
228	0xbde32d3b	-0.110926114
229	0xbd1fd2db	-0.039019447
230	0x3e226186	0.15857515
231	0xbf464f2b	-0.7746455
232	0x3dc3a7ef	0.09553515
233	0x3f0f1011	0.5588389
234	0x3e80d4e2	0.25162417
235	0xbe0dc9fe	-0.13846585
236	0x3e8789a2	0.26472193
237	0x3c986f21	0.018607678
238	0x3d5487e0	0.051887393
239	0x3ea07955	0.3134257
240	0x3dd9b1d0	0.10629618
241	0x3e73bf5c	0.23803467
242	0xbdd01fc8	-0.10162312
243	0xbadb9b62	-0.0016754682
244	0x3e26d58c	0.16292399
245	0xbe9c154b	-0.30484995
246	0x3e6c0c5d	0.23051591
247	0xbe84f571	-0.25968507
248	0x3bdf1151	0.006807484
249	0xbd528731	-0.05139846
250	0xbe12c76a	-0.14333883
251	0x3d5b8d87	0.053601768
252	0x3eb9d8f7	0.36298344
253	0xbd9709ad	-0.073748924
254	0xbe2b5693	-0.16732244
255	0xbde1dd59	-0.11028547

posterior_enc.0.bias f4 [256]
0	0xbe4134a0	-0.18867731
1	0xbe60a350	-0.21937299
2	0x3e5145d0	0.20436788
3	0xbdcd66bd	-0.100293614
4	0x3e44521a	0.19171944
5	0x3db02ece	0.08602677
6	0xbe468086	-0.19384965
7	0x3cea681b	0.028614094
8	0x3e429541	0.19002248
9	0xbe498c78	-0.19682491
10	0xbba458e6	-0.0050154803
11	0xbc09477a	-0.008378858
12	0x3e321473	0.17390613
13	0x3e584b43	0.2112246
14	0x3daecd8d	0.085352995
15	0x3c30e502	0.010796787
16	0xbe820799	-0.25396422
17	0x3dff0a87	0.1245318
18	0x3e23cfb6	0.15997204
19	0xbe1c834f	-0.15284465
20	0xbea212d0	-0.31654978
21	0x3e843e9c	0.25829017
22	0xbdb9917f	-0.09060954
23	0xbefa58b7	-0.4889581
24	0xbdb130b2	-0.08651866
25	0x3e5fadb6	0.21843609
26	0x3e9cc659	0.30620077
27	0x3e70faf1	0.23533227
28	0xbe6c8e4e	-0.2310116
29	0x3e628988	0.22122777
30	0x3e1b652e	0.15175316
31	0x3d074c35	0.03303166
32	0xbe812ff0	-0.25231886
33	0xbe0a1d78	-0.13487804
34	0xbe99b430	-0.30020285
35	0x3ea1f7fb	0.31634507
36	0x3e96e058	0.29468036
37	0x3e3a2215	0.18177064
38	0x3dc13134	0.09433213
39	0x3d1bba34	0.038019374
40	0x3f0a7bd6	0.5409521
41	0xbe25831d	-0.16163297
42	0x3d8ba348	0.06818253
43	0xbe9291a4	-0.2862674
44	0xbcf1c3f5	-0.029512385
45	0x3c65eee9	0.014034011
46	0x3db71645	0.089397945
47	0xbe84a5f7	-0.2590787
48	0xbd0c86c9	-0.03430823
49	0xbe86a70c	-0.26299322
50	0xbe1de6da	-0.15420094
51	0x3d2d819d	0.042359937
52	0xbe9ef849	-0.31048802
53	0x3d69eec8	0.057112485
54	0xbe84bfd3	-0.259276
55	0xbe63ec6c	-0.22258157
56	0xbd8b96d1	-0.06815875
57	0xbe993439	-0.29922655
58	0x3e81a4f7	0.2532117
59	0x3e85c9bf	0.26130483
60	0xbe9b6f0c	-0.3035816
61	0x3d830a46	0.06398444
62	0x3e855b1b	0.2604607
63	0x3de87dfd	0.11352155
64	0xbd688aa7	-0.056772854
65	0xbea3346a	-0.31875926
66	0x3e9eb94c	0.31000745
67	0xbe8f3de2	-0.279769
68	0xbd6ac550	-0.057317078
69	0x3c95663c	0.018237226
70	0xbe2fb166	-0.17157516
71	0xbde93e6d	-0.1138886
72	0xbe8cf1ad	-0.27528134
73	0x3c9b020c	0.018921874
74	0xbd22bf1a	-0.03973303
75	0x3e8a4362	0.27004534
76	0xbdfab627	-0.12241774
77	0x3e782236	0.242318
78	0x3c5a8802	0.013338091
79	0xbe1071e6	-0.14105949
80	0xbd9e2072	-0.07721032
81	0xbd1e952d	-0.038716484
82	0x3bb9f40f	0.005674846
83	0xbd42c06d	-0.047546793
84	0x3dc072dd	0.093969084
85	0x3e868130	0.26270437
86	0x3dd14a16	0.10219209
87	0x3e26aba1	0.16276409
88	0x3e45a266	0.19300231
89	0x3d8e65b9	0.06952996
90	0x3e135cc3	0.14390855
91	0x3e2b5ffc	0.16735834
92	0x3e98dc24	0.29855454
93	0xbe937ebd	-0.2880763
94	0x3ddae255	0.10687701
95	0xbc466362	-0.012108656
96	0xbd6b140d	-0.05739217
97	0xbde52b2e	-0.111898765
98	0x3eb065d5	0.34452692
99	0x3e933087	0.2874796
100	0xbe8391d8	-0.25697207
101	0x3dc08aa5	0.09401444
102	0x3e80e6ea	0.25176173
103	0x3d494d7d	0.049146164
104	0x3c5d8ead	0.013522786
105	0x3e77820d	0.24170704
106	0x3c30c5fc	0.010789391
107	0xbda5e751	-0.08100761
108	0xbcc6d6ec	-0.024272405
109	0x3dd4370b	0.10362061
110	0x3da5f593	0.0810348
111	0xbcacf8d0	-0.021114737
112	0x3dc8e39a	0.098090366
113	0x3dad9e46	0.08477454
114	0xbe841111	-0.2579427
115	0x3d7d0ee1	0.061781768
116	0x3e43e1d2	0.19129112
117	0x3d1953c3	0.037433397
118	0xbcfe52fb	-0.031045428
119	0x3e759ef7	0.23986422
120	0xbe8c317f	-0.27381513
121	0xbe1b414b	-0.15161626
122	0xbe140ca6	-0.1445795
123	0x3e8d2995	0.27570787
124	0xbe9c92b0	-0.30580664
125	0x3d087b15	0.033320505
126	0xbe9e25ca	-0.30888206
127	0xbc1c3b85	-0.009535675
128	0x3dee1a1f	0.11626076
129	0xbd9cb4a3	-0.07651641
130	0x3edb7883	0.4286538
131	0x3b4d113f	0.0031290797
132	0xbe23d4cc	-0.15999144
133	0x3daaa85a	0.08332892
134	0x3e2afb5a	0.16697446
135	0xbb2321c1	-0.0024891945
136	0x3ed1c6fd	0.4097213
137	0xbe413fc8	-0.18871987
138	0x3eecb416	0.46231145
139	0x3e37206a	0.17883459
140	0x3e1e36b0	0.15450549
141	0x3d18fb69	0.03734914
142	0x3d9fdcd8	0.078057945
143	0xbe90aed8	-0.28258395
144	0xbe7c45c9	-0.24635996
145	0xbbbbfd08	-0.005736951
146	0xbd19d017	-0.037551966
147	0x3e6f66bb	0.23379032
148	0x3e6dbd6c	0.2321679
149	0x3e590f3c	0.21197218
150	0xbdf11a70	-0.11772621
151	0xbe7ec52a	-0.248799
152	0xbe987638	-0.29777694
153	0x3debef0f	0.11520206
154	0xbe8defd2	-0.2772203
155	0xbea2bfbf	-0.31786916
156	0xbe5552ea	-0.2083241
157	0xbe8a038b	-0.26955828
158	0xbe021a3d	-0.12705322
159	0xbe499b96	-0.19688258
160	0xbdcc69d7	-0.09981125
161	0x3f038163	0.51369303
162	0xbd74715c	-0.05967842
163	0x3e85f5c8	0.2616408
164	0x3c12c256	0.008957466
165	0xbd276215	-0.040865023
166	0xbdc2da3c	-0.09514281
167	0xbe889dc2	-0.2668286
168	0xbe72a9e8	-0.23697627
169	0x3e7e1d32	0.24815825
170	0xbb241fbb	-0.0025043327
171	0xbe9eb052	-0.30993897
172	0x3e95cf96	0.29259938
173	0x3b6c7ffa	0.0036087022
174	0xbe63a00d	-0.22229023
175	0xbea86ca9	-0.328954
176	0xbe87870a	-0.26470214
177	0xbe8e41db	-0.2778462
178	0x3ea336c7	0.3187773
179	0x3e5cb1ba	0.21552172
180	0x3d947fc4	0.07250932
181	0xbe8b4096	-0.27197713
182	0xbd9e6701	-0.0773449
183	0xbe98f511	-0.2987447
184	0x3dde9f48	0.10870224
185	0xbda71af5	-0.081594385
186	0xbd8edbe7	-0.06975537
187	0xbdc6bed2	-0.09704365
188	0x3e16a4dd	0.14711328
189	0x3e2d4e5d	0.16924424
190	0x3dafd86b	0.085862
191	0xbd2bd1ed	-0.041948248
192	0xbd0a5a68	-0.033777624
193	0xbb88ae3e	-0.004171162
194	0xbe73984b	-0.23788564
195	0x3e95f07e	0.29285043
196	0xbe0e11bc	-0.13873953
197	0x3e3a8969	0.1821648
198	0xbe331e3e	-0.17492005
199	0x3dc611f8	0.09671396
200	0x3cee0e55	0.029059568
201	0xbe957e1c	-0.29197776
202	0x3e77ed97	0.24211727
203	0xbe7a0dd6	-0.2441934
204	0x3d279fb0	0.040923774
205	0xbd8047f5	-0.06263725
206	0x3e39aa6f	0.18131422
207	0x3e9c82da	0.30568582
208	0x3d893a01	0.067005165
209	0xbd4d6464	-0.050144568
210	0xbe22db46	-0.15903959
211	0x3dec4de3	0.11538293
212	0xbe1e5da9	-0.15465416
213	0x3e066b5a	0.13126889
214	0xbe394b25	-0.18095072
215	0x3e56ab92	0.20963886
216	0x3e75c157	0.23999535
217	0x3e3c694f	0.18399547
218	0x3ba29a6b	0.0049622557
219	0x3e1671d7	0.14691864
220	0xbe9f1c0b	-0.31076083
221	0x3e81d96c	0.25361192
222	0xbda4e978	-0.08052343
223	0x3dee1a67	0.116261296
224	0xbd53e9b2	-0.05173654
225	0xbdf68e5e	-0.12038873
226	0xbe196f9b	-0.1498398
227	0x3e535d4d	0.2064106
228	0xbe9d569b	-0.30730137
229	0xbd5a665b	-0.05332027
230	0x3e20bb00	0.15696335
231	0x3ca55714	0.020183124
232	0xbe8989cc	-0.26862943
233	0xbea1798a	-0.3153804
234	0xbe1f8d83	-0.15581326
235	0x3e95d7d6	0.29266232
236	0xbe688f66	-0.22710952
237	0x3e34b1f2	0.17646006
238	0x3f8715dd	1.0553547
239	0xbe1899dd	-0.14902444
240	0xbe514aff	-0.20438765
241	0xbe8b8cd9	-0.27255896
242	0x3d548c89	0.051891837
243	0xbd8fedc8	-0.07027775
244	0x3c7b03ff	0.015320777
245	0x3e0e8e1e	0.13921401
246	0x3d42f968	0.047601134
247	0x3bfa4cd8	0.007638555
248	0x3da49d72	0.08037843
249	0x3de548d3	0.11195531
250	0xbcae6f0b	-0.021293184
251	0x3d78c9cf	0.060739335
252	0xbe024a58	-0.12723672
253	0x3e85a306	0.2610094
254	0xbb3a6fb2	-0.0028447923
255	0xbd2d1a68	-0.04226151

posterior_enc.2.weight f4 [256, 256]
0	0xbceaf7ad	-0.028682554
1	0xbd55dc0c	-0.052211806
2	0xbbfa2198	-0.007633399
3	0xbc35e25b	-0.011101331
4	0xbd3a2845	-0.04544856
5	0x3cd9ccb0	0.02658686
6	0xbb0717bd	-0.0020613514
7	0x3ca2e927	0.019886566
8	0x3d4f7165	0.05064525
9	0xbd0f91f7	-0.035051312
10	0x3d60ea8c	0.05491118
11	0xbc0dbced	-0.008651
12	0xbbf9f381	-0.007627905
13	0xbc4b489f	-0.012407451
14	0xbc8faea4	-0.01753933
15	0xbb8b2332	-0.004246139
16	0x3c80c69c	0.015719704
17	0x3d64ca9a	0.05585728
18	0x3dc26d02	0.09493448
19	0x37a64394	1.982021e-05
20	0xbbba7139	-0.0056897667
21	0x3c663020	0.01404956
22	0xbc41cbad	-0.011828345
23	0x3cacb7d9	0.02108376
24	0x3c9ed2fe	0.019387718
25	0xbd5b4caf	-0.053539928
26	0xbd60de86	-0.054899715
27	0x3cdfa98f	0.027302532
28	0xbd11e071	-0.035614435
29	0xbd0696d9	-0.032858703
30	0xbd75f39d	-0.06004678
31	0x3d246c60	0.040142417
32	0xbb91d11c	-0.0044499766
33	0xbd100a29	-0.03516594
34	0x3d05e6a3	0.032690655
35	0x3d59eb96	0.053203188
36	0xbd639496	-0.055561624
37	0x3b2823b5	0.0025656049
38	0x3cd762c1	0.026292207
39	0x3d5c224d	0.05374365
40	0x3d5c750b	0.05382256
41	0xbc8484df	-0.01617664
42	0x3d67074d	0.056403447
43	0x3d3905ca	0.045171537
44	0x3af97047	0.0019030654
45	0x3cb12a7e	0.021626707
46	0xbd09baa6	-0.033625267
47	0x3d75f4ce	0.060047917
48	0x3c8470f4	0.016167141
49	0xbcf88d1d	-0.030340726
50	0x3d85ef94	0.065398365
51	0xbd796fcc	-0.060897633
52	0xbcd1ef3b	-0.02562677
53	0xbb2f62f1	-0.0026761855
54	0xbc19178d	-0.009343994
55	0xbd221fdf	-0.039581176
56	0xbd7882b2	-0.060671516
57	0x3cb7b297	0.022424025
58	0xbc62f8c4	-0.013853256
59	0xbd5dae4c	-0.0541213
60	0xbc066887	-0.008203632
61	0xbc46b321	-0.012127669
62	0xbc17ac11	-0.009257332
63	0x3b18692c	0.0023256047
64	0xbcea8641	-0.02862847
65	0x3d6ec80a	0.05829624
66	0x3d589231	0.052873794
67	0x3b3b28f3	0.0028558343
68	0x3c78529c	0.015156414
69	0x3d789c22	0.060695775
70	0x3c46619d	0.012108234
71	0x3d2b1365	0.041766543
72	0x3d548258	0.051882118
73	0xbd6acc5d	-0.057323802
74	0x3c52959b	0.012853052
75	0x3d06e0b8	0.032929152
76	0xbca1807c	-0.019714586
77	0x3d053de2	0.03252972
78	0x3c9663d3	0.018358147
79	0x3d3636dc	0.04448591
80	0xb9dae1f1	-0.0004174854
81	0xbc385f5b	-0.011253203
82	0x3d3b5bc7	0.045741823
83	0x3d7eb01a	0.062179662
84	0x3d9e5491	0.077309735
85	0x3c5d8d59	0.013522469
86	0x3d685a9f	0.056727048
87	0x3ceab9c0	0.028653026
88	0x3d15f6fa	0.03661249
89	0xbc844a40	-0.016148686
90	0x3c2f7577	0.010709158
91	0xbd39a07a	-0.045319058
92	0x39c07f0e	0.00036715757
93	0xbcb4dd93	-0.022078311
94	0x3b01aff8	0.0019788723
95	0xbd51b674	-0.05119939
96	0x3d703afb	0.05865
97	0x3be5780a	0.007002835
98	0x3d660361	0.056155566
99	0x3d1ff059	0.039047573
100	0xbd7785fd	-0.060430516
101	0x3dc04c58	0.093895614
102	0xbc9e8512	-0.019350562
103	0x3d0f0e0d	0.03492551
104	0x3dbe19b4	0.09282246
105	0xbcb1c2d4	-0.021699347
106	0x3d8af3eb	0.06784805
107	0xbcefe794	-0.02928523
108	0xbc2ca38f	-0.010537042
109	0xbd3030c8	-0.04301527
110	0xbcfb9302	-0.030709747
111	0x3d5381e6	0.051637553
112	0x3d38392c	0.0449764
113	0x3b2b3119	0.0026121794
114	0x3b4ca631	0.0031226987
115	0xbcc8b191	-0.024498733
116	0x3d368341	0.044558767
117	0xbc3f3df3	-0.011672485
118	0xbce5aa70	-0.028035372
119	0xbd538231	-0.051637832
120	0x3d498718	0.0492011
121	0x3da4709d	0.08029292
122	0x3d122168	0.03567639
123	0x3b92d71e	0.0044812104
124	0xbd353c11	-0.044246737
125	0x3ccd4340	0.025056481
126	0x3bbc1733	0.0057400702
127	0x3c9fef55	0.019523302
128	0xbc92583a	-0.017864335
129	0xbd00ded5	-0.03146251
130	0x3e06efa9	0.1317736
131	0x3c9d4d2b	0.019201836
132	0xbce331e0	-0.027733743
133	0x3b86e3dd	0.004116519
134	0x3c3e2737	0.011606029
135	0xbbe97063	-0.0071239932
136	0x3d9b4f5c	0.07583496
137	0xbcc591fd	-0.024117464
138	0x3dc3e74c	0.09565601
139	0x3d24d966	0.04024639
140	0xbb00148d	-0.00195435
141	0x3d33f17d	0.043931473
142	0x3c293f82	0.010330083
143	0x3af22e74	0.0018476979
144	0x3d1d8600	0.03845787
145	0xbbdf09b5	-0.006806577
146	0x3c25209c	0.010078575
147	0xbd818b35	-0.0632538
148	0x3ce729c9	0.028218167
149	0x3d26204d	0.04055815
150	0x3d95511d	0.07290862
151	0x3b3ee38d	0.002912733
152	0x3d0e160a	0.034688987
153	0x3c9ff9cf	0.019528298
154	0x3dbcce1e	0.09219001
155	0x3d0427d9	0.032264564
156	0xbc8535f1	-0.016261073
157	0x3cf5ef9b	0.03002148
158	0xbcbda443	-0.023149615
159	0xbd0213b5	-0.031757075
160	0x3dfcd548	0.12345368
161	0xbd0f255f	-0.03494775
162	0x3c0b25ea	0.008492926
163	0x3d1a1adf	0.037623283
164	0x3d222efa	0.03959558
165	0x3d016ee7	0.031599905
166	0xbc4f4807	-0.01265145
167	0xbd8349b7	-0.06410544
168	0x3c290024	0.010314975
169	0x3c3f7369	0.011685231
170	0x3ccb1443	0.024789935
171	0xbd29c98d	-0.04145198
172	0x3cceddfd	0.025252337
173	0x3d611231	0.05494899
174	0x3ce86756	0.028369587
175	0x3c98dd7d	0.018660301
176	0x3bd329ad	0.006444177
177	0xbcdaf6c3	-0.026728993
178	0x3dc13ab3	0.09435024
179	0xbd4dba38	-0.05022642
180	0x3d988fba	0.07449289
181	0xbcfa8ea9	-0.030585604
182	0x3d2f9588	0.042867213
183	0xbcd1cf76	-0.02561162
184	0xbc8b379f	-0.016994296
185	0x3ca496b5	0.020091394
186	0xbcfa3d31	-0.030546756
187	0x3d2b1c99	0.04177532
188	0x3cf691c2	0.0300988
189	0xbd65ae44	-0.056074396
190	0x3d4ee53b	0.05051158
191	0x3d0e20fc	0.034699425
192	0x3d6fe495	0.058567602
193	0xbc95f949	-0.018307345
194	0x3d15439a	0.036441423
195	0x3cca5363	0.024697965
196	0xbcf7d16a	-0.030251224
197	0x3d1381db	0.03601251
198	0xbd02bbbe	-0.031917326
199	0x3d9fbb8f	0.07799446
200	0x3db9d0d2	0.090730324
201	0xbcab3dc5	-0.020903477
202	0x3d4e8657	0.050421085
203	0x3d77fa7a	0.060541607
204	0x3c375114	0.011188764
205	0x3d972423	0.073799394
206	0x3c89ab14	0.01680521
207	0xbce21788	-0.027599111
208	0x3c0fa5d9	0.0087675685
209	0x3c0e68e6	0.008692002
210	0x3d53bb9e	0.051692598
211	0xbce9e11c	-0.028549723
212	0x3c49a169	0.01230655
213	0xbca2e871	-0.019886227
214	0x3c9c395c	0.01907032
215	0xbbc63f6e	-0.006050042
216	0x3d8014cd	0.062539674
217	0xbcdb8e9c	-0.0268014
218	0xbd1e19f6	-0.038598977
219	0x3cb2079c	0.021732144
220	0xbd1b06aa	-0.037848152
221	0xbd5ec0c2	-0.054383047
222	0x3cb670df	0.022270618
223	0xbd211681	-0.039328102
224	0xbcd2044c	-0.025636815
225	0x3c492f26	0.0122793075
226	0x3b0f8307	0.0021898167
227	0xbcbfcd50	-0.02341333
228	0xbcf25780	-0.029582739
229	0xbc910385	-0.017701874
230	0x3d2c276c	0.042029783
231	0x3bebbc6c	0.0071940925
232	0xbbf5706d	-0.007490209
233	0xbd3a3394	-0.045459345
234	0xba00f160	-0.000491878
235	0x3cb76bb1	0.022390218
236	0xbb4ba59c	-0.0031074053
237	0x3d0e9b4e	0.03481608
238	0x3dbb0891	0.09132493
239	0x3c7d6784	0.015466575
240	0x3c3f34ef	0.011670335
241	0x3db11eaa	0.08648427
242	0xbcbdf053	-0.023185885
243	0x3a277601	0.00063881284
244	0x3d39aa36	0.04532834
245	0xbd01adb6	-0.031659804
246	0x3d1e8cf3	0.03870864
247	0x3d378359	0.044802997
248	0xbd993283	-0.074803375
249	0x3db3623f	0.08758973
250	0x3dc3a054	0.095520645
251	0xbd12c4ad	-0.035832096
252	0x3d65b750	0.056083024
253	0x3c8b552c	0.017008387
254	0x3dc5161f	0.0962336
255	0x3d04436f	0.032290872

posterior_enc.2.bias f4 [256]
0	0xbce80514	-0.028322734
1	0x3c22e771	0.009942875
2	0xbbb1f4bb	-0.0054307855
3	0x3b8ea50e	0.004353172
4	0x3c1856ee	0.009298069
5	0x3d3e2bed	0.04642861
6	0xbc89682c	-0.016773306
7	0xbd1a5294	-0.03767641
8	0xbd49e2d1	-0.049288575
9	0x3d25b4f6	0.04045578
10	0x3d833071	0.06405724
11	0xbcac28b2	-0.021015499
12	0xbd369b84	-0.044581905
13	0xbb039227	-0.0020076127
14	0xbb947a10	-0.0045311525
15	0x3cfc60fe	0.030807968
16	0x3b928bc1	0.0044722264
17	0xbd5e3cca	-0.05425719
18	0x3d1911eb	0.037370604
19	0x3da4c7ab	0.08045896
20	0xbc3089b8	-0.010775022
21	0x3d14edfa	0.036359765
22	0x3cd2a8c4	0.02571524
23	0xbd0038a3	-0.031304013
24	0xbcabbf4d	-0.020965243
25	0x3dec819d	0.11548159
26	0x3b3d75bd	0.0028909289
27	0x3d6178a4	0.055046692
28	0xbc4414a0	-0.011967808
29	0xbdd1eab4	-0.10249844
30	0x3c5ebc7e	0.013594745
31	0xbb8d1aab	-0.0043061576
32	0xbc678167	-0.014129973
33	0xbbe058c7	-0.0068465206
34	0x3d23b487	0.039967086
35	0xbd3fbf46	-0.046813272
36	0xbd53f7b4	-0.0517499
37	0x3cbbe867	0.022937967
38	0x3e838580	0.2568779
39	0x3d564fc5	0.052322168
40	0x3c5416b0	0.012944862
41	0x3cdc62f6	0.026902657
42	0xbc9a70e2	-0.018852655
43	0x3d816f1e	0.06320022
44	0x3d0ba06d	0.03408854
45	0xbd059b38	-0.03261873
46	0x3d1c7cad	0.038204838
47	0xbcaa2c15	-0.020772973
48	0x3d6542f4	0.055972055
49	0xbd73f451	-0.05955917
50	0x3d18aeda	0.037276126
51	0xbd80ca95	-0.062886395
52	0xbc4dba93	-0.01255669
53	0xbc809eec	-0.01570078
54	0xbce22b0d	-0.027608419
55	0x3e97ef43	0.2967473
56	0xbd6e9b95	-0.058253843
57	0x3cef0b6c	0.029180251
58	0x3b963be2	0.0045847753
59	0x3c08ae78	0.008342378
60	0xbcc911f5	-0.024544695
61	0x3ce8b25a	0.028405357
62	0x3d0c7443	0.034290563
63	0x3d5842ca	0.05279807
64	0xbd7b94fe	-0.061421387
65	0x3d5c711c	0.053818807
66	0xbcae28b6	-0.021259647
67	0xbd24dbf8	-0.04024884
68	0xbc94cd63	-0.018164342
69	0x3d3d2c51	0.04618484
70	0xbe2cf6ca	-0.16891018
71	0xbd391730	-0.04518813
72	0xbd403867	-0.04692879
73	0xbd4a0d48	-0.049329072
74	0x3d3a4ec8	0.045485288
75	0xbd07d3c0	-0.033160925
76	0xbd8175f5	-0.06321327
77	0xbc4a8f4b	-0.012363265
78	0x3d3ee448	0.046604425
79	0xbcd8c21b	-0.026459744
80	0xbc653fcf	-0.013992264
81	0x3c977ac2	0.018491153
82	0xbcfe567f	-0.031047104
83	0xbd633c64	-0.055477515
84	0x3d3e7433	0.046497535
85	0x3ac1d79e	0.001478899
86	0x3c30e1c3	0.010796013
87	0xbd0c588c	-0.034264132
88	0x3ce061de	0.027390417
89	0xbd637ba4	-0.055537835
90	0xbbb3732b	-0.0054763756
91	0x3ce7adef	0.02828118
92	0xbcff2f4a	-0.031150479
93	0x3d194748	0.037421495
94	0x3b8515bf	0.00406143
95	0xbc93566f	-0.01798555
96	0xbcd5bbeb	-0.026090583
97	0xbd7933fb	-0.060840588
98	0x3d74fcf7	0.05981156
99	0x3d77189f	0.060326215
100	0x3d216b1d	0.03940879
101	0xbd39f3e2	-0.0453986
102	0x3e02eb54	0.12785083
103	0x3d2d2470	0.042271078
104	0xbb608d09	-0.003426375
105	0xbd2157df	-0.03939044
106	0x3d36759e	0.044545762
107	0x3c91c3fa	0.017793644
108	0x3cf597f6	0.029979687
109	0x3d426af5	0.047465283
110	0xbc950e5c	-0.018195324
111	0xbce997a6	-0.028514694
112	0x3d604514	0.054753378
113	0xbd7e6104	-0.06210424
114	0xbd2b03a5	-0.041751523
115	0xbd595f9e	-0.053069703
116	0x3c517650	0.012784556
117	0x3d3240bf	0.043518778
118	0x3f67bffe	0.9052733
119	0xbcad355d	-0.02114361
120	0xbcf78ddf	-0.030219017
121	0xbc05560e	-0.008138193
122	0xbc69dece	-0.014274312
123	0x3a745e80	0.0009321943
124	0x3d56caf5	0.05243965
125	0xbcea89be	-0.028630134
126	0x3bc35931	0.00596156
127	0x3d280b15	0.041026194
128	0xbd231732	-0.039817043
129	0x3c165068	0.009174444
130	0xbd68b8f0	-0.056816995
131	0x3ce9fefe	0.028563973
132	0x3e78cd46	0.24297056
133	0x3c64b170	0.01395832
134	0x3d4cb3fd	0.049976338
135	0x3d09dc65	0.03365745
136	0xbca562a7	-0.020188643
137	0xbd474a53	-0.048654865
138	0x3c012cbd	0.007884202
139	0x3d6ff8ed	0.058587003
140	0x3abac7f5	0.0014250266
141	0xbc103b8e	-0.008803261
142	0xbc9fcff1	-0.019508334
143	0xbd065cec	-0.03280346
144	0xbcc4ef96	-0.024040025
145	0x3cd45c51	0.025922926
146	0x3bcb4ccc	0.0062042233
147	0xbcb1466f	-0.02164003
148	0xbd74c446	-0.059757493
149	0xbccf1d5f	-0.02528256
150	0xbbb09f08	-0.0053900518
151	0x3d0e2f68	0.03471318
152	0x3ccb349e	0.024805363
153	0xbcb5dbd2	-0.022199545
154	0x3d2aa35f	0.04165971
155	0x3d6fae19	0.05851564
156	0xbbec1f8c	-0.007205909
157	0xbc4dde7c	-0.012565251
158	0xbd572136	-0.052521907
159	0x3d3a8d13	0.045544695
160	0x3d665c4e	0.056240372
161	0x3d40e2da	0.047091343
162	0x3d048642	0.0323546
163	0x3cf9b06d	0.030479634
164	0xbd5ef942	-0.05443693
165	0x3d4b2b78	0.049602002
166	0xbd0b9696	-0.034079157
167	0xbac91f40	-0.0015344396
168	0xbd7b569c	-0.061361894
169	0x3eaeca09	0.34138516
170	0x3d1eb1e5	0.038743872
171	0x3c026cfc	0.007960554
172	0xbd75db48	-0.060023576
173	0xbd1b7151	-0.037949864
174	0xbd1338ad	-0.035942722
175	0xbd455796	-0.04817923
176	0x3c06aa4e	0.008219315
177	0x3c0772f1	0.00826715
178	0xbd8ada44	-0.06779912
179	0xbd33438b	-0.043765586
180	0xbd290245	-0.04126193
181	0x3d5fb1b0	0.054612815
182	0xbd04e0ee	-0.032441072
183	0xbda8dd24	-0.08245304
184	0xbd2fb166	-0.04289379
185	0xbd23ad8f	-0.03996044
186	0xbd18aba8	-0.03727308
187	0x3d28aba1	0.041179303
188	0x3d976115	0.07391564
189	0xbd4993d9	-0.049213264
190	0xbaa63ae0	-0.0012682341
191	0xbbcd6a2e	-0.006268761
192	0xbd212256	-0.039339386
193	0xbc31f351	-0.010861234
194	0x3d5571b3	0.052110385
195	0x3c2c6d68	0.010524131
196	0x3d694ecc	0.056959912
197	0x3c5649ab	0.013079087
198	0x3d6740fe	0.056458466
199	0xbd2573d6	-0.040393673
200	0xbd0df6c0	-0.034659147
201	0xbd400889	-0.04688314
202	0x3d3af2b2	0.04564161
203	0xbd0cf75b	-0.034415584
204	0x3cace092	0.021103177
205	0x3d4ceacb	0.050028604
206	0xbc6969c1	-0.014246405
207	0x3d0d527a	0.034502484
208	0x3ce55b4a	0.027997632
209	0xbce8562c	-0.028361402
210	0x3ca16930	0.019703478
211	0x3c478300	0.012177229
212	0x3d5d8aa6	0.054087304
213	0x3ce7b94e	0.028286602
214	0x3d7b2ab4	0.06132002
215	0xbc817fa0	-0.015807927
216	0x3d4df6e0	0.050284266
217	0xbd51423e	-0.051088564
218	0xbc793c8c	-0.015212189
219	0xbcaa94a5	-0.020822832
220	0x3d387f70	0.04504341
221	0x3c8da04c	0.01728835
222	0x3d48168a	0.04884962
223	0x3ccc13e1	0.024911823
224	0x3bf242f9	0.0073932377
225	0xbb6d7d40	-0.0036237985
226	0x3d27d1b8	0.040971488
227	0x3d189593	0.03725202
228	0xbd02952a	-0.031880535
229	0x3d585830	0.052818477
230	0xbd25ad14	-0.040448263
231	0x3bafbaeb	0.0053628585
232	0xbceba63c	-0.02876579
233	0xb9e74ae5	-0.00044115554
234	0xbcda5478	-0.026651606
235	0x3c35e510	0.011101976
236	0xbca21fc0	-0.01979053
237	0x3d8ae8fd	0.0678272
238	0xbd8aa8b1	-0.067704566
239	0xbc7f2613	-0.015573042
240	0x3eb634fa	0.35587293
241	0xbd4555b2	-0.04817743
242	0xbd4eb300	-0.050463676
243	0xbd3fe0bf	-0.046845194
244	0x3bd790cf	0.006578542
245	0x3d4b9958	0.049706787
246	0xbd3e10cd	-0.04640274
247	0x3d4d939f	0.05018961
248	0x3d350de6	0.044202708
249	0x3d82e167	0.06390648
250	0xbcb7b297	-0.022424025
251	0xbd06dc6a	-0.032925047
252	0x3d355bc1	0.044276956
253	0xbd76f607	-0.060293224
254	0x3c2d632f	0.010582729
255	0x3cbf4486	0.023348104

posterior_enc.4.weight f4 [32, 256]
0	0x3d243ef3	0.040099096
1	0xbd561643	-0.052267324
2	0xbde734a7	-0.112893395
3	0xbe061403	-0.13093571
4	0xbd64f6a2	-0.05589927
5	0xbc4c4d4f	-0.012469604
6	0xbcc1d77c	-0.023662321
7	0x3ce468da	0.027882028
8	0xbcb25e6b	-0.021773538
9	0xbd30dfe9	-0.043182287
10	0xbd3064ca	-0.04306487
11	0x3d0cf681	0.034414772
12	0x3bfc5804	0.007700922
13	0x3d3cc90a	0.046090163
14	0xbcd50e03	-0.026007658
15	0xb94b7a0d	-0.00019405056
16	0xbd6aee0f	-0.057355937
17	0x3d66d9d5	0.056360085
18	0x3c301b1a	0.010748649
19	0xbd77b187	-0.060472038
20	0x3d2a144f	0.041523274
21	0xbda78913	-0.08180442
22	0xbbb5e171	-0.0055505564
23	0xbc925518	-0.017862841
24	0x3cec8a18	0.028874442
25	0x3e0b2236	0.13587269
26	0xbc045de8	-0.00807903
27	0x3d6b2458	0.057407707
28	0x3c93a2a8	0.018021896
29	0xbc7a4d2f	-0.015277191
30	0x3d628418	0.055301756
31	0xbd806bf8	-0.062705934
32	0xbba75802	-0.005106927
33	0xbc819759	-0.015819238
34	0xbab99819	-0.0014159709
35	0x3d079ef4	0.033110574
36	0x3c85b51a	0.016321708
37	0x3caed63c	0.02134239
38	0x3c35f5e3	0.011105987
39	0xbd228d74	-0.03968568
40	0xbce176a9	-0.027522402
41	0xbd3152be	-0.0432918
42	0xbd3ecaa2	-0.046579964
43	0xbd2c6b7a	-0.042094685
44	0x3c22ba27	0.0099320775
45	0xbd73f479	-0.05955932
46	0xbcaaff9b	-0.020873835
47	0x3d553986	0.05205681
48	0x3d7b1f05	0.06130888
49	0xbd3694b0	-0.044575393
50	0x3cd03433	0.025415516
51	0xbd91f5a8	-0.07126933
52	0xb99ffff1	-0.00030517534
53	0xbd4dbe31	-0.05023021
54	0x3d39aded	0.045331884
55	0xbccb1245	-0.024788985
56	0xbc80e0e5	-0.015732238
57	0x3d1c68b4	0.03818579
58	0x3d135375	0.035968263
59	0xbc6b3c86	-0.014357692
60	0x3ceba2e3	0.028764194
61	0x3d2e1710	0.042502463
62	0xbcbcbd42	-0.023039464
63	0x3d24ee63	0.040266406
64	0x3d31ecb8	0.043438643
65	0x3d287b55	0.041133244
66	0x3c0c2b63	0.008555266
67	0xbd5a4f85	-0.053298492
68	0xbc0028f7	-0.007822267
69	0xbbdfe848	-0.00683311
70	0xbc9b9892	-0.01899365
71	0xbc66fde9	-0.014098623
72	0xbd73ef6e	-0.05955451
73	0x3d3f1c9d	0.046658147
74	0x3c4b1bdc	0.012396779
75	0xbd7b3f05	-0.061339397
76	0x3ce188ee	0.027531113
77	0x3ab5b221	0.0013862291
78	0xbc9c5203	-0.019082075
79	0xbd2f2e22	-0.042768605
80	0xbca1a07f	-0.01972985
81	0xbc801fba	-0.015640128
82	0xbc4725e0	-0.012155026
83	0x3c3e2bb6	0.011607101
84	0xbcb81ea7	-0.022475554
85	0x3ca9fec4	0.020751365
86	0x3c9566b7	0.018237455
87	0xbd6ee3ce	-0.05832272
88	0xbd364a3f	-0.0445044
89	0xbd40e741	-0.04709554
90	0x3cca4d9d	0.024695212
91	0xbc53153c	-0.012883481
92	0xbc854794	-0.016269483
93	0x3c6fd5aa	0.014638344
94	0xbca57564	-0.020197578
95	0x3c93b536	0.018030744
96	0xbd3c3bc4	-0.045955434
97	0xbd066c11	-0.032817904
98	0x3d35693c	0.044289812
99	0x3c3cef23	0.011531624
100	0xbd314240	-0.04327607
101	0xbd75b617	-0.059988108
102	0xbd10337d	-0.035205353
103	0xbcb905d9	-0.022585796
104	0x3d3df747	0.0463784
105	0x3d677ac3	0.05651356
106	0xbb8edebf	-0.0043600495
107	0x3d4c11c7	0.04982164
108	0x3c84681b	0.016162923
109	0x3d4431fc	0.04789923
110	0x3d16a56d	0.036778856
111	0x3d2594fd	0.04042529
112	0x3bd3bd98	0.0064618103
113	0xbd76c05e	-0.06024205
114	0xbc5e62a0	-0.013573319
115	0x3c9c9350	0.019113213
116	0xbbd866ea	-0.006604065
117	0x3d748afa	0.05970285
118	0x3db2236b	0.08698162
119	0xbbf9ac31	-0.007619404
120	0xbd2ec443	-0.04266764
121	0x3beac3c8	0.007164452
122	0x3c92cc55	0.017919699
123	0x3cd079c0	0.02544868
124	0x3cfc4b45	0.03079761
125	0x3c0cc2b7	0.0085913455
126	0x3cf328e2	0.02968258
127	0x3c97fcd5	0.018553177
128	0xbd395200	-0.045244217
129	0xbd80157a	-0.06254096
130	0x3d4bece9	0.049786482
131	0xbc87255f	-0.016497312
132	0xbcb10c6c	-0.021612369
133	0xbd0b2032	-0.03396625
134	0x3d5845a0	0.052800775
135	0x3c8defa2	0.01732618
136	0x3cb670bd	0.022270555
137	0xbd380371	-0.044925157
138	0x3ca9bbe4	0.020719476
139	0x3d08301c	0.033249006
140	0xbd6e6841	-0.058204893
141	0x3d3a4550	0.045476258
142	0x3c440b06	0.011965519
143	0xbbb1fb13	-0.0054315417
144	0xbd5de29b	-0.054171186
145	0x3cc249ae	0.023716774
146	0xbd12a1bb	-0.03579877
147	0x3d36408d	0.044495154
148	0x3d53dcf2	0.05172438
149	0x3caeb83b	0.021328082
150	0xbd2e63b5	-0.042575557
151	0xbcf14c22	-0.029455248
152	0x3d927169	0.071505375
153	0x3d0e6c51	0.034771267
154	0xbd12029d	-0.035647023
155	0xbd7bcf82	-0.06147719
156	0x3c1b166c	0.009465795
157	0x3d0c70da	0.03428731
158	0x3ccfc5c5	0.025362859
159	0x3d03bcd6	0.03216251
160	0x3bf052be	0.0073340824
161	0x3d1bf247	0.03807285
162	0x3be1e310	0.006893523
163	0x3cfeae26	0.0310889
164	0x3c4bd030	0.0124397725
165	0xbc5f03b8	-0.013611726
166	0xbc9f15d1	-0.019419583
167	0xbd5effce	-0.054443173
168	0x3d68fc76	0.05688139
169	0x3e2f1276	0.17096886
170	0x3d78dcc8	0.06075743
171	0xbcb69f0a	-0.022292633
172	0xbaba8f8b	-0.0014233453
173	0xbccebdb5	-0.025236944
174	0x3b11a0d8	0.0022221114
175	0xbd04206f	-0.032257494
176	0xbd4f830a	-0.050662078
177	0xbc934f91	-0.017982276
178	0xbd4fc75e	-0.05072724
179	0xbc350415	-0.0110483365
180	0xbcbbbe9c	-0.022918038
181	0x3d403000	0.046920776
182	0xbd19fd44	-0.03759505
183	0xbc5a22f1	-0.013313995
184	0xbd3d4f9e	-0.046218507
185	0xbd4ad472	-0.04951901
186	0xbd395bb3	-0.045253467
187	0x3cae8baf	0.02130684
188	0x3d229ae8	0.03969851
189	0x3d5d47b7	0.05402347
190	0xbd61f80d	-0.0551682
191	0x3c271983	0.010198954
192	0x3d0f8033	0.03503437
193	0x3d1b8b0b	0.0379744
194	0xbd4bc203	-0.04974557
195	0x3d1e64c8	0.03867033
196	0x3a213860	0.0006150063
197	0x3b6731fc	0.0035277596
198	0x3c5622d3	0.013069826
199	0xbc7d8f2b	-0.015476028
200	0xbcd23578	-0.025660262
201	0xbc401cfb	-0.0117256595
202	0xb91cb9f8	-0.00014946598
203	0xbc326442	-0.010888161
204	0x3d1a33bf	0.037647005
205	0xbc9f8dff	-0.019476889
206	0xbd763ec8	-0.060118467
207	0xbbe8511b	-0.0070897467
208	0x3c518534	0.012788106
209	0x3d25096a	0.04029218
210	0x3d1236aa	0.035696663
211	0xbd22cdb0	-0.03974694
212	0x3c9e758b	0.019343158
213	0xbd5e5c16	-0.05428704
214	0xbc2d32c8	-0.010571189
215	0xbcd78e6c	-0.02631303
216	0x3bc8462e	0.0061118817
217	0xbd81823c	-0.06323668
218	0x3d0abce2	0.03387154
219	0xbc54815e	-0.012970297
220	0xbcf5411a	-0.02993827
221	0xbd4e0372	-0.050296254
222	0xbd274788	-0.040839702
223	0xbd4e4340	-0.050357103
224	0xbc2e0d65	-0.010623311
225	0xbd68357e	-0.05669164
226	0x3d2326af	0.039831813
227	0x3d2c9499	0.0421339
228	0x3ddb181c	0.10697958
229	0x3d32b39f	0.04362833
230	0x3d65c696	0.05609759
231	0x3d15daa2	0.036585458
232	0xbd3a44e0	-0.04547584
233	0xbd20d80a	-0.03926853
234	0x3c582e78	0.013194673
235	0x3c9bccc1	0.019018533
236	0xbce28f0c	-0.0276561
237	0x3d1620cb	0.036652368
238	0xbd7c1b78	-0.061549634
239	0xbccd4258	-0.02505605
240	0x3d06f718	0.03295049
241	0xbd076792	-0.033057757
242	0xbd5d2a86	-0.05399563
243	0xbd649acf	-0.0558117
244	0x3c6fea83	0.014643314
245	0xbcdda7be	-0.027057525
246	0xbc35ebe1	-0.011103601
247	0x3d7f3f77	0.062316384
248	0x3cd401b3	0.025879717
249	0xbd7acb4d	-0.06122904
250	0xbd3309b5	-0.04371043
251	0xbd4eaea1	-0.050459508
252	0xbd357bde	-0.044307582
253	0x3d705f59	0.05868468
254	0x3d225c22	0.039638646
255	0x3d397ff9	0.04528806

posterior_enc.4.bias f4 [32]
0	0xbc92fe05	-0.017943392
1	0xbb17ad3c	-0.0023144027
2	0x3c2394aa	0.009984175
3	0x3cd1c5f9	0.025607096
4	0x3c6c5a95	0.014425893
5	0x3c79436e	0.01521383
6	0x3d53bee8	0.051695734
7	0x3d43d1c2	0.047807463
8	0x3d314e61	0.04328764
9	0xbcc75f23	-0.024337357
10	0x3ba57b98	0.005050134
11	0x3cbc9b1e	0.023023184
12	0x3c5bdb5e	0.013419
13	0xbd035f7d	-0.032073487
14	0x3d63b4a2	0.055592187
15	0x3bd0f741	0.006377131
16	0xba4c1fb5	-0.0007786707
17	0x3f822f8f	1.0170764
18	0x3b698d95	0.0035637368
19	0xbacdefc2	-0.0015711712
20	0x3eba64a3	0.36404905
21	0xbe568f51	-0.20953108
22	0xbd13dd35	-0.03609963
23	0xbc741f25	-0.014900004
24	0xbde5f63e	-0.112286076
25	0x3d68b28c	0.0568109
26	0x3ca5e0a7	0.020248724
27	0x3c1f4520	0.0097210705
28	0xbaaa7e65	-0.0013007639
29	0xbcd0231e	-0.02540737
30	0x3c03beed	0.008041126
31	0xbd69055e	-0.056889884

prior_enc.0.weight f4 [256, 8]
0	0xbe5a3720	-0.21310091
1	0xbe07f260	-0.13276052
2	0x3e3c222f	0.18372415
3	0x3d4db000	0.050216675
4	0xbdc4a0e4	-0.09601
5	0xbe6ef812	-0.23336819
6	0xbce896eb	-0.028392276
7	0x3e22ffd0	0.15917897
8	0xbddda8fe	-0.10823248
9	0x3bb7c9e4	0.005608784
10	0x3e87ced2	0.2652498
11	0xbe72008a	-0.23633018
12	0x3c7a83af	0.015290185
13	0xbe2e39e6	-0.17014274
14	0xbeb9a1e9	-0.3625634
15	0x3de26874	0.11055079
16	0xbddfd788	-0.10929781
17	0xbeb087df	-0.3447866
18	0x3e9ce92e	0.30646652
19	0xbea08d06	-0.31357592
20	0x3e41d1ae	0.18927643
21	0xbc8b0c27	-0.016973568
22	0xbd75d162	-0.060014136
23	0xbdd90813	-0.10597243
24	0xbde5d839	-0.11222882
25	0xbd5bdae3	-0.053675544
26	0x3e43081b	0.1904606
27	0xbd24741f	-0.040149804
28	0x3e8fad4e	0.28061908
29	0xbe1cf4ab	-0.15327708
30	0x3d6100d2	0.054932423
31	0x3ea6ce67	0.32579347
32	0xbe9286e5	-0.2861854
33	0x3df7908a	0.120881155
34	0x3e181d12	0.1485484
35	0x3e862fd3	0.26208362
36	0x3e27380b	0.16329972
37	0xbe76d1f1	-0.24103524
38	0x3e5edd58	0.21764123
39	0xbe97d02a	-0.29651004
40	0x3eae8479	0.34085444
41	0x3e3c412c	0.18384236
42	0x3ec2580a	0.37957793
43	0x3e13dfcd	0.14440842
44	0x3e121378	0.14265239
45	0xbe697bcc	-0.22801131
46	0x3e3d2fa3	0.18475203
47	0x3cbb31a0	0.022850811
48	0x3e98e19e	0.29859632
49	0x3e5cc034	0.21557695
50	0xbb65f39a	-0.0035087825
51	0xbe55cd00	-0.20878983
52	0xbd9e92a9	-0.07742817
53	0x3db310ad	0.08743415
54	0xbdfbe524	-0.122995645
55	0xbf06494f	-0.5245561
56	0xbe803032	-0.2503677
57	0x3e2b3e2d	0.16722937
58	0x3e312c67	0.17302094
59	0x3e41505b	0.1887831
60	0xbe32e65c	-0.17470688
61	0xbdbc5c3b	-0.09197279
62	0xbeaf6995	-0.3426024
63	0x3e14055a	0.14455166
64	0x3d92d7f3	0.07170095
65	0xbeb2f632	-0.34953457
66	0x3e440c28	0.19145262
67	0x3dca25e4	0.09870508
68	0xbda2fed2	-0.07958759
69	0x3e8103bd	0.25198165
70	0x3e2334b5	0.15938075
71	0x3eaa6fc3	0.33288392
72	0xbe21a5d9	-0.15785922
73	0xbe6968ba	-0.22793856
74	0x3e438649	0.19094194
75	0x3e4880e9	0.19580425
76	0x3dd07d2a	0.10180123
77	0xbe8a767e	-0.27043527
78	0xbea10c29	-0.3145459
79	0x3e65b2cd	0.22431488
80	0x3e376ac3	0.1791182
81	0x3ea02dae	0.3128485
82	0x3e58fbbc	0.21189779
83	0x3aabee62	0.0013117308
84	0xbd6e9b57	-0.058253612
85	0xbcf8f52b	-0.030390343
86	0xbe83281b	-0.25616536
87	0x3d87eabd	0.0663657
88	0x3e262cfa	0.16228095
89	0xbe9b6de6	-0.30357283
90	0x3e6f9b65	0.23399122
91	0x3e277b6d	0.16355677
92	0xbe9c05af	-0.30473086
93	0x3ea81add	0.32832995
94	0xbe7c8f81	-0.24664117
95	0x3eabe129	0.3357022
96	0xbe9b7103	-0.3035966
97	0xbe55dc63	-0.20884852
98	0x3e111d69	0.14171375
99	0x3e777c74	0.24168569
100	0x3e379187	0.17926608
101	0xbde154ae	-0.110024795
102	0x3e623a13	0.22092466
103	0x3c8ff78f	0.0175741
104	0x3df5072a	0.11964257
105	0xbd8ec05e	-0.06970285
106	0xbdf8f91c	-0.12156889
107	0xbc113766	-0.008863306
108	0x3d72c1f9	0.059267018
109	0xbe8cf961	-0.2753401
110	0x3e48e55c	0.19618744
111	0xbe858302	-0.26076514
112	0xbeb206dc	-0.34770858
113	0xbe5f8233	-0.21827011
114	0x3e0ed2e1	0.13947631
115	0xbcb566f4	-0.022143818
116	0xbe48c1f5	-0.19605239
117	0x3e63bd34	0.22240144
118	0x3e74a9e1	0.23892929
119	0x3df281a9	0.11841137
120	0xbe7c6150	-0.24646497
121	0xbe5bc114	-0.21460372
122	0x3dc1543b	0.09439894
123	0x3e361b5b	0.17783873
124	0xbce8f7ad	-0.028438414
125	0x3c9030ee	0.017601456
126	0xbe27562d	-0.16341467
127	0xbea0d7ca	-0.31414634
128	0xbded68fc	-0.1159229
129	0xbdbbee45	-0.09176306
130	0x3e60680c	0.2191469
131	0xbe906774	-0.28203928
132	0xbc346080	-0.0110093355
133	0x3e7a03fd	0.24415584
134	0xbe7d4dea	-0.24736753
135	0x3e58a6ae	0.21157333
136	0x3c3a6627	0.011376894
137	0xbe2a795d	-0.16647859
138	0xbc4eba87	-0.012617714
139	0x3e25fd61	0.16209938
140	0x3cecd1c3	0.028908616
141	0x3e345377	0.17609964
142	0x3e6bc076	0.23022637
143	0x3dda0ab1	0.106465705
144	0xbdd55886	-0.10417275
145	0x3d7b1f2f	0.061309036
146	0x3cd7653e	0.026293393
147	0x3d2b9e5c	0.04189907
148	0x3e00c8bd	0.12576576
149	0x3eaf21d1	0.34205487
150	0xbe077a31	-0.13230206
151	0xbe9fe6a9	-0.31230667
152	0x3d6f7567	0.058461573
153	0x3e5035e7	0.20333062
154	0x3e98dc64	0.29855645
155	0xbdeb94dc	-0.11503002
156	0xbeb2e3be	-0.34939378
157	0x3e7e4ae2	0.24833253
158	0xbedb0801	-0.42779544
159	0xbe98dd20	-0.29856205
160	0x3e95b6c3	0.29241
161	0xbe0ba362	-0.13636544
162	0x3def33a4	0.116797715
163	0xbe8c1803	-0.2736207
164	0x3ea6c839	0.32574633
165	0x3ce0daa3	0.027448004
166	0x3bda79c3	0.006667347
167	0x3ea66325	0.32497516
168	0xbd41e6e3	-0.04733933
169	0xbe4fcdb2	-0.2029331
170	0xbe8c4a20	-0.27400303
171	0xbd74808c	-0.059692904
172	0x3ea52049	0.32251194
173	0x3c37b44d	0.011212421
174	0x3d9fc8bb	0.07801958
175	0x3e4a8cf0	0.19780326
176	0xbe96bfcb	-0.294432
177	0x3d874d36	0.06606524
178	0x3e29c747	0.16579925
179	0xbe114151	-0.14185072
180	0xbc79d3de	-0.015248267
181	0x3df1cb5d	0.118063666
182	0x3e2c6f92	0.16839436
183	0xbe3dc698	-0.18532789
184	0x3e1d56d5	0.15365155
185	0xbe68c5ba	-0.22731677
186	0xbdbad9de	-0.09123586
187	0xbe16d2f4	-0.1472891
188	0xbe027e64	-0.12743527
189	0xbdf9190c	-0.121629804
190	0x3e64ec38	0.22355735
191	0xbea74a18	-0.32673717
192	0xbe2ccba1	-0.16874553
193	0x3e837ec1	0.25682643
194	0x3dff12bb	0.124547444
195	0xbe270b3c	-0.1631288
196	0x3cfd2557	0.030901594
197	0xb8957c4c	-7.128026e-05
198	0x3e921e20	0.2853861
199	0x3c654247	0.0139928525
200	0x3e09bf99	0.13451995
201	0x3d59071f	0.052985307
202	0xbead848e	-0.33890194
203	0x3dc52c4a	0.09627588
204	0x3e64a845	0.22329815
205	0x3e65b725	0.22433145
206	0xbe809809	-0.25115994
207	0xbd46f83c	-0.04857658
208	0x3de6cac0	0.1126914
209	0xbe9fea63	-0.3123351
210	0xbe8a8485	-0.2705423
211	0xbd8fffbb	-0.070311986
212	0xbd923007	-0.07138067
213	0x3e45d317	0.19318806
214	0xbeceb000	-0.40368652
215	0x3e93cd51	0.2886758
216	0xbe763d38	-0.2404679
217	0x3e23188f	0.15927337
218	0x3cfbe67a	0.030749548
219	0xbe30c5ae	-0.17262909
220	0xbe8e3ea1	-0.27782157
221	0x3e5e0100	0.21680069
222	0x3dc47664	0.09592894
223	0xbe1f625e	-0.15564868
224	0xbc8e6025	-0.01737983
225	0xbe135c2d	-0.14390631
226	0xbd63f69e	-0.055655114
227	0xbeae7732	-0.34075314
228	0xbe95a3e3	-0.29226598
229	0xbd764b3f	-0.060130354
230	0x3e405cbc	0.18785375
231	0x3b7f9cde	0.0039003412
232	0xbe989a1f	-0.29805085
233	0x3e308803	0.17239384
234	0xbe1eba43	-0.1550074
235	0x3e8ad9ea	0.2711938
236	0xbb665f0c	-0.0035151867
237	0xbea360ae	-0.31909698
238	0xbddfa3cd	-0.109199144
239	0x3e1c4c25	0.15263422
240	0xbeaef588	-0.341717
241	0x3e3e2afd	0.18571086
242	0xbeb0c784	-0.34527218
243	0x3e26d575	0.16292365
244	0x3e723afe	0.23655316
245	0x3d91eb8b	0.071250044
246	0x3e8a9ce2	0.27072817
247	0x3e519300	0.20466232
248	0x3e02dd9d	0.12779851
249	0x3e84ef97	0.25964043
250	0x3d23b971	0.039971773
251	0x3e28a13c	0.16467756
252	0xbe1e27ce	-0.15444872
253	0xbe8e7016	-0.2781989
254	0xbeb7a37c	-0.35866916
255	0x3e470220	0.19434404

prior_enc.0.bias f4 [256]
0	0xbc8ed38f	-0.017434863
1	0xbe0543bd	-0.13014121
2	0x3e9e5c26	0.3092968
3	0x3dd0959c	0.10184786
4	0x3db5f3d3	0.088843964
5	0xbe8cc762	-0.27495867
6	0x3bb6d362	0.005579398
7	0x3e9b3ca7	0.30319712
8	0xbcad652e	-0.02116641
9	0x3e9dfc97	0.30856773
10	0x3b8a80bf	0.0042267735
11	0xbe2d80d4	-0.16943675
12	0xbeab7b93	-0.33492717
13	0x3ab8746d	0.0014072784
14	0x3e2405b0	0.16017795
15	0x3ea46091	0.32104924
16	0xbe20750c	-0.1566965
17	0xbce17edd	-0.027526313
18	0xbbb95e66	-0.005657005
19	0x3d0cd807	0.034385707
20	0xbd4a1769	-0.049338732
21	0xbd6be8ed	-0.057595182
22	0xbd7dc817	-0.0619584
23	0x3dafc9c5	0.08583406
24	0x3d6c12f0	0.057635248
25	0xbe064d7e	-0.13115498
26	0xbe131c80	-0.1436634
27	0xbdd1b767	-0.10240059
28	0xbe61bf8e	-0.22045729
29	0x3a9fc3bf	0.0012189074
30	0x3e09fd2f	0.13475488
31	0xbe8976da	-0.2684849
32	0xbea2900c	-0.31750524
33	0xbe2cbb6f	-0.16868375
34	0x3e2b9cfa	0.167591
35	0xbe983ca7	-0.29733774
36	0xbe857074	-0.26062357
37	0xbe8bd656	-0.27311963
38	0xbea8b22d	-0.32948437
39	0xbd169d09	-0.036770854
40	0xbe8ab66d	-0.27092305
41	0x3eb1ec14	0.34750426
42	0xbe56b091	-0.20965792
43	0x3ea40c30	0.32040548
44	0x3e9b2dbd	0.30308333
45	0xbe61cd7a	-0.2205104
46	0xbe59dce0	-0.21275663
47	0x3e5d3628	0.2160269
48	0x3e9a3acf	0.30122992
49	0xbe2b27ef	-0.16714452
50	0x3e23f53c	0.16011518
51	0xbdf8ad43	-0.12142422
52	0xbdbbdd7b	-0.091731034
53	0x3e351848	0.17685044
54	0x3e90ab01	0.28255466
55	0xb9b6780d	-0.0003480319
56	0x3e20a124	0.1568647
57	0x3eb339fb	0.35005173
58	0xbcce597f	-0.02518916
59	0xbcd751c5	-0.026284108
60	0x3e8d84b2	0.276403
61	0xbe60dc90	-0.21959138
62	0x3e25e49d	0.1620049
63	0x3e02863d	0.1274652
64	0x3e1eaca9	0.15495552
65	0x3e6c0740	0.2304964
66	0x3e45a18f	0.19299911
67	0xbd3f69b3	-0.046731662
68	0xbe4ffcc9	-0.20311274
69	0x3de3a48d	0.1111537
70	0xbe873606	-0.26408404
71	0xbd101805	-0.035179157
72	0xbdd15783	-0.1022177
73	0x3e8a21e1	0.26978973
74	0x3e5d2f78	0.21600139
75	0xbd0d009f	-0.03442442
76	0xbe8a8ef8	-0.27062201
77	0xbe94a946	-0.29035395
78	0x3e8d01e1	0.27540496
79	0xbe052fd2	-0.13006523
80	0x3eb239ae	0.3480963
81	0xbe9d780b	-0.30755648
82	0x3e9b74d3	0.30362567
83	0x3e86a596	0.26298207
84	0xbe88c604	-0.26713574
85	0xbe379912	-0.17929485
86	0x3d78fb3f	0.060786482
87	0xbe924461	-0.28567794
88	0x3e1a2d04	0.15056235
89	0x3dec4747	0.115370326
90	0x3df5e9cd	0.120074846
91	0x3e97036c	0.29494798
92	0xbd63dca4	-0.05563034
93	0xbd15b068	-0.036545187
94	0xbe51ddb4	-0.2049473
95	0x3e698f07	0.22808467
96	0x3e8a44eb	0.27005705
97	0x3e9f76fb	0.31145462
98	0x3d0f702c	0.035019085
99	0xbd0b7e60	-0.034056067
100	0x3e29419d	0.16528936
101	0x3e776837	0.24160849
102	0x3ea3d842	0.3200093
103	0x3e93f3bb	0.2889689
104	0xbe65d50e	-0.22444555
105	0xbbdb5bff	-0.0066943164
106	0x3e4e313b	0.20135967
107	0xbd4e000f	-0.050293025
108	0x3ead805c	0.33886993
109	0x3eb3876e	0.35064262
110	0x3e02260d	0.12709828
111	0xbe5f32a5	-0.21796663
112	0xbdf6b064	-0.120453626
113	0x3e149f98	0.14514005
114	0xbe2fad5c	-0.17155975
115	0xbe93beba	-0.2885645
116	0xbd653706	-0.055960678
117	0xbe902e28	-0.28160214
118	0xbecd7151	-0.40125516
119	0x3e6dd741	0.23226644
120	0xbe26f472	-0.16304186
121	0xbe4c6066	-0.19958648
122	0xbe7d410d	-0.24731846
123	0x3e927522	0.2860499
124	0xbd938601	-0.072032936
125	0xbe418183	-0.18897061
126	0x3c3cf910	0.0115339905
127	0xbe6b6fa9	-0.22991814
128	0x3ceddb95	0.029035369
129	0xbe8211b4	-0.2540413
130	0xbca77aa5	-0.020444224
131	0x3e56a01b	0.20959513
132	0x3e838ae5	0.25691906
133	0x3e8c759a	0.27433473
134	0x3ead41a7	0.3383915
135	0xbe521bd4	-0.20518428
136	0xbe4f9c59	-0.20274486
137	0x3e35c173	0.17749576
138	0x3dd71a74	0.105030924
139	0x3e518e23	0.20464377
140	0x3e53a66b	0.20668952
141	0x3dae437f	0.085089676
142	0x3eae004f	0.3398461
143	0xbe834313	-0.2563711
144	0xbe30fabe	-0.1728315
145	0x3eb15dac	0.34641778
146	0xbd5685c1	-0.05237365
147	0x3e9724cb	0.29520258
148	0xbe1457f0	-0.1448667
149	0x3c4b0fb9	0.012393885
150	0xbdd17332	-0.1022705
151	0x3e927eb4	0.28612292
152	0x3e1fa86f	0.15591596
153	0x3d3c9e37	0.046049323
154	0x3db9b952	0.0906855
155	0x3da14ad5	0.07875601
156	0xbeb082a4	-0.3447467
157	0xbe6cca39	-0.23124017
158	0xbe02b525	-0.12764414
159	0x3da0af0f	0.0784589
160	0x3e9ac0f0	0.30225325
161	0xbe4a36c2	-0.19747451
162	0x3d99a792	0.075026646
163	0x3dac506f	0.08413779
164	0xbdad05f2	-0.084483996
165	0xbcb21ce9	-0.021742301
166	0xbe8e29ea	-0.27766353
167	0x3e951d49	0.29123905
168	0xbd840c6d	-0.064476825
169	0xbddcfdeb	-0.107906185
170	0x3d252098	0.040314287
171	0xbe43cf13	-0.19121961
172	0xbe65f5fc	-0.22457117
173	0xbdcc47a3	-0.09974601
174	0x3e203b53	0.1564763
175	0xbe56a878	-0.20962703
176	0x3d1387cf	0.03601819
177	0xbd072bc4	-0.033000723
178	0x3e5ab9d2	0.21359947
179	0xbc9ad02d	-0.018898094
180	0xbd4c3aec	-0.04986088
181	0x3e84b6c6	0.25920695
182	0xbea91abe	-0.33028215
183	0xbd460c1f	-0.048351403
184	0x3e3c3e5e	0.18383166
185	0xbea730ec	-0.32654512
186	0x3e870a9d	0.26375285
187	0x3eb03ac1	0.34419826
188	0x3d911d6b	0.07085689
189	0x3ebb5545	0.36588493
190	0x3e0a445a	0.13502637
191	0xbded0d8e	-0.11574851
192	0xbd93bc2f	-0.072136275
193	0xbe627eda	-0.22118703
194	0xbe774737	-0.2414826
195	0x3e39cda3	0.1814485
196	0x3e8d5def	0.27610728
197	0x3dafaebd	0.085782506
198	0x3eb64118	0.35596538
199	0xbd8e4874	-0.06947413
200	0xbe9e4f75	-0.30919996
201	0xbe4e2cba	-0.2013425
202	0x3e7f66a9	0.24941505
203	0x3d49d1f3	0.04927249
204	0x3e1c5e49	0.15270342
205	0xbe74f709	-0.23922361
206	0xbe9eea2a	-0.31038028
207	0xbe819af9	-0.25313547
208	0xbe53c9ab	-0.20682399
209	0x3ea5d5bb	0.32389626
210	0x3e9041af	0.28175113
211	0xbdfd4c61	-0.12368084
212	0x3e4fc545	0.20290096
213	0x3e974474	0.29544413
214	0x3e6fa4f6	0.23402771
215	0x3e07b429	0.1325232
216	0x3c907112	0.017632041
217	0xbdfa0f72	-0.12209977
218	0x3ccdeb56	0.025136631
219	0x3ddacd02	0.106836334
220	0x3ea4ff02	0.32225806
221	0x3eac95c3	0.3370801
222	0x3d6c8650	0.057745278
223	0x3da5b842	0.08091785
224	0x3e24de2d	0.16100378
225	0x3d27b70f	0.040946063
226	0x3c970bf9	0.018438326
227	0x3e80be19	0.25145033
228	0xbb414257	-0.0029489005
229	0x3e684edf	0.22686337
230	0x3e8e032f	0.27736804
231	0x3d6f3bb4	0.058406547
232	0xbd85f2fd	-0.06540487
233	0x3e1f3cf5	0.15550597
234	0xbe5726f5	-0.21010955
235	0xbde6bd16	-0.11266534
236	0xbe6981c7	-0.22803412
237	0x3e2a4d4e	0.16631052
238	0xbdcba1f8	-0.099430025
239	0x3d750929	0.05982319
240	0xbd23f8f9	-0.04003236
241	0xbd5d5897	-0.054039564
242	0x3dae04c3	0.08497002
243	0x3ea04ecc	0.31310117
244	0xbdea5e58	-0.11443776
245	0x3e8393e4	0.2569877
246	0xbe7ab367	-0.24482499
247	0x3e9ea11d	0.30982295
248	0xbe90e6a4	-0.28300965
249	0xbe6082f2	-0.21924952
250	0xbe728566	-0.236837
251	0x3e171525	0.1475416
252	0xbe8976fd	-0.26848593
253	0xbe14575e	-0.14486453
254	0xbe5fb48e	-0.2184622
255	0xbbc62b4e	-0.006047643
