runs/phase1/pessimist.pt (torch, 270381 bytes, 5 tensors)

net.0.weight f4 [256, 2]
00000000: 1787 9ebc 3365 ca3e b1fc 14bf 1d38 05bf
00000010: 1259 95be 76b1 2c3e fd82 093b a6df 0e3f
00000020: d4f7 ddbc 4880 633e 5cd3 5abe 1c54 0ebe
00000030: c2ef 2cbf 90c5 efbe 9f3d 95be 2e73 9d3c
00000040: 38b9 8d3e 93c8 d33e de70 f5be 86a7 9dbe
00000050: 5796 893e 7bc7 183f 711c 9bbd 5c86 123f
00000060: 206b e9bd 383c 993d 39f2 273f 0ed5 26bf
00000070: 4d96 bcbe 585c edbd 834f 5fbe 64d2 253f
00000080: 86aa eabe 86a8 a6be 53ef fcbe 2089 29bf
00000090: 734b d2be b202 183f 16aa a03e b5e9 a63e
000000a0: 5052 183d 7b9c b9be 7001 f53d 4d04 29bf
000000b0: 68cc 02bf 4ca4 babe 419d eb3e 7401 db3e
000000c0: f68f a0be 0003 d1bc 7bca f23e e465 383f
000000d0: 1ded 993e 3bcc 003e b84f 033f 519c b5be
000000e0: 4bae 133e 6558 0cbf 8aec fabe f205 bbbe
000000f0: 76c0 a93e 7f9d 963e 5824 f6be 344a 533e
00000100: 526e cd3e 4061 e0bd 0ba0 be3c 4485 1e3e
00000110: 0ca6 eb3e 1b88 313f 6e7f 0bbf 1cad 84be
00000120: a509 963e eed0 193f f31b 1c3f 0481 203f
00000130: 181a 103e 4969 1dbf 2838 853d 4b7e e2be
00000140: ba87 1cbf 7a04 213f 367f 0f3f 537d 37bf
00000150: c170 1c3e 5ca7 bcbd 604f eebd c7b9 a5be
00000160: 9df6 923e a18f d4be 302a 8f3e 2184 c03e
00000170: 055d 083f 99cd 8a3e 4529 33bf 76da eabe
00000180: 213f c53e 9802 373e d635 0dbf 0b78 d0be
00000190: 22ca 2d3f 688e fc3e 47c9 64be a188 0abe
000001a0: 4d70 2cbf 003c 50bc ae6e f3be a35e 01bf
000001b0: 18a5 c43b 6166 143e acb0 afbe 76f4 ce3e
000001c0: 4a2f cabe 7102 253f 3401 043f ec67 0abf
000001d0: 4059 35be 6e6c ba3c e9ae b63d da32 1e3e
000001e0: a858 993e 3d02 663d 1546 bfbe 6193 a33e
000001f0: 81a4 2dbf 2e95 d6be e093 0dbe 69b3 75be
00000200: 724e 7dbe 0c5e 14bf b005 1abe b4c6 1a3e
00000210: 16db ebbe 8882 af3b 77df 033f 709d a8bd
00000220: 60fd a03c 80dc 79bd 3df0 083e e57c f13e
00000230: de26 2e3f b290 ec3e ed13 293f 8fc7 9ebd
00000240: 129d 22bf 61a2 abbe 856b f83e cb93 d63c
00000250: 33f3 b3be 9db7 0abf 4668 29bf 24c8 18bf
00000260: 3e45 1cbe 049d c03e d5fc cc3e f2ff 22bf
00000270: 1d49 e53e 8339 12bf d013 19be f9cb 92be
00000280: e477 0bbe d42a 0ebe 6e13 14bf e4bb 0ebf
00000290: 0109 c2bd d775 ab3b ef77 9dbe d350 833e
000002a0: 8fed 22bf c076 43bd 020e 1d3f 99b3 9dbe
000002b0: f7e4 213f 1031 7c3e 685c 20bf 39bb df3e
000002c0: e81b a7bd d59d a1be 55b8 113f d57f 13bf
000002d0: e864 9b3d 6099 17be 7d66 043f c220 383e
000002e0: 6eed ad3e e491 8a3e 4c1f 2ebe 0447 18be
000002f0: a756 1abf a2e4 b63e 1fa4 113f 44ed fa3e
00000300: cc5f ffbe d02c 013d a236 ffbe eb4b c7be
00000310: 694a eabe 381d 6b3e 5dbe d7be 00c2 7cbc
00000320: f0f3 ba3c 7377 de3e 0ed6 08bf 428b f8be
00000330: d4d7 d8be dbee f53e 677d 7ebe 84c7 153f
00000340: a459 813e fe6c a43d 0844 ee3c 9e2a 65bd
00000350: bca8 ad3d 3463 3fbe f1d8 993c 0a3e bf3d
00000360: 2098 0dbf 7fc1 bdbe 2e05 1b3f 5e21 06bf
00000370: b55a b3bd 4b5e 323f 7e5f 983e 589c 713d
00000380: 7b65 26bf d5a9 b13e c4ef 00bf 288a 4dbe
00000390: 9342 37be a68c 86bd 5474 0abb b31f 183f
000003a0: 213d 863d 4b7e 263f 7722 db3e a71a f0be
000003b0: bb92 b23e 8dbe e1be abaa b1be ba3b 2e3e
000003c0: 5951 7b3e 7cb5 0b3f 7ad9 80be 36fb 053d
000003d0: e7e9 c83e d7ba 21bf 292f 043f 2c75 1abf
000003e0: 80ac 1f3c e835 f6bd 0dad bebe 7067 bf3d
000003f0: 8218 163f 1e1e 9ebe b2f0 d6be 8b6f 56be
-0.019351525 0.39530334 -0.58198076 -0.5203875 -0.29169518 0.16864571 0.0020982616 0.5581001
-0.027095713 0.22216904 -0.2136969 -0.13899273 -0.6755334 -0.46830416 -0.29148576 0.019219961
0.27680373 0.41363963 -0.47937673 -0.30791873 0.26872513 0.59679383 -0.07573784 0.57236266
-0.113973856 0.07482189 0.6560398 -0.65168846 -0.3683342 -0.11589879 -0.21807675 0.64774156
-0.45833224 -0.32550448 -0.4940134 -0.6622486 -0.41073188 0.5937911 0.31379765 0.3260018
0.037187874 -0.36252198 0.11963165 -0.6602219 -0.5109315 -0.36453474 0.46018413 0.42774546
-0.31359833 -0.025514126 0.47420105 0.7203047 0.30063716 0.12577908 0.51293516 -0.35470822
0.14421956 -0.5482238 -0.4900859 -0.36527973 0.3315465 0.29417035 -0.48074603 0.20633775
0.4012323 -0.10956049 0.023269674 0.15480524 0.4602512 0.69348305 -0.5449132 -0.25913322
0.29304233 0.60084426 0.6098015 0.6269686 0.14072454 -0.6148878 0.065048516 -0.4423698
-0.611446 0.62897456 0.56053483 -0.71675605 0.15277387 -0.09211609 -0.11636233 -0.323683
0.28703776 -0.4151583 0.27961874 0.37600806 0.53266937 0.27109984 -0.6998485 -0.45869797
0.38524726 0.17872083 -0.5516027 -0.40716586 0.67886555 0.49327397 -0.22342406 -0.13528682
-0.6735886 -0.012709618 -0.4754538 -0.5053503 0.006001126 0.1449218 -0.34314477 0.40420884
-0.39489204 0.6445685 0.51564336 -0.5406482 -0.17709827 0.022756781 0.0892008 0.15449086
0.29950452 0.05615448 -0.37358156 0.3194838 -0.6782914 -0.4191069 -0.13825941 -0.23994221
-0.24736956 -0.57956004 -0.15041232 0.15114862 -0.46065587 0.0053561367 0.51512855 -0.08233154
0.019652069 -0.0610013 0.13372894 0.471656 0.68028057 0.46204144 0.6604603 -0.077529065
-0.6352092 -0.33522323 0.4851953 0.02619352 -0.35146484 -0.5418642 -0.66174734 -0.5968039
-0.15260789 0.37619793 0.40036646 -0.6367179 0.44782344 -0.57119006 -0.14948964 -0.28671244
-0.13619953 -0.13883525 -0.5784215 -0.5575545 -0.094743736 0.0052325535 -0.30755565 0.256476
-0.63643736 -0.04772067 0.613495 -0.30801085 0.6324 0.24628091 -0.62641 0.43697527
-0.081596196 -0.3156573 0.56921893 -0.5761693 0.07587606 -0.14804602 0.51718885 0.17981246
0.33970207 0.2706443 -0.17004126 -0.1487084 -0.6028847 0.35721308 0.56891054 0.49009144
-0.49877775 0.031536877 -0.4984637 -0.38925108 -0.45759895 0.22960365 -0.42137423 -0.015427113
0.022821397 0.43450508 -0.5345162 -0.48543745 -0.42352164 0.48033795 -0.24852525 0.5850756
0.25263703 0.08028601 0.029085174 -0.055948846 0.08479449 -0.18690187 0.018780204 0.09338005
-0.5531025 -0.37061688 0.6055478 -0.52394664 -0.08757535 0.6967513 0.29760355 0.05898699
-0.64998597 0.34699884 -0.50365853 -0.20072234 -0.1789649 -0.06569795 -0.0021126466 0.5942337
0.06554628 0.6503646 0.42799732 -0.46895334 0.3487757 -0.4409069 -0.34700522 0.17014971
0.2454275 0.545738 -0.2516592 0.032710277 0.39240953 -0.6317572 0.5163446 -0.6033504
0.009745717 -0.120220006 -0.37241402 0.09345901 0.58631146 -0.30882353 -0.4198051 -0.20940988

net.0.bias f4 [256]
00000000: d49f 88be 6af7 86be a474 683e 654c 9a3e
00000010: 4883 adbe 05f2 ee3d 5cb9 e43e b31c 9ebd
00000020: e363 873e 54a3 2ebe af3e 5f3e e90d 00bf
00000030: a0e3 d4be bc16 a8be 1307 383f 4be2 57be
00000040: 000e fdba f767 afbe 3463 473f 1c91 403f
00000050: ba85 08bf 36bf 12bf 1d36 09bf 72e9 64bd
00000060: f491 38be 148b 02bf fbc4 8fbe 2fda 5a3e
00000070: 2ac9 b6be 931a 573e cc60 60be 65f4 abbe
00000080: e7b0 1e3e 6c73 233f 23c3 07bf 155b ab3d
00000090: 8411 a2be af26 393f 97be 2bbf 4589 2dbf
000000a0: d101 473f ab4a cfbe 9276 593e 20f8 79bd
000000b0: 742b ecbd 7990 4ebe 0928 fc3e c430 bc3d
000000c0: e49b 30bf b3bb d5be ca51 97be 0c88 d63e
000000d0: 9449 eabe 88d9 353f b2bb 20be 50c4 01be
000000e0: 5a9a 183f 111d db3e 8fc8 293f 62c6 ef3e
000000f0: a7fa 6abe 2dad f0be 807e 57bd 1693 263f
00000100: c403 73be 34df 27bf 6a80 af3e e884 403f
00000110: f821 4ebe 27ea 24bf 4354 2fbf 8267 683e
00000120: c04e 5bbd ff97 cfbe 685e 4b3e 08b9 a23e
00000130: dd72 1f3f 98cb 1b3f 5aec 87bd ed9d 1fbf
00000140: c192 23bf 80c5 363f 0e10 c23e 1740 c03e
00000150: 2a9f 1cbf d54c 383f 1ff5 3a3f b371 323f
00000160: 88b4 18bf c31c 75be 42ff f8be 362f 3a3f
00000170: 8072 babe 574a a5be 2f8a d03e 8779 c6be
00000180: e34f b2be 3058 7dbd 2f1d 37bd 9a02 0dbf
00000190: 9213 253f ffb3 9fbe ebd1 923e 98af 2d3f
000001a0: 85ef d43e 0d98 2b3e d5bd 283f be41 183e
000001b0: e57f a7be 2394 403f a869 c43d 60df 29bf
000001c0: cf67 38be e69b f6be 6a46 2f3f 9a3f 41be
000001d0: 607e 34bf c470 55bc e407 053f 5f48 5e3e
000001e0: 189d 373e 9f9f eb3d f5f2 a63e 2285 0bbe
000001f0: e104 90be 4733 29bf 55e8 09bf 9788 b83e
00000200: 8e8f d2be 9a40 163e fddb 8e3e c0fd 27bc
00000210: d3b1 dbbe ca47 3d3f ce6c e0be c566 243f
00000220: 5192 08bf fc2c 2ebe 5a08 ec3e fb2c 95be
00000230: 015d 2a3f 51c8 edbe fb4e 29bf 600e 9ebe
00000240: 9ffb 383e a07a 3b3f 2f31 b7be 389c 933e
00000250: 59ae 0dbe 4edd d3bd da9a 193f 4ca7 08bf
00000260: 568a e33d 18ea 313f 7573 5abd 71a9 1d3f
00000270: 2d0a 37be 0b78 1f3f 021b 2fbf 9ea2 18be
00000280: ebd1 3bbe 797b 873e 11fe a13e 1271 1a3f
00000290: feaf 88bd 00b5 e5bc ad0d 023f 651d 29be
000002a0: 7b5c 2c3f 74ae 03bf 60b4 9cbd 6506 babd
000002b0: 808b c53e b67e 0a3f 0328 a2bd 2e73 14bf
000002c0: d3af d13e b515 853e f0e0 b63e 5f7d d8be
000002d0: cf7b 013f d1e1 403f cc42 673b 5917 21bf
000002e0: bc8f 0e3f 4437 06bf eacb 5b3e 633c 1d3e
000002f0: 9ac3 c6be 7310 4a3e 5810 1ebf aca7 263e
00000300: ce07 04bf 145b 00be 35d4 023e f594 273f
00000310: 6abc acbe f127 013f bd5f 8ebd cf17 a9be
00000320: f9a4 1abf 8eea 27bf 5716 443f 7db3 69be
00000330: a127 1d3d bad7 713e 54bb 073f 5007 283f
00000340: f97f 263f 01e0 18bf 47b4 ebbd 67be e7be
00000350: debf b8be 6957 533e a85e 3a3f df24 12bf
00000360: 8383 f03e 7bb4 bbbe c7fe c5bd f418 213f
00000370: c8c3 23be f496 18bc 25d4 e6be 5c21 2c3f
00000380: 1d9c 5dbd 7c5a 11bf feef 743e d79a fabe
00000390: 5d91 0cbf 623e c63d bcd8 1e3f 56ab 15be
000003a0: adfa c73e b9bb 2e3f 4fae 053f 26d1 d8be
000003b0: 901a f4bd 53dc 38be 96d7 0fbf e7e4 0bba
000003c0: 3acb 173f 5e39 283f 16ae bdbb b089 4b3e
000003d0: 00bc 9cbe 530b 163f 81d0 80be aecb 0dbf
000003e0: 11c0 1e3e 5f78 ea3e 5ba5 22bf 9f36 2c3f
000003f0: 457d a63e 1c35 0dbf c648 0dbe 1dbb 2c3f
-0.2668444 -0.26360637 0.22700745 0.3013641 -0.33889222 0.11667255 0.44672668 -0.07720318
0.26443395 -0.17054492 0.21801256 -0.50021225 -0.41579914 -0.32829845 0.71885794 -0.21082418
-0.001930654 -0.34259006 0.77885747 0.7522142 -0.5332905 -0.57323015 -0.53598195 -0.055886693
-0.18024427 -0.50993466 -0.28079972 0.21372293 -0.3570035 0.21006231 -0.21911925 -0.33584896
0.1549717 0.63847995 -0.5303213 0.08366982 -0.31653988 0.7232465 -0.6708769 -0.6778758
0.77737147 -0.40486655 0.21236637 -0.061027646 -0.115317255 -0.201723 0.49249294 0.09188989
-0.6898787 -0.41744766 -0.29554588 0.4190067 -0.4575926 0.7103505 -0.156966 -0.12672544
0.5961052 0.42795613 0.66321653 0.46831042 -0.22947179 -0.47007123 -0.052610874 0.65068185
-0.23731905 -0.65574956 0.3427766 0.752028 -0.20130146 -0.6441979 -0.6848795 0.22695735
-0.0535419 -0.4054565 0.19860232 0.31781793 0.6228464 0.60857534 -0.06636877 -0.6235035
-0.63895804 0.7139511 0.37902874 0.37548897 -0.61180365 0.71992236 0.73030275 0.6970474
-0.5965047 -0.23936753 -0.48632246 0.7272829 -0.36415482 -0.3228328 0.40730426 -0.38764593
-0.34826574 -0.06185168 -0.044705566 -0.55082095 0.64482987 -0.31192014 0.2867578 0.6784606
0.4158899 0.16757222 0.6591466 0.14868829 -0.32714763 0.7522604 0.09590465 -0.6635647
-0.1800835 -0.48165816 0.6846682 -0.18871918 -0.7050533 -0.013027374 0.51965165 0.21707295
0.1793102 0.11505055 0.32607237 -0.13625005 -0.28128722 -0.6609387 -0.53870136 0.3604171
-0.4112515 0.14673081 0.27902213 -0.01025337 -0.42909107 0.73937666 -0.4383301 0.64219314
-0.5334826 -0.17009348 0.46100122 -0.2913588 0.6654816 -0.46441892 -0.6613614 -0.30870342
0.18064736 0.73233986 -0.35779712 0.28830123 -0.1383604 -0.10344945 0.6000191 -0.53380275
0.1111037 0.69497824 -0.053332765 0.6158667 -0.17874976 0.62292546 -0.68400586 -0.14905784
-0.18341796 0.2646139 0.3163915 0.6032878 -0.06674193 -0.02804041 0.5080212 -0.1651512
0.67328614 -0.5143807 -0.07651591 -0.09083251 0.38582993 0.54099596 -0.07917788 -0.5798825
0.40954456 0.25993124 0.3571849 -0.4228315 0.5057954 0.7534457 0.0035287617 -0.6292625
0.5568807 -0.5242808 0.21464506 0.15355067 -0.38821107 0.19732837 -0.6174369 0.16274899
-0.5157441 -0.12534744 0.12776263 0.65461665 -0.337375 0.5045157 -0.069518544 -0.33025977
-0.6040798 -0.6559228 0.7659659 -0.22822376 0.03836787 0.2361745 0.53020215 0.6563616
0.6503902 -0.597168 -0.115089945 -0.45262453 -0.36083883 0.20638813 0.72800684 -0.5708751
0.46975335 -0.36661133 -0.096677355 0.629287 -0.15992653 -0.009313334 -0.45083728 0.672384
-0.05410396 -0.56778693 0.23919675 -0.48946258 -0.54909307 0.09679867 0.6204946 -0.1461614
0.39058438 0.6825519 0.522191 -0.42347068 -0.11919129 -0.18052797 -0.56188333 -0.00053365383
0.59294474 0.65712535 -0.005788575 0.19876742 -0.30612183 0.5861103 -0.25159076 -0.55388916
0.15502955 0.4579496 -0.6353356 0.67270845 0.32517448 -0.55159163 -0.13797292 0.6747301

net.2.weight f4 [256, 256]
00000000: 9e3d 90bc 5ca5 95bc e96c 933c e83e 3abd
00000010: 57c4 ad3d 9c42 053d cac5 1e3d fbb0 2bbd
00000020: 6b3e 973d 38bf 17bd abb8 993d 26c8 a3bc
00000030: 9c16 64bd 83da 603d ebee 28bd 2754 fa3c
00000040: 1cc3 0dbd 7cc5 d6bc 4dd3 c2bc fa48 73bd
00000050: 20dd 543b 801a 353c 00f0 5db8 f700 1f3d
00000060: e6e7 723d 9e56 2d3d 8b62 403c 3af9 04bd
00000070: d831 51bd ca76 31bd 6c6b 6d3c 3d79 e5bc
00000080: 6e35 153d 6aa3 1cbd ff1b 9c3d 50a1 33bd
00000090: 3d31 c13c fe38 843d 0690 7e3d 884a 14bd
000000a0: 9feb cb3b adc1 cd3c 18f2 6abd b4e4 b0bc
000000b0: 1eb3 f73c 8067 a7bc c722 973c 188e dd3c
000000c0: 82fc c43c e6a4 543d b1a7 9b3c 00ed 96bc
000000d0: b884 7d3d 2bb9 21bd f4aa a93d f081 cb3b
000000e0: 5d23 16bc 4e6f 98bc ec13 43bd 4cd2 dfbc
000000f0: 0419 453d d9b1 333c 9a46 223d e533 13bd
00000100: b05f cd3b 8475 bebc a04c b1bd f2e2 9e3c
00000110: 6807 033c fd7a 8b3c 512b 283c 4e44 ea3c
00000120: 1028 39bc 5008 9b3d a002 683b b466 c13c
00000130: d9e8 b53c 4977 e8bc d6a1 0b3d 32e9 3c3d
00000140: c07d 3c3b f4ad 04bc d060 4bbd 8c7a 1b3d
00000150: fc29 d8bc 6590 41bd 5f3b 043d f5dd 7cbd
00000160: 8056 833a 0a62 53bc f6f7 283d 11a3 64bd
00000170: 5120 8c3d 7c46 7d3d 7edc 233c 2492 ac3c
00000180: 5afe 7b3d eccd dabc 8329 7bbc 1435 e0bc
00000190: 9f24 01bc 188e 5e3c 434b 813c d8c6 55bc
000001a0: 965e 7dbd 2640 9ebc 03ac 5abd 68bb 483c
000001b0: fa28 443d 160e 1d3d 4c7d c2bc 2a77 913d
000001c0: 06d3 16bd f8f0 6bbd ec62 dbbd 820e a43d
000001d0: 3a49 9c3d 8f4d 3b3d f49f 903c 8b6e 58bd
000001e0: 8005 9f3c 0869 be3c 9a44 18bd 3400 873d
000001f0: c492 863c 6e1b 343d b52e 593c f551 483c
00000200: bf35 97bd f009 82bb ffdf d03c 8b1d 133d
00000210: 4deb 603d 18a3 233d ae19 b43d d165 683c
00000220: 3a16 013a 6020 04bc f209 83bd 02af ab3c
00000230: a579 0abd ab1e 75bc c1bd 8f3d bf56 cf3c
00000240: 07eb ecbc ea71 2bbc 8d0c d73d d0bf c93c
00000250: a08b 2abd b762 debc 25f7 54bb 6f2f edbc
00000260: 8bdc 483d 6b27 84bd 80d4 28bd 44c3 623b
00000270: 3fe5 603d 5974 52bd 0059 c23c 1b9f b1bc
00000280: 1de7 ae3d efc4 53bc 0e5e 993d afff 7abd
00000290: 3e5b 40bd 0615 2d3d 176a 873d 3913 dc3c
000002a0: b514 503d f623 d3bc da4b 393d b55f 21bd
000002b0: 7b6c a73c 8824 0dbd b1ec 20bd 550a 493d
000002c0: 4beb e7bc 7f46 9bba ba26 78bd b70e a9bd
000002d0: 9be5 803c 6163 09bd a3af adbc 67b2 1bbc
000002e0: 29cd b6bd 13e3 e8bc ee2e 193d 281c 023d
000002f0: 9f6a 053d 35bd a4bc b9e5 5f3d a487 8b3c
00000300: d347 95bc 5642 093d e94c 8b3d c81e edbd
00000310: 7c90 7ebd 9b2c e63b ca03 843d 850c 37bc
00000320: 0b27 713d a006 a43d ced3 10bc 9a82 0f3d
00000330: e0b4 a03d 708c ff3b 2523 fbbc f78b 0abd
00000340: 83f1 11bd 2070 b83d ecb3 7ebd b385 a23d
00000350: 4bd3 11bc a9c8 85bd e5be 1abc ff01 64bd
00000360: 5746 803c 0c35 26bd 9924 ebbc a630 afbc
00000370: 74fe abbc 1dd1 5e3d ba7a a43c 5036 b23c
00000380: a09e 9f3c bd23 2e3c 731f 683d 66ed 003d
00000390: d8d3 803d b8ab a4bc 9752 1ebd 8793 c93b
000003a0: 41fc 213b aa6b a5bd 552a 26bd 3b32 e0bc
000003b0: 408e d23b 3293 513d 3275 6cbd c6f6 07bd
000003c0: 1289 14bd 3e97 dbbc 3789 db3c 3dc4 c73c
000003d0: 14d1 013d bd0e a1bd b522 373c dd6c 943d
000003e0: c66e 5d3d e452 f13b e1cf 20bd 7ddd bb3c
000003f0: 1a8a c63c 2acf ef3a fef2 79bc 8842 b63c
-0.017607506 -0.018267326 0.017996268 -0.04547015 0.084847145 0.032534227 0.038762845 -0.04191683
0.07384952 -0.037047595 0.07505926 -0.0199929 -0.055685624 0.05489589 -0.041243475 0.030557705
-0.0346099 -0.026217215 -0.023782397 -0.059395768 0.0032480434 0.011053681 -5.2914023e-05 0.03881928
0.059303187 0.042318933 0.0117422445 -0.032464243 -0.051072925 -0.043326177 0.014490943 -0.028011912
0.036427908 -0.03824178 0.07622527 -0.04385501 0.023583049 0.06456183 0.06214907 -0.03620389
0.0062231566 0.025116766 -0.057359785 -0.02159343 0.030236777 -0.020435095 0.0184492 0.027045295
0.024046186 0.051915072 0.01900086 -0.018423557 0.06189415 -0.03948323 0.0828456 0.006210558
-0.009163705 -0.018607762 -0.04762642 -0.027321957 0.04811956 0.010967695 0.039618112 -0.035938162
0.0062675104 -0.023249395 -0.08657193 0.019395325 0.007997371 0.017026419 0.010264234 0.028597023
-0.011301056 0.07569945 0.0035401955 0.023608543 0.022205757 -0.028377192 0.034089886 0.04612083
0.0028761476 -0.008098114 -0.049652874 0.037958667 -0.026387207 -0.047256846 0.032283183 -0.061735112
0.0010020286 -0.012901792 0.0412521 -0.055819575 0.06842101 0.061834797 0.0100013 0.021065779
0.061521865 -0.02670952 -0.015329721 -0.02736906 -0.007882266 0.0135836825 0.015782958 -0.013047896
-0.061857782 -0.019317698 -0.0533867 0.012251712 0.04789064 0.03834351 -0.023741387 0.07102807
-0.03682234 -0.057602853 -0.10712227 0.0801058 0.07631154 0.045728263 0.017654397 -0.052839797
0.019411802 0.023243442 -0.0371748 0.065918356 0.016427405 0.04397147 0.013255765 0.012226571
-0.07383298 -0.00396847 0.025497435 0.035916846 0.0549119 0.03995046 0.087939605 0.014184431
0.00049242715 -0.008064359 -0.06398381 0.020957474 -0.033807416 -0.014960925 0.070186146 0.025309918
-0.028920664 -0.010464171 0.10500441 0.024627596 -0.041637063 -0.02714668 -0.0032495942 -0.028953282
0.04903845 -0.06452831 -0.04121828 0.003460125 0.054906126 -0.05138049 0.02372408 -0.021682313
0.08540175 -0.012925371 0.07488643 -0.061278995 -0.046962015 0.042256378 0.06612032 0.026864635
0.050800998 -0.025773983 0.045238353 -0.039397914 0.02043747 -0.034458667 -0.039288227 0.04908212
-0.028310439 -0.0011846571 -0.060583808 -0.0825476 0.015734484 -0.03354204 -0.021201914 -0.009502984
-0.0892585 -0.02842859 0.03739827 0.031765133 0.032572385 -0.020109752 0.05466244 0.017032452
-0.018222725 0.03351053 0.06801779 -0.11578137 -0.06214951 0.0070243604 0.06446035 -0.0111724185
0.058875125 0.08009076 -0.008839561 0.03503666 0.07846999 0.007798724 -0.030656407 -0.033824887
-0.035630714 0.09005761 -0.062183306 0.07935657 -0.008900474 -0.065324135 -0.009444927 -0.055665966
0.01565854 -0.040577933 -0.028703975 -0.021385502 -0.020995356 0.054398645 0.020078052 0.021754414
0.019484818 0.010628638 0.056670617 0.0314764 0.06290406 -0.020101413 -0.038652983 0.00615162
0.0024717005 -0.08077176 -0.040567715 -0.027367702 0.006425649 0.051165767 -0.057728954 -0.033194326
-0.036263533 -0.026805516 0.026798828 0.024385566 0.031693533 -0.07864139 0.011177708 0.072473265
0.05406072 0.0073646177 -0.03926075 0.022932762 0.024235774 0.0018295993 -0.015255688 0.022248521

net.2.bias f4 [256]
00000000: 35d2 b6bd 7a24 c1bd a8d5 e9bc 587e b23c
00000010: d615 423d fe8b 5c3c c4a3 6e3d 0ed7 1dbc
00000020: b517 a93d 3bd1 94bc 4044 93bc b637 ec3c
00000030: 5875 12bd d43a cebc e040 2dbc 7416 b3bd
00000040: 2c33 b63c fe94 3ebd 1494 9abc cff7 313c
00000050: 88b5 b13d 186a 5ebd 4009 b03b 50f0 adbb
00000060: 1fd9 433d d061 ad3b 1077 06bc dc27 b2bd
00000070: ac28 42bc 8d32 eb3d deec b73c 93ab bd3d
00000080: f844 62bd 88b4 ecbc be51 d73d 702f 1dbd
00000090: 880b 87bc c4db b5bc f56c 18bd dec5 9dbd
000000a0: e85b 66bc b2b0 11bc b030 15bc e90c 813a
000000b0: 4a45 c03d 4809 143d c8bd 0dbd fa23 43bd
000000c0: 6f27 98bc 4566 553d a67c 86bd 98e9 93bc
000000d0: 65dd c9bd 9ed0 10bd 9b04 b6bc 905d 043c
000000e0: 7031 de3b 9c6d 72bd 228c 603d 5de4 31bd
000000f0: fc27 e5bb adcb d63c f128 11bd 9586 17bd
00000100: 55be 8e3b a6db 6cbd 2286 6a3b 2fa7 613d
00000110: e4ad 91bd 4eda 22bd d849 81bc e93c 1c3d
00000120: 6c32 75bc a287 06bd 78a7 8a3c f40a 043d
00000130: 896e bebd ed6b b83a 0cef 913c 5b95 e6bc
00000140: dcf3 69bd 5842 ecbb b0b8 39bd aca8 593c
00000150: 2aa7 23bd 1005 ba3c 5ded 623b 1b1c c4bc
00000160: 361f 353d 0521 e23d 09eb d83d d8a4 df3d
00000170: 5d49 913b 2fdf 4d3d 2962 01bd 10b2 313c
00000180: 4fac bbbd dbe8 d83b f738 bb3d c200 333d
00000190: 9fb0 933d a2c8 483d 8092 f2bc ece4 763d
000001a0: eb62 4cbd 105c c43d 0b84 8a3d 0031 30bd
000001b0: 7c38 663d 7dd1 6c3d dd67 d33d dfb5 c4bc
000001c0: cd63 e53c 22c4 043c edfc a3bc dc39 a3bd
000001d0: b15c 863c 0051 f03d 722b c33d 7199 473b
000001e0: b36e 653d 13df b23d 5858 a8bc 7f5e 263c
000001f0: 0723 a83d 302e 8e3d d1f9 db3d 0247 de3d
00000200: cacf 4b3d 6712 a8bc bdee 6c3d fe2d 89bb
00000210: 7cde 93bd 98af 69bc 2cb2 77bd 5cb2 8c3b
00000220: 721c 18bd 3018 303d 88cb b33c 0303 cc3c
00000230: 3843 4c3c cf8b 92bc 809f 13ba d649 123d
00000240: 3230 813d 20ab 36bc 6404 20bd 46b7 d13c
00000250: 40fc c9bd 3c6b f3b9 1ff7 0d3d 91ec 0fbd
00000260: 4eeb af3d 9831 77bd 6f4c d7bc cdc0 4d3d
00000270: 5273 55bd c080 9fbb d0c1 453b 7158 b43c
00000280: a21f ca3a c43a 1c3d 5c34 483d cc33 893d
00000290: a0ef f4bc 7f69 2fbd 3bde 4d3d b0c1 bc3b
000002a0: 191b 803d 3325 b83d 469e 67bd 2eb0 57bd
000002b0: 6cb2 c63c be7a a8bd a393 39bd 80d9 95bd
000002c0: c80c 2f3b 0529 93bd e4bc 1d3d 320b cd3d
000002d0: 0d7a 01bc 30a8 01bd 6bdb 3cbd 9437 b13c
000002e0: 435b cc3b 71bb a73d f06b 7abd aba6 6bbd
000002f0: 1d17 5a3d ba3d 6fbd 66da a13d 910d 6fbc
00000300: 7c8d a6bd e8c2 5e3d 4361 933d 7c98 a03d
00000310: 9688 ae3a 10ea a2bd 0818 a33d 13f1 81bd
00000320: 2ec1 0b3d ba76 a43c c303 183d bf41 80bc
00000330: e46a d33b 388b 253d 048e 733c f8a2 d53c
00000340: 9173 cd3d c138 b1bb 8318 953d 9c90 b0bd
00000350: 1a47 3e3d 00d6 cd3d 4ec3 7ebb 5f38 41bd
00000360: 2eb1 783b 3578 263c a197 683d 89da ba3d
00000370: 2943 d63c fc59 a73c 259b 3dbd 5006 d0bb
00000380: 4f90 85bd 2d32 e03c 656d 5e3c 6c11 083d
00000390: 3f7c a53d 9ef7 e13c 8c71 6abd 353f bb3b
000003a0: 102a 583c dc32 6fbd 543a febc 8ce8 8f3d
000003b0: e30e 3b3d b2b8 603c a977 c3bd 4a04 d237
000003c0: c64c 3c3d 0d42 80bd 2277 eb3c 6bcc e03d
000003d0: a0e6 a13c 9ee9 073d dc51 6dbd 6923 8ebd
000003e0: 52ff 5abd bc0c e6bc 5c5c 463c d43b 783d
000003f0: b246 74bb 8765 43bd dce9 223d 7aa7 5abd
-0.089268126 -0.094307855 -0.028544262 0.021788761 0.047384106 0.013461111 0.058261648 -0.009633793
0.08256475 -0.018166175 -0.01797688 0.028835159 -0.03575644 -0.025174536 -0.010574549 -0.08744517
0.022241198 -0.04652881 -0.018869437 0.010862305 0.086772025 -0.054300398 0.0053721964 -0.0053081885
0.047814485 0.005291201 -0.008207098 -0.08699009 -0.011850517 0.11484251 0.022451814 0.09261241
-0.055241555 -0.028894678 0.10513638 -0.038375318 -0.01648499 -0.022199519 -0.037213285 -0.07703756
-0.014059998 -0.008892225 -0.009105846 0.0009845766 0.09388216 0.036141664 -0.034604818 -0.04764173
-0.01857349 0.052099485 -0.065667436 -0.018055722 -0.09856681 -0.035355203 -0.022218993 0.008078948
0.0067807958 -0.059186563 0.05482114 -0.043430675 -0.006993292 0.026220167 -0.035439435 -0.03699358
0.0043561854 -0.05782666 0.0035785516 0.05509108 -0.07113245 -0.039758973 -0.015782282 0.038144026
-0.014965635 -0.032844193 0.016925558 0.03223701 -0.09298427 0.001407025 0.017814182 -0.02814739
-0.057117328 -0.007210057 -0.045342147 0.013284843 -0.039954342 0.022707492 0.0034626343 -0.023939183
0.04421922 0.11041454 0.105917044 0.10920113 0.0044337944 0.050261673 -0.031587753 0.010845676
-0.09163725 0.0066195554 0.091417246 0.043701895 0.07211422 0.049019463 -0.029610872 0.06027691
-0.049899023 0.09587872 0.067634664 -0.04301548 0.05620621 0.05781697 0.10322545 -0.024012504
0.02800169 0.008103402 -0.020018065 -0.0797002 0.01640162 0.117341995 0.09529771 0.0030456448
0.056013774 0.08733954 -0.020549938 0.010154366 0.08209806 0.06942403 0.10741008 0.108533874
0.04975871 -0.020516587 0.057844866 -0.004186391 -0.0722017 -0.014263056 -0.060472652 0.004293723
-0.037136503 0.042991817 0.021947637 0.02490378 0.012467198 -0.017888932 -0.00056313723 0.035714947
0.06308021 -0.011149198 -0.039066687 0.025600087 -0.09862566 -0.00046428468 0.0346595 -0.035137717
0.08589803 -0.06035003 -0.026281564 0.050232697 -0.05211193 -0.004867643 0.0030175336 0.022014828
0.0015420804 0.03814198 0.04887806 0.066993326 -0.029899418 -0.04282522 0.050260764 0.005760394
0.062551685 0.0899147 -0.056547426 -0.052658252 0.024255 -0.08226536 -0.045306813 -0.073168755
0.00267105 -0.07185558 0.03851022 0.10011901 -0.007902634 -0.031654537 -0.04610769 0.021632947
0.006236465 0.081900485 -0.061138093 -0.057531994 0.0532447 -0.058408476 0.07902984 -0.014590637
-0.08132455 0.054385096 0.071962856 0.07841584 0.0013315852 -0.079548 0.07963568 -0.063448094
0.034119777 0.020076144 0.037112962 -0.01565635 0.0064519513 0.040415972 0.014865402 0.026078686
0.10031808 -0.005408377 0.07280066 -0.08621332 0.046454526 0.10050583 -0.0038873735 -0.0471729
0.0037947404 0.0101604955 0.05678523 0.091237135 0.026155071 0.02042865 -0.046290535 -0.0063484088
-0.06521665 0.027367676 0.013575886 0.03321974 0.08080339 0.027583893 -0.057237193 0.005714322
0.013193622 -0.058398113 -0.031033672 0.07026777 0.045668494 0.01371591 -0.09544308 2.5035948e-05
0.045971654 -0.06262598 0.02874333 0.1097649 0.01976329 0.03318178 -0.057939395 -0.06940348
-0.05346615 -0.028082244 0.012106981 0.06060393 -0.0037273583 -0.047704246 0.039773807 -0.053382374

net.4.weight f4 [1, 256]
00000000: d183 893d d5ad 263d 406f be3a e4b7 2f3d
00000010: 75c9 43bd dfca a13b 50a9 97bb 4e05 5c3d
00000020: b099 e3bd c93d 6c3d 64cb f9bc ac47 7f3b
00000030: b82c 333d cc75 0c3d fbc5 ec3c 6f86 6e3d
00000040: 72a7 2e3d 0602 5e3d 3cde 903d 6b4b 73bd
00000050: 75b7 d2bd f000 12bc 3408 4e3d 521a 263d
00000060: 84f5 adbd 914d 953c 1cd4 eabc 5c25 b53d
00000070: c766 c03d b6c9 b6bd 5204 70bd 49e1 8bbd
00000080: 201d db3c 48f3 303d 7df4 95bd f899 40bc
00000090: 180c 0a3c 787a b83c 8839 5a3d c6e2 8d3d
000000a0: cfd1 883d 2714 393d 583b 92bd de4e 0b3d
000000b0: 0161 a0bd 2ee8 023d ae94 7f3d fab7 643d
000000c0: e3b0 463d 6246 cabd 5015 a33d c872 14bd
000000d0: 77d7 453d 1ecb 023d 13b7 213d 60bb 9fbb
000000e0: aaa9 a2bd 20f6 973d 4ac8 b1bd bcdd 883d
000000f0: 3b4b 693d f25d 46bd ec1f 4a3d 9976 b63d
00000100: a59b abbd 1879 423c e81f d1bd 7442 9bbd
00000110: 2592 6b3d 9223 843d 6cdd 073d 86fa 393d
00000120: 2854 bc3c fc3c 263d f048 e1bc 409f f9bb
00000130: cf5c 953d f51f 84bd af2b 983d 3a60 473d
00000140: 7aee b83d c573 bd3d d0d4 673d 6be4 923d
00000150: b8f4 2b3d f4ce ed3c c6b6 7bbd e4ce d03c
00000160: d830 cebd ffd4 83bd 43be 67bd e97f 97bd
00000170: 7c01 abbd 07c1 2e3d 995c a93c de51 483d
00000180: f778 983d df24 b1bd 5047 72bd f0e6 d0bd
00000190: c053 4bbd 6ccf 95bc 38d0 c03d d320 cebd
000001a0: 33e2 413d 3534 c9bd 12c7 b0bd e2e7 413d
000001b0: 2110 5fbd c75e c2bd e940 81bd 932f 463d
000001c0: 9967 cbbd 37b5 bc3c fe16 e4bb 30b9 ae3d
000001d0: 32f7 bebd 76b9 4cbd f2cf 97bd f6be a8bd
000001e0: e1ee 2d3c f34d e2bd b66c 0a3d d180 5d3d
000001f0: 1cf8 8fbd c2e2 79bd b17d a9bd 89e2 d5bd
00000200: 5e93 2fbd a6f2 803d 7da8 d3bd 764c 363d
00000210: 8d41 433d 14e9 41bd b803 77bd ffd7 a3bd
00000220: 5040 8abb b787 99bd 7009 013c 6986 b3bb
00000230: c88f 98bc 5a6f ab3c 9099 663c 699b e6bd
00000240: f24a dcbd 03e1 373d be7b 55bd 9c39 81bd
00000250: 2918 813d 0624 5a3d 1a19 9d3c 12be 333b
00000260: 1aa6 8abd 42b9 723d e54e 1b3d c0c1 5b3d
00000270: 20c4 6d3c 3ce0 86bc 29d5 2c3d 6432 e03c
00000280: 9093 4fbd 0fae 79bd 2ae2 033c 705f bdbd
00000290: b408 cb3c 42af 213d 6225 423c 086f 76bd
000002a0: 5a44 8ebd d1fa a1bd c253 48bd c448 f2bc
000002b0: 40e6 9d3b 0417 c83d 25cb 3f3d 1861 783d
000002c0: fb89 3c3d d2e7 803d 37de ad3c 6e04 b5bd
000002d0: 941e 453d f4d8 563d d86a c93d 3725 8d3d
000002e0: 0534 c1bd 8050 afbd 1c74 cb3c 4517 9d3d
000002f0: 6037 b6bd 77d4 a73d fa29 42bd 30da 8e3d
00000300: 5d85 1c3d d3ab ec3c d063 ccbd 1c09 b0bd
00000310: 6d79 d6bd 45c9 9b3d eb5d e7bd e40d 953d
00000320: 237b 90bd 6706 653d 0256 0b3d ab84 6f3d
00000330: 9a7f c6bd e22b f93c c323 c1bd 161b 8cbd
00000340: 37ab d6bd ac90 683d cb02 e6bd f298 b43d
00000350: e5fc 88bd 1e1c 8ebd 08d9 cfbd ca96 4f3d
00000360: ff51 50bd 22fc 93bd 9ce4 453c e9a4 dfbd
00000370: aa54 d23c 6081 5abc 6fe7 8a3b a080 ef3b
00000380: e3ac 663d bcd6 0b3b 3c7e 303d 4e3d 7abd
00000390: 9e87 6dbd 93b2 0c3d 10f7 be3c 28b8 79bd
000003a0: 704f 8fbb f680 333d f003 a23c 16e3 a8bd
000003b0: b393 cebd 9791 023c c9ee bb3d 2906 a63d
000003c0: ce6e 48bd bac0 e73c b388 efbd b8be abbd
000003d0: b424 50bd 17c2 7fbd 4a60 b43d 9560 993c
000003e0: 70c6 d63b 681a 5b3c d7c9 dabd 1ebe 60bd
000003f0: f959 a93d 3c99 373d 65b4 89bd 7b11 5a3d
0.06714595 0.040693123 0.0014529005 0.04289998 -0.047799546 0.004937514 -0.004628338 0.053715996
-0.11113298 0.05767611 -0.030492492 0.0038952632 0.04374382 0.034292027 0.028902998 0.058233675
0.042640157 0.05420115 0.07073638 -0.059398096 -0.10288898 -0.008911356 0.05030079 0.040552445
-0.08494094 0.018225463 -0.028665595 0.08845016 0.09394603 -0.08925192 -0.05859787 -0.06830079
0.026747286 0.04320076 -0.07322023 -0.011755459 0.008425735 0.022519335 0.053277522 0.06928019
0.06680643 0.045185234 -0.07140225 0.03401076 -0.07831002 0.031959705 0.06239765 0.055839516
0.048508536 -0.09876706 0.079630494 -0.036242276 0.048301186 0.03193199 0.039481234 -0.0048746318
-0.07942517 0.074199915 -0.0868078 0.066829175 0.05695651 -0.048429437 0.04934685 0.089093395
-0.08379296 0.011869691 -0.10211164 -0.07581034 0.05751242 0.06452097 0.03317015 0.045404933
0.022989348 0.040585503 -0.0275006 -0.007617861 0.072930925 -0.06451408 0.07430207 0.048675753
0.09029861 0.09250597 0.05659944 0.071724735 0.04198143 0.029029347 -0.061453603 0.025489278
-0.1006791 -0.0643711 -0.056577932 -0.07397444 -0.083498925 0.042664554 0.020674037 0.0489062
0.07444947 -0.08649611 -0.05915004 -0.10200298 -0.049640417 -0.018287383 0.094147146 -0.100648545
0.04733486 -0.09824411 -0.0863172 0.04734028 -0.05445874 -0.094907336 -0.06311209 0.048385214
-0.09931869 0.023035629 -0.0069607487 0.085314155 -0.093244925 -0.049981557 -0.07412709 -0.08239548
0.010616035 -0.11050024 0.03379508 0.054077927 -0.07029745 -0.06100727 -0.08275927 -0.10443599
-0.04286515 0.062962815 -0.10334871 0.044506513 0.047669936 -0.04734142 -0.06030628 -0.08000182
-0.0042190924 -0.07496589 0.007875785 -0.0054786694 -0.018623248 0.02092712 0.014074698 -0.11260111
-0.10756482 0.044892322 -0.052119963 -0.06309816 0.06303436 0.05325701 0.019177008 0.0027426523
-0.067699626 0.059258707 0.037917037 0.05365157 0.014512092 -0.016464345 0.042195473 0.027367778
-0.050677836 -0.06095701 0.008049527 -0.09246719 0.024784423 0.03947378 0.011849733 -0.06016448
-0.06946631 -0.079091676 -0.048908003 -0.029575713 0.0048187077 0.09770015 0.046824593 0.06063947
0.046030026 0.06294216 0.021224124 -0.088387355 0.048124865 0.052452996 0.09834832 0.06891864
-0.0943375 -0.08560276 0.024835639 0.07670454 -0.08897281 0.08194821 -0.047403313 0.0697521
0.038213123 0.028890526 -0.09979975 -0.085954875 -0.10472379 0.076067485 -0.1129721 0.0727804
-0.070547365 0.05591431 0.03401757 0.05847613 -0.09692307 0.030416433 -0.09430649 -0.06841104
-0.104818754 0.056778595 -0.112310015 0.088182345 -0.06688861 -0.06938957 -0.10148817 0.050680913
-0.050859448 -0.07225825 0.0120784305 -0.10920126 0.025675137 -0.0133365095 0.004239015 0.0073090345
0.05631722 0.0021337708 0.043089136 -0.06109362 -0.057990663 0.03434999 0.023311168 -0.06096664
-0.0043734834 0.04382416 0.019777268 -0.08246438 -0.10086765 0.007969282 0.09176404 0.08106644
-0.048933797 0.028290141 -0.11695995 -0.08385986 -0.050816253 -0.062440958 0.08807428 0.018722812
0.0065544173 0.013372995 -0.10683029 -0.05486881 0.08269114 0.04482387 -0.06723861 0.053239327
