archive/new/runs/phase1/pessimist.pt (torch, 270381 bytes, 5 tensors)

net.0.weight f4 [256, 2]
-0.011746517 0.3998926 -0.58198076 -0.5203875 -0.27073678 0.19416298 -0.0063888407 0.5463601
0.032014135 0.23141734 -0.2136969 -0.13899273 -0.6755334 -0.46830416 -0.29148576 0.018529754
0.2649259 0.4017412 -0.47937673 -0.30791873 0.24794975 0.55546796 -0.05443862 0.5903692
-0.113973856 0.07482189 0.62814784 -0.68493617 -0.33863813 -0.08898526 -0.288057 0.62493473
-0.45833224 -0.32550448 -0.4940134 -0.6622486 -0.40516284 0.5922556 0.31182966 0.32410914
0.037187874 -0.36252198 0.11963165 -0.6602219 -0.5109315 -0.36453474 0.45598802 0.42985418
-0.31359833 -0.025514126 0.47203955 0.72330195 0.2970065 0.107626 0.480364 -0.4224717
0.137239 -0.5482238 -0.4900859 -0.36527973 0.32769728 0.29364702 -0.45207095 0.19821653
0.38504043 -0.10056411 0.024601085 0.15171266 0.45905003 0.69296086 -0.5449132 -0.25913322
0.2923234 0.600319 0.597877 0.61783385 0.14072454 -0.6148878 0.065048516 -0.4423698
-0.5979318 0.6417457 0.557905 -0.70854014 0.13204183 -0.10681642 -0.11636233 -0.323683
0.2893355 -0.41422296 0.27885133 0.37969536 0.51574016 0.2572278 -0.6998485 -0.45869797
0.38014296 0.17373899 -0.5516027 -0.40716586 0.6718991 0.4968929 -0.21907364 -0.1530753
-0.6735886 -0.012709618 -0.4365034 -0.51649266 0.007797744 0.14863786 -0.31037658 0.40807655
-0.43459743 0.6195601 0.48885983 -0.6022475 -0.16351393 0.023455108 0.08884502 0.15175806
0.29381436 0.042654734 -0.34345385 0.34646004 -0.6782914 -0.4191069 -0.13355678 -0.2867708
-0.24736956 -0.57956004 -0.15041232 0.15114862 -0.46065587 -0.026924236 0.5076487 -0.084563754
0.019652069 -0.0610013 0.14732972 0.47176078 0.68244714 0.46374345 0.6550245 -0.07209672
-0.6352092 -0.33522323 0.4811983 0.006504009 -0.35146484 -0.5418642 -0.66174734 -0.5968039
-0.15171221 0.37398872 0.4034893 -0.6413565 0.4460543 -0.57128066 -0.14948964 -0.28671244
-0.13619953 -0.13883525 -0.5397352 -0.5706104 -0.08835674 0.007546054 -0.29127607 0.26757976
-0.63643736 -0.04772067 0.6129771 -0.31442773 0.627481 0.24379109 -0.6374472 0.43891433
-0.081596196 -0.3156573 0.5479441 -0.59794635 0.07587606 -0.14804602 0.50787973 0.1770321
0.34529033 0.27219358 -0.17004126 -0.1487084 -0.59681284 0.37161854 0.5658714 0.49221078
-0.49877775 0.031536877 -0.4984637 -0.38925108 -0.39422578 0.25823292 -0.42137423 -0.015427113
0.02073774 0.43658134 -0.5345162 -0.48543745 -0.43668973 0.47076127 -0.25585756 0.5831583
0.25170135 0.07865872 0.02893948 -0.075956926 0.08693139 -0.16988854 0.007162196 0.08574323
-0.5531025 -0.37061688 0.57702935 -0.55229366 -0.08790061 0.6831261 0.29532382 0.08956092
-0.632073 0.34204656 -0.50365853 -0.20072234 -0.150164 -0.053737625 0.01536927 0.59387
0.07749207 0.6583771 0.42415985 -0.47222957 0.33204055 -0.49902079 -0.29237458 0.2118289
0.23159553 0.5370439 -0.23412935 0.0106200045 0.39109728 -0.6568779 0.5083343 -0.61237097
0.009745717 -0.120220006 -0.37241402 0.09345901 0.62687016 -0.13084702 -0.4198051 -0.2211931
00000000: 7774 40bc b9be cc3e b1fc 14bf 1d38 05bf
00000010: 039e 8abe a9d2 463e 7b59 d1bb 41de 0b3f
00000020: 4121 033d abf8 6c3e 5cd3 5abe 1c54 0ebe
00000030: c2ef 2cbf 90c5 efbe 9f3d 95be b6cb 973c
00000040: 5ea4 873e 06b1 cd3e de70 f5be 86a7 9dbe
00000050: 8ae6 7d3e 2633 0e3f 08fb 5ebd 7022 173f
00000060: 206b e9bd 383c 993d 4cce 203f fa57 2fbf
00000070: fa61 adbe e73d b6bd 357c 93be b9fb 1f3f
00000080: 86aa eabe 86a8 a6be 53ef fcbe 2089 29bf
00000090: 8171 cfbe 109e 173f 23a8 9f3e a2f1 a53e
000000a0: 5052 183d 7b9c b9be 7001 f53d 4d04 29bf
000000b0: 68cc 02bf 4ca4 babe 4377 e93e d915 dc3e
000000c0: f68f a0be 0003 d1bc 2baf f13e 512a 393f
000000d0: 3c11 983e 056b dc3d 45f2 f53e 364e d8be
000000e0: 6188 0c3e 6558 0cbf 8aec fabe f205 bbbe
000000f0: f0c7 a73e e758 963e d875 e7be 46f9 4a3e
00000100: 0524 c53e 8ef4 cdbd 3788 c93c 905a 1b3e
00000110: 9b08 eb3e e265 313f 6e7f 0bbf 1cad 84be
00000120: 6aab 953e 82ae 193f 780e 193f 5c2a 1e3f
00000130: 181a 103e 4969 1dbf 2838 853d 4b7e e2be
00000140: 0f12 19bf 7249 243f ddd2 0e3f e362 35bf
00000150: f935 073e 91c2 dabd 604f eebd c7b9 a5be
00000160: c823 943e 0815 d4be 9ac5 8e3e 6e67 c23e
00000170: 8c07 043f 5db3 833e 4529 33bf 76da eabe
00000180: 19a2 c23e a2e8 313e d635 0dbf 0b78 d0be
00000190: 9401 2c3f bf68 fe3e d754 60be c5bf 1cbe
000001a0: 4d70 2cbf 003c 50bc 607d dfbe dd38 04bf
000001b0: 3884 ff3b 8634 183e aee9 9ebe 69ef d03e
000001c0: 8e83 debe 7e9b 1e3f d64b fa3e e42c 1abf
000001d0: 3270 27be ed24 c03c 61f4 b53d 7766 1b3e
000001e0: d66e 963e bbb6 2e3d 2fd9 afbe 3663 b13e
000001f0: 81a4 2dbf 2e95 d6be 1cc3 08be 9fd3 92be
00000200: 724e 7dbe 0c5e 14bf b005 1abe b4c6 1a3e
00000210: 16db ebbe 3790 dcbc 44f5 013f c32f adbd
00000220: 60fd a03c 80dc 79bd 9add 163e a18a f13e
00000230: dbb4 2e3f c86f ed3e b0af 273f 72a7 93bd
00000240: 129d 22bf 61a2 abbe a05f f63e 951f d53b
00000250: 33f3 b3be 9db7 0abf 4668 29bf 24c8 18bf
00000260: 725a 1bbe 737b bf3e 2696 ce3e f12f 24bf
00000270: 3b61 e43e 733f 12bf d013 19be f9cb 92be
00000280: e477 0bbe d42a 0ebe 162c 0abf 8613 12bf
00000290: 61f4 b4bd e444 f73b 2322 95be 3700 893e
000002a0: 8fed 22bf c076 43bd 11ec 1c3f acfc a0be
000002b0: 98a2 203f 5fa4 793e bd2f 23bf 61b9 e03e
000002c0: e81b a7bd d59d a1be 1146 0c3f 0313 19bf
000002d0: e864 9b3d 6099 17be 6804 023f e747 353e
000002e0: e5c9 b03e f55c 8b3e 4c1f 2ebe 0447 18be
000002f0: bac8 18bf c944 be3e f3dc 103f 0d03 fc3e
00000300: cc5f ffbe d02c 013d a236 ffbe eb4b c7be
00000310: f6d7 c9be 1b37 843e 5dbe d7be 00c2 7cbc
00000320: 31e2 a93c 9787 df3e 0ed6 08bf 428b f8be
00000330: cc95 dfbe 9f07 f13e c3ff 82be dd49 153f
00000340: 00df 803e d317 a13d 7d12 ed3c 4e8f 9bbd
00000350: 1609 b23d 43f7 2dbe dbb0 ea3b 269a af3d
00000360: 2098 0dbf 7fc1 bdbe 32b8 133f 1e63 0dbf
00000370: 3c05 b4bd 5ae1 2e3f af34 973e b76b b73d
00000380: 89cf 21bf ba20 af3e c4ef 00bf 288a 4dbe
00000390: 97c4 19be fc1b 5cbd 64cf 7b3c dd07 183f
000003a0: 2ab4 9e3d 678b 283f 7b2b d93e 13c8 f1be
000003b0: 3801 aa3e a77f ffbe 1fb2 95be ade9 583e
000003c0: 6127 6d3e b67b 093f 9bbf 6fbe 87ff 2d3c
000003d0: e73d c83e 2629 28bf 3222 023f 58c4 1cbf
000003e0: 80ac 1f3c e835 f6bd 0dad bebe 7067 bf3d
000003f0: 907a 203f c3fc 05be b2f0 d6be 7280 62be

net.0.bias f4 [256]
-0.27759513 -0.26360637 0.23805565 0.29948038 -0.33123735 0.1025289 0.43093094 -0.07993771
0.26518807 -0.17054492 0.25011054 -0.4702902 -0.41579914 -0.34379035 0.72767216 -0.21227197
-0.001930654 -0.34259006 0.8001811 0.7581788 -0.5332905 -0.57323015 -0.53598195 -0.07136414
-0.18024427 -0.5175474 -0.32468724 0.20175534 -0.3609207 0.19535343 -0.23566131 -0.35295138
0.16998266 0.64629465 -0.5381988 0.06941392 -0.32541448 0.74477214 -0.6708769 -0.6778758
0.7958111 -0.40152007 0.2218064 -0.061027646 -0.10010232 -0.20823272 0.49829528 0.0771779
-0.7268088 -0.41744766 -0.31196722 0.40013343 -0.4575926 0.7135668 -0.17153277 -0.09498015
0.6090122 0.42600143 0.6797419 0.47688368 -0.27105898 -0.4450411 -0.052610874 0.62411624
-0.23731905 -0.65574956 0.31209615 0.7574754 -0.20130146 -0.6629586 -0.6998153 0.23491083
-0.0535419 -0.45151147 0.18405437 0.30415356 0.63184613 0.61936057 -0.052895702 -0.6235035
-0.63895804 0.7156706 0.39036024 0.39838716 -0.61180365 0.7244198 0.73315877 0.7085388
-0.5965047 -0.24299087 -0.48632246 0.73087114 -0.37355068 -0.3228328 0.41382846 -0.40512273
-0.34826574 -0.06185168 -0.020704938 -0.55082095 0.654333 -0.31192014 0.28823197 0.6886439
0.42013204 0.1702887 0.6753766 0.15453462 -0.32714763 0.7619689 0.07581416 -0.6734742
-0.19107974 -0.48165816 0.7090526 -0.19788028 -0.7126858 -0.0023872247 0.51194394 0.24617709
0.17065583 0.088535406 0.32557938 -0.1265294 -0.28128722 -0.6609387 -0.5290959 0.34409255
-0.4050294 0.13148887 0.28017405 -0.02850267 -0.41945276 0.7505109 -0.47645575 0.6136909
-0.56300306 -0.17009348 0.47676435 -0.30108452 0.6730352 -0.46817368 -0.6769594 -0.28336227
0.21212563 0.7472561 -0.33117515 0.29182708 -0.13050963 -0.104002714 0.60970736 -0.55657405
0.12451162 0.70573235 -0.084461614 0.5907613 -0.18407427 0.62749934 -0.68400586 -0.18227382
-0.20606896 0.2392039 0.3114004 0.6070307 -0.05892684 -0.02804041 0.5198501 -0.1740297
0.6692996 -0.5288792 -0.07651591 -0.1079884 0.39773253 0.542289 -0.08794147 -0.6049666
0.42036843 0.27215883 0.3598234 -0.43332675 0.51392746 0.7699671 -0.008504862 -0.6329831
0.5667164 -0.5184466 0.20040244 0.13965264 -0.40353617 0.1831003 -0.6303926 0.14778359
-0.52878165 -0.119983695 0.13164154 0.670249 -0.337375 0.49852246 -0.13528089 -0.33584693
-0.6288149 -0.650688 0.79082364 -0.24463007 0.061579734 0.20763046 0.5369798 0.6410083
0.6613113 -0.6087597 -0.059754126 -0.47460857 -0.36295354 0.20803185 0.74436724 -0.57996774
0.47427475 -0.36661133 -0.09097792 0.6410148 -0.15992653 -0.024477849 -0.47934029 0.6882228
-0.038182788 -0.59005183 0.22023061 -0.49112466 -0.56109244 0.082568415 0.57890284 -0.13772127
0.39380056 0.71445566 0.48655063 -0.4315754 -0.18107411 -0.17148855 -0.55713606 0.010549857
0.58608335 0.6650865 -0.016117623 0.18872225 -0.30612183 0.6033004 -0.26059255 -0.5531215
0.1405479 0.4565942 -0.64069074 0.68258536 0.34089056 -0.5690878 -0.14214864 0.68300855
00000000: f320 8ebe 6af7 86be dcc4 733e 7e55 993e
00000010: f197 a9be acfa d13d fba2 dc3e 62b6 a3bd
00000020: bbc6 873e 54a3 2ebe 7d0e 803e e1c9 f0be
00000030: a0e3 d4be 4a05 b0be b948 3a3f d35d 59be
00000040: 000e fdba f767 afbe abd8 4c3f 0118 423f
00000050: ba85 08bf 36bf 12bf 1d36 09bf 5d27 92bd
00000060: f491 38be fd7d 04bf 683d a6be f498 4e3e
00000070: 99ca b8be bb0a 483e 3351 71be 0bb6 b4be
00000080: ef0f 2e3e 9173 253f 66c7 09bf e328 8e3d
00000090: ba9c a6be 63a9 3e3f 97be 2bbf 4589 2dbf
000000a0: 47ba 4b3f 0a94 cdbe 3821 633e 20f8 79bd
000000b0: 7202 cdbd f53a 55be 8f20 ff3e 720f 9e3d
000000c0: 2410 3abf b3bb d5be 2bba 9fbe 4ade cc3e
000000d0: 9449 eabe 50ac 363f 49a6 2fbe f484 c2bd
000000e0: 39e8 1b3f dc1c da3e 9103 2e3f 192a f43e
000000f0: 3ec8 8abe 6ddc e3be 807e 57bd 15c6 1f3f
00000100: c403 73be 34df 27bf 11cb 9f3e e8e9 413f
00000110: f821 4ebe a8b7 29bf 1827 33bf 778c 703e
00000120: c04e 5bbd 832c e7be c078 3c3e 04ba 9b3e
00000130: abc0 213f 6a8e 1e3f 2aa9 58bd ed9d 1fbf
00000140: c192 23bf 3036 373f 4cdd c73e 67f9 cb3e
00000150: 2a9f 1cbf 9373 393f 4bb0 3b3f cc62 353f
00000160: 88b4 18bf 99d2 78be 42ff f8be 5f1a 3b3f
00000170: 0942 bfbe 574a a5be 53e1 d33e 3f6c cfbe
00000180: e34f b2be 3058 7dbd 679d a9bc 9a02 0dbf
00000190: 5e82 273f ffb3 9fbe 2493 933e f74a 303f
000001a0: 8c1b d73e 2960 2e3e 7be5 2c3f 533e 1e3e
000001b0: e57f a7be 6510 433f 7444 9b3d ce68 2cbf
000001c0: 68aa 43be e69b f6be 7984 353f 21a1 4abe
000001d0: 9472 36bf fc72 1cbb c20e 033f d915 7c3e
000001e0: 67c0 2e3e 0d52 b53d 57b2 a63e ec90 01be
000001f0: e104 90be 4733 29bf d472 07bf e62c b03e
00000200: 0360 cfbe 05a5 063e f972 8f3e 6e7e e9bc
00000210: 83c2 d6be 7b21 403f 02f2 f3be d91a 1d3f
00000220: f820 10bf fc2c 2ebe 751a f43e c027 9abe
00000230: 094c 2c3f 76b4 efbe 364d 2dbf dc14 91be
00000240: 7637 593e 2d4c 3f3f ca8f a9be 5c6a 953e
00000250: 51a4 05be 60ff d4bd c815 1c3f a37b 0ebf
00000260: f3ff fe3d e0aa 343f 36fa acbd 223c 173f
00000270: f77d 3cbe cca3 203f 021b 2fbf fda5 3abe
00000280: be03 53be def1 743e e06f 9f3e 5d66 1b3f
00000290: 455d 71bd 00b5 e5bc e514 053f d734 32be
000002a0: 3857 2b3f a164 07bf 60b4 9cbd 0629 ddbd
000002b0: 99a3 cb3e 74d3 0a3f a81a b4bd 17df 1abf
000002c0: 883a d73e 6758 8b3e c63a b83e 01dd ddbe
000002d0: c090 033f 901c 453f fa57 0bbc 2e0b 22bf
000002e0: 5314 113f ebb8 04bf 4c36 4d3e 1a01 0f3e
000002f0: 4b9c cebe a57e 3b3e 6961 21bf 9554 173e
00000300: 3c5e 07bf 03ba f5bd 0acd 063e 7095 2b3f
00000310: 6abc acbe 563e ff3e 1387 0abe 21f4 abbe
00000320: 03fa 20bf 7d93 26bf 6b73 4a3f 4e80 7abe
00000330: 083b 7c3d 149d 543e 8277 093f 1f19 243f
00000340: b34b 293f add7 1bbf bec0 74bd e5ff f2be
00000350: 0cd5 b9be 4d06 553e da8e 3e3f c478 14bf
00000360: 24d4 f23e 7bb4 bbbe a252 babd 8c19 243f
00000370: c8c3 23be c585 c8bc 176c f5be 5f2f 303f
00000380: 8e65 1cbd a30d 17bf 2284 613e b174 fbbe
00000390: c1a3 0fbf a119 a93d fa32 143f ce06 0dbe
000003a0: 3aa0 c93e 91e6 363f 2a1d f93e 73f7 dcbe
000003b0: 7e6b 39be b29a 2fbe 78a0 0ebf 4fd9 2c3c
000003c0: 8f09 163f 1c43 2a3f 1b09 84bc 6840 413e
000003d0: 00bc 9cbe e571 1a3f 636c 85be 5f99 0dbf
000003e0: caeb 0f3e b7c6 e93e 4f04 24bf eabd 2e3f
000003f0: 3589 ae3e bdaf 11bf 6a8f 11be a6d9 2e3f

net.2.weight f4 [256, 256]
-0.010059888 -0.018267326 0.005069514 -0.046016205 0.0985252 0.032534227 0.038762845 -0.037130598
0.07350682 -0.037047595 0.074788354 -0.010890097 -0.055685624 0.04939435 -0.02772397 0.029074859
-0.0346099 -0.026217215 -0.032193437 -0.0618047 0.0032480434 0.011053681 -5.2914023e-05 0.0396772
0.059303187 0.04595897 0.016549528 -0.028150149 -0.03986022 -0.043326177 0.01673046 -0.009732747
0.03478767 -0.044287443 0.08014248 -0.04385501 0.026969224 0.063187465 0.06214907 -0.03620389
-0.0058974917 0.02282308 -0.05354295 -0.02159343 0.026259486 -0.018184293 0.01693874 0.027045295
0.04167775 0.051915072 0.020508459 0.030082293 0.06189415 -0.021984063 0.09196673 1.6639035e-05
-0.01596252 -0.021282248 -0.070945345 -0.031077212 0.052659437 0.021625299 0.039618112 -0.0055749784
0.0062675104 -0.023249395 -0.040730324 0.018066738 0.007997371 0.027900675 0.013881985 0.026447212
-0.011301056 0.08377535 0.0035401955 0.023608543 0.015872007 -0.030509587 0.031690303 0.04612083
0.0028761476 0.009352407 -0.072403885 0.025584983 -0.026387207 -0.044501197 0.030642504 -0.0747349
0.0010020286 -0.018675577 0.0412521 -0.057774253 0.0719503 0.061834797 0.0020945051 0.023521176
0.061521865 -0.02670952 -0.00031774366 -0.02736906 -0.011265264 0.0135836825 0.0074061747 -0.018282393
-0.06371818 -0.035405643 -0.054333884 0.008967021 0.04789064 0.04194902 -0.022666909 0.07930179
-0.016444804 -0.057602853 -0.14023156 0.083521284 0.08697999 0.038640372 0.015859291 -0.063999295
0.019321058 0.06595751 -0.04007068 0.062323984 0.016427405 0.04397147 0.0069332756 0.02593539
-0.049792986 -0.00396847 0.015685571 0.036982007 0.068681754 0.026485275 0.09012579 0.056351043
0.043575548 -0.008064359 -0.056348134 0.02669599 -0.037549794 -0.01468251 0.08057847 0.037129503
-0.03702902 -0.026431542 0.11009725 0.050135724 -0.047345083 -0.03433979 -0.02215855 0.01001753
0.046050936 -0.06850901 -0.035875995 0.05274397 0.053722467 -0.053245872 0.02372408 -0.020774433
0.09561394 0.028728632 0.07483146 -0.063140966 -0.053112794 0.042256378 0.06493399 0.04705146
0.049845334 -0.022921545 0.045238353 -0.038717497 0.013466746 -0.03587613 -0.016170777 0.05367739
-0.035614964 -0.0026034587 -0.0685222 -0.06245509 0.024210192 -0.0453664 -0.020117942 -0.009729809
-0.046515632 -0.026477534 0.03739827 0.031765133 0.03496693 -0.020141952 0.05924249 0.017336028
-0.012984226 0.03460659 0.061038278 -0.12018406 -0.06214951 -0.0038437336 0.07047455 -0.016953783
0.071713686 0.08116841 -0.01140493 0.036334712 0.07297381 0.051727213 -0.03244723 0.024282753
-0.06961061 0.099244244 -0.039721046 0.094500415 -0.007049579 -0.041927326 -0.024582746 -0.040476933
0.01383808 -0.040577933 -0.022317717 -0.023385419 -0.020995356 0.05733789 0.023433637 0.0054826047
0.033224482 0.014090562 0.056258716 0.027461043 0.07948538 -0.020101413 0.011501552 0.012501988
0.0012130616 -0.09061138 0.012574447 -0.023483736 0.012156636 0.059356894 -0.0400234 -0.03746775
-0.018071681 -0.040158264 0.028736005 0.024320405 0.031693533 -0.09927886 0.0074206167 0.0805223
0.05406072 0.006938705 -0.02603385 0.020930417 0.032639146 0.011067373 -0.017655369 0.015506281
00000000: 3ad2 24bc 5ca5 95bc 2a1e a63b 7d7b 3cbd
00000010: 94c7 c93d 9c42 053d cac5 1e3d 4116 18bd
00000020: be8a 963d 38bf 17bd a32a 993d 616c 32bc
00000030: 9c16 64bd bb51 4a3d 611d e3bc 662e ee3c
00000040: 1cc3 0dbd 7cc5 d6bc 44dd 03bd ed26 7dbd
00000050: 20dd 543b 801a 353c 00f0 5db8 8f84 223d
00000060: e6e7 723d 793f 3c3d e092 873c 249b e6bc
00000070: 7844 23bd ca76 31bd 510e 893c 1a76 1fbc
00000080: 847d 0e3d c066 35bd be21 a43d 50a1 33bd
00000090: 90ee dc3c 6e68 813d 0690 7e3d 884a 14bd
000000a0: bf3f c1bb 78f7 ba3c da4f 5bbd b4e4 b0bc
000000b0: 221e d73c 3af7 94bc 1dc3 8a3c 188e dd3c
000000c0: 4ab6 2a3d e6a4 543d 5b01 a83c 246f f63c
000000d0: b884 7d3d ec17 b4bc 0e59 bc3d 0e94 8b37
000000e0: d5c3 82bc 1c58 aebc cb4b 91bd a395 febc
000000f0: 6cb1 573d 8a27 b13c 9a46 223d 4fae b6bb
00000100: b05f cd3b 8475 bebc d7d4 26bd b200 943c
00000110: 6807 033c f58f e43c 4471 633c d3a7 d83c
00000120: 1028 39bc 6992 ab3d a002 683b b466 c13c
00000130: 0306 823c 3eef f9bc b1cd 013d 32e9 3c3d
00000140: c07d 3c3b d73a 193c 7d48 94bd 9997 d13c
00000150: fc29 d8bc e346 36bd fd05 fb3c 9c0e 99bd
00000160: 8056 833a 86fd 98bc f6f7 283d b2a4 6cbd
00000170: ae5a 933d 7c46 7d3d f743 093b 7baf c03c
00000180: 5afe 7b3d eccd dabc d596 a6b9 1435 e0bc
00000190: f191 38bc 188e 5e3c 7faf f23b f5c4 95bc
000001a0: ad7e 82bd 8205 11bd 358d 5ebd 69ea 123c
000001b0: fa28 443d bcd2 2b3d f4af b9bc fa68 a23d
000001c0: 41b7 86bc f8f0 6bbd dd98 0fbe 350d ab3d
000001d0: 9122 b23d 5e45 1e3d 58eb 813c 1012 83bd
000001e0: 3247 9e3c bb14 873d 2721 24bd 6f47 7f3d
000001f0: c492 863c 6e1b 343d 8830 e33b 7476 d43c
00000200: bbf3 4bbd f009 82bb 077f 803c 727a 173d
00000210: 05a9 8c3d a6f7 d83c df93 b83d 5ad0 663d
00000220: 467c 323d 6020 04bc 4dcd 66bd 8cb1 da3c
00000230: d0cd 19bd e98e 70bc 5306 a53d 1b15 183d
00000240: beab 17bd f686 d8bc ab7a e13d 1e5b 4d3d
00000250: ebec 41bd e1a7 0cbd d985 b5bc 9120 243c
00000260: e89f 3c3d 744e 8cbd b5f2 12bd 100a 583d
00000270: 170c 5c3d 5818 5abd 0059 c23c 252f aabc
00000280: 3ed1 c33d 4f58 eb3c 3d41 993d 0d50 81bd
00000290: cd8c 59bd 0615 2d3d 1dfc 843d 08b9 403d
000002a0: 9f2a 4c3d f7c5 bbbc da4b 393d 3d96 1ebd
000002b0: a0a3 5c3c d9f2 12bd 9478 84bc d3dc 5b3d
000002c0: ffe0 11bd ca9e 2abb 5e55 8cbd e9d0 7fbd
000002d0: 7454 c63c 1ed2 39bd 62ce a4bc c769 1fbc
000002e0: 2d87 3ebd 6ae7 d8bc ee2e 193d 281c 023d
000002f0: 7c39 0f3d bc00 a5bc 41a8 723d 4904 8e3c
00000300: cbbb 54bc a4bf 0d3d 4603 7a3d 0f23 f6bd
00000310: 7c90 7ebd 26e7 7bbb f654 903d a9e2 8abc
00000320: a0de 923d a03b a63d bedb 3abc b5d3 143d
00000330: 4b73 953d eadf 533d 63e7 04bd a0ec c63c
00000340: 0290 8ebd 9140 cb3d 89b2 22bd 6f89 c13d
00000350: 2800 e7bb fdbb 2bbd c161 c9bc 24cb 25bd
00000360: 1db9 623c 0c35 26bd a5d3 b6bc c792 bfbc
00000370: 74fe abbc 23db 6a3d e6f7 bf3c 6ca7 b33b
00000380: 6516 083d 1adc 663c 8a6f 663d fbf5 e03c
00000390: 3bc9 a23d b8ab a4bc 0171 3c3c 23d5 4c3c
000003a0: 98ff 9e3a 7692 b9bd 0e05 4e3c f760 c0bc
000003b0: a12c 473c 3720 733d 94ef 23bd c977 19bd
000003c0: 100b 94bc fe7c 24bd c567 eb3c 963b c73c
000003d0: 14d1 013d b752 cbbd a528 f33b e0e8 a43d
000003e0: c66e 5d3d 145e e33b f144 d5bc 4476 ab3c
000003f0: a0b0 053d ed53 353c fea1 90bc 0e0e 7e3c

net.2.bias f4 [256]
-0.09946861 -0.103100196 -0.028544262 0.021716116 0.0549186 -0.04628205 0.058261648 -0.009761295
0.087815136 -0.036057424 -0.01797688 0.029094579 -0.03755738 -0.025009934 -0.010624718 -0.099618375
0.022241198 -0.04583844 -0.03417013 0.016153347 0.089711905 -0.054300398 -0.03306894 -0.0053081885
0.05245161 0.00521609 -0.008207098 -0.112990394 -0.028499022 0.119737014 0.027594566 0.09759405
-0.055241555 -0.029447446 0.11026 -0.038375318 -0.01648499 -0.02183037 -0.0582767 -0.083145946
-0.030037835 -0.025179366 -0.0041845595 -0.013174614 0.09888833 0.036141664 -0.034604818 -0.057507902
-0.033233028 0.055447724 -0.087680876 -0.018055722 -0.12255856 -0.035355203 -0.022205334 0.008078948
0.011864854 -0.0791516 0.061120965 -0.049180944 -0.007275008 0.030538918 -0.05756572 -0.061153084
0.009173028 -0.05782666 0.00848319 0.059902057 -0.08178357 -0.06211913 -0.015782282 0.037954953
-0.014878909 -0.032844193 0.016925558 0.03223701 -0.115614794 0.0049603716 -0.0075199734 -0.037856545
-0.06688178 -0.031941187 -0.045342147 0.009484912 -0.039954342 0.022707492 0.008515452 -0.02390169
0.049237605 0.11537573 0.111800306 0.114187494 0.009814662 0.05029867 -0.03157363 0.010845676
-0.11391881 0.011772105 0.0959055 0.047823116 0.07691815 0.049019463 -0.055095755 0.06428035
-0.059683666 0.10089541 0.07255789 -0.04301548 0.06253262 0.062251013 0.10868586 -0.043501884
0.033041794 0.008219462 -0.020066675 -0.08479108 0.021493858 0.12318266 0.1009301 0.0076254336
0.05514666 0.09223006 -0.033519886 0.0014933597 0.086801365 0.07494924 0.11250943 0.112713315
0.04975871 -0.03281664 0.06264026 -0.012689654 -0.079617076 -0.014263056 -0.060472652 0.010169111
-0.037136503 0.047626752 0.021947637 0.023503039 0.012467198 -0.059703518 -0.00056313723 0.042210735
0.069874674 0.021305041 -0.039066687 0.018512886 -0.06992651 -0.011463473 0.03463572 -0.035282657
0.09056038 -0.06035003 -0.026284209 0.050648894 -0.05211193 -0.004867643 -0.016371878 0.022984944
0.006837467 0.04454978 0.04891441 0.072125964 -0.029899418 -0.042875435 0.04965161 0.005760394
0.06721001 0.09521249 -0.056547426 -0.052658252 0.024255 -0.107886195 -0.056761183 -0.04211735
-0.016524276 -0.045042355 0.038035225 0.10493588 -0.03206133 -0.031654537 -0.06989713 0.016403802
0.011144774 0.08672546 -0.061138093 -0.066956885 0.058540054 -0.07094422 0.08417508 -0.03423762
-0.0932192 0.05373608 0.07699705 0.083194315 0.0070547042 -0.08721756 0.08490762 -0.068950996
0.040304117 0.0055221524 0.036917225 -0.03162811 0.009263098 0.04046441 0.024870465 0.029478986
0.10635943 -0.019410834 0.07876866 -0.10850364 0.05136381 0.10559964 -0.0007964543 -0.0658651
0.008344336 0.015281771 0.05617613 0.09324632 0.025992183 0.02042865 -0.045923308 -0.0063484088
-0.0375208 0.027162628 -0.0012303713 0.03321974 0.08777601 -0.021660324 -0.057237193 0.010822874
0.013193622 -0.058398113 -0.031033672 0.07464732 0.048191108 0.0135943005 -0.11765146 -0.004725203
0.046715274 0.049389523 0.033607967 0.11356736 0.01976329 0.03858018 -0.06834202 -0.06964354
-0.05346615 -0.028082244 0.016418815 0.06610076 -0.028530395 -0.05818099 0.044668965 -0.053334624
00000000: 33b6 cbbd 3226 d3bd a8d5 e9bc ffe5 b13c
00000010: 53f2 603d 3f92 3dbd c4a3 6e3d d7ed 1fbc
00000020: 6cd8 b33d f3b0 13bd 4044 93bc c157 ee3c
00000030: c4d5 19bd a2e1 ccbc 4c13 2ebc b804 ccbd
00000040: 2c33 b63c 17c1 3bbd faf5 0bbd 0654 843c
00000050: e0ba b73d 186a 5ebd 4c73 07bd 50f0 adbb
00000060: 80d7 563d bceb aa3b 1077 06bc 8267 e7bd
00000070: c876 e9bc ae38 f53d 000e e23c 64df c73d
00000080: f844 62bd c53b f1bc ffcf e13d 702f 1dbd
00000090: 880b 87bc 9bd5 b2bc 8db3 6ebd 6c48 aabd
000000a0: e811 f6bc f544 cebc a11e 89bb 56da 57bc
000000b0: f785 ca3d 4809 143d c8bd 0dbd 688d 6bbd
000000c0: 5b1f 08bd 271d 633d 0892 b3bd 98e9 93bc
000000d0: fbff fabd 9ed0 10bd f6e7 b5bc 905d 043c
000000e0: ce64 423c 3c1a a2bd fa59 7a3d f571 49bd
000000f0: 3163 eebb c12c fa3c 08ca 6bbd a87b 7abd
00000100: 784a 163c a6db 6cbd 14fd 0a3c dc5b 753d
00000110: 257e a7bd a170 7ebd d849 81bc a776 1b3d
00000120: abc6 73bc a287 06bd 78a7 8a3c f40a 043d
00000130: 73c7 ecbd 9d8a a23b 1c6a f6bb 770f 1bbd
00000140: 51f9 88bd c3d4 02bd b0b8 39bd 9b66 1b3c
00000150: 2aa7 23bd 1005 ba3c 6584 0b3c 7acd c3bc
00000160: 5fad 493d 1c4a ec3d 8ff7 e43d 22db e93d
00000170: adcd 203c fa05 4e3d 5a53 01bd 10b2 313c
00000180: 444e e9bd c9df 403c 1a6a c43d 2ce2 433d
00000190: 4387 9d3d a2c8 483d 16ac 61bd 6ba5 833d
000001a0: dc76 74bd 41a2 ce3d 3b99 943d 0031 30bd
000001b0: 1a11 803d ebfa 7e3d b196 de3d 082f 32bd
000001c0: d556 073d ecaa 063c de62 a4bc f2a6 adbd
000001d0: e313 b03c 3147 fc3d 71b4 ce3d c6de f93b
000001e0: 77e1 613d 1de3 bc3d 264c 09bd d6bc c33a
000001f0: eac4 b13d fd7e 993d 586b e63d 3dd6 e63d
00000200: cacf 4b3d be6a 06bd 8949 803d 44e8 4fbc
00000210: 470e a3bd 98af 69bc 2cb2 77bd 589c 263c
00000220: 721c 18bd 4514 433d 88cb b33c 7289 c03c
00000230: 3843 4c3c ad8b 74bd 809f 13ba 2ae5 2c3d
00000240: 741a 8f3d e987 ae3c 6404 20bd 56a8 973c
00000250: a135 8fbd 4ad1 3bbc 2fde 0d3d 8c84 10bd
00000260: b877 b93d 9831 77bd fb51 d7bc 3775 4f3d
00000270: 5273 55bd c080 9fbb 511e 86bc ec4a bc3c
00000280: d50c e03b d579 363d 7a5a 483d c7b6 933d
00000290: a0ef f4bc 279e 2fbd 7d5f 4b3d b0c1 bc3b
000002a0: 67a5 893d c4fe c23d 469e 67bd 2eb0 57bd
000002b0: 6cb2 c63c 70f3 dcbd 6a7e 68bd 3e83 2cbd
000002c0: eb5d 87bc 557e 38bd d3ca 1b3d 9fe8 d63d
000002d0: be52 03bd 30a8 01bd 3a26 8fbd 4461 863c
000002e0: 9298 363c 1e9d b13d f06b 7abd b120 89bd
000002f0: b2c7 6f3d 344b 91bd fc63 ac3d bf3c 0cbd
00000300: b5e9 bebd 5d1a 5c3d a1b0 9d3d c861 aa3d
00000310: 262b e73b 1f9f b2bd 0ce4 ad3d 2e36 8dbd
00000320: ee15 253d 2cf3 b43b 8436 173d 7a8c 01bd
00000330: 40c4 173c 02be 253d 25bd cb3c ea7d f13c
00000340: f9d2 d93d 7803 9fbc 7751 a13d 2837 debd
00000350: dc62 523d a044 d83d 25c9 50ba 48e4 86bd
00000360: afb6 083c 6560 7a3c f118 663d edf7 be3d
00000370: 8fed d43c fc59 a73c 141a 3cbd 5006 d0bb
00000380: 69af 19bd 2984 de3c 6944 a1ba 6c11 083d
00000390: e9c3 b33d fe70 b1bc 8c71 6abd 6c52 313c
000003a0: 102a 583c dc32 6fbd 543a febc b2e0 983d
000003b0: 0a64 453d a1ba 5e3c 40f3 f0bd e0d5 9abb
000003c0: 8458 3f3d ab4c 4a3d 82a8 093d 0196 e83d
000003d0: a0e6 a13c 4006 1e3d e7f6 8bbd 46a1 8ebd
000003e0: 52ff 5abd bc0c e6bc c080 863c d65f 873d
000003f0: 93b8 e9bc 314f 6ebd cef6 363d 6875 5abd

net.4.weight f4 [1, 256]
0.07363697 0.04658253 0.0014529005 0.042798743 -0.05282228 0.0519913 -0.004628338 0.053838782
-0.11019876 0.06560051 -0.030492492 0.0039710677 0.041942906 0.034932435 0.029067505 0.06518182
0.042640157 0.05484563 0.077342205 -0.059746478 -0.102547206 -0.008911356 0.08435111 0.040552445
-0.08331739 0.018089345 -0.028665595 0.10005125 0.101240404 -0.08866189 -0.06126096 -0.06768793
0.026747286 0.04269198 -0.07488876 -0.011755459 0.008425735 0.022784116 0.061681543 0.07641995
0.07346866 0.050558228 -0.074561715 0.043877844 -0.079536036 0.031959705 0.06239765 0.05805318
0.052677624 -0.09707141 0.09106338 -0.036242276 0.05951296 0.03193199 0.039528508 -0.0048746318
-0.07792598 0.08074052 -0.08636662 0.071568154 0.057056133 -0.048505306 0.05770865 0.10361294
-0.08015879 0.011869691 -0.102669634 -0.07358127 0.06198819 0.07425996 0.03317015 0.045394693
0.023088863 0.040585503 -0.0275006 -0.007617861 0.08002626 -0.060234558 0.08951488 0.05043677
0.096890375 0.107334636 0.05659944 0.07350945 0.04198143 0.029029347 -0.062844455 0.025579901
-0.10085375 -0.06445391 -0.056899603 -0.07774463 -0.083294876 0.04276107 0.020718304 0.0489062
0.08703565 -0.08649428 -0.0604663 -0.10397673 -0.048929747 -0.018287383 0.10416716 -0.10107902
0.051298 -0.0973491 -0.0840313 0.04734028 -0.053237285 -0.09319754 -0.0633323 0.05733951
-0.09951956 0.023107162 -0.0069293 0.09161187 -0.09272399 -0.05151702 -0.07844297 -0.08238007
0.009729633 -0.110478066 0.03962026 0.055302173 -0.068099804 -0.061195333 -0.08384651 -0.10533351
-0.04286515 0.06845432 -0.101732716 0.049419668 0.051510505 -0.04734142 -0.06030628 -0.07905407
-0.0042190924 -0.07399812 0.007875785 -0.0056641926 -0.018623248 0.057727866 0.014074698 -0.10799165
-0.10950188 0.016683733 -0.052119963 -0.048876178 0.025429413 0.05821845 0.019235931 0.0025620193
-0.06577746 0.059258707 0.037913363 0.054002643 0.014512092 -0.016464345 0.050481535 0.028271267
-0.05080145 -0.06152535 0.0080538895 -0.090697415 0.024784423 0.039573383 0.011638956 -0.06016448
-0.07044601 -0.08036306 -0.048908003 -0.029575713 0.0048187077 0.10919588 0.052586086 0.023190985
0.046069223 0.034067154 0.021145651 -0.088447824 0.05503795 0.052452996 0.11203054 0.07613678
-0.09252139 -0.0848847 0.024835639 0.082407184 -0.08805424 0.08931294 -0.048229374 0.079414435
0.04504447 0.028854484 -0.1015615 -0.087283194 -0.099164404 0.078052916 -0.11249946 0.0773439
-0.071442954 0.06547695 0.033928506 0.06709242 -0.09629103 0.030503161 -0.09781483 -0.05986578
-0.10626183 0.067953385 -0.11899031 0.100710884 -0.06633452 -0.06712719 -0.10243006 0.057328973
-0.047410283 -0.075191155 0.0121716345 -0.10890156 0.025685204 -0.0133365095 0.004304884 0.0073090345
0.031087294 0.0021160021 0.050523303 -0.06109362 -0.058716524 0.08575068 0.023311168 -0.062599495
-0.0043734834 0.04382416 0.019777268 -0.07956951 -0.09865013 0.008008847 0.10203618 0.08605658
-0.05001451 -0.03384696 -0.11842073 -0.084574096 -0.050816253 -0.060367294 0.09430495 0.01851209
0.0065544173 0.013372995 -0.10825221 -0.056022637 0.09281242 0.04943276 -0.060753953 0.053327184
00000000: fbce 963d 53cd 3e3d 406f be3a bc4d 2f3d
00000010: 2d5c 58bd d4f4 543d 50a9 97bb 0e86 5c3d
00000020: e3af e1bd 8f59 863d 64cb f9bc bb1f 823b
00000030: 53cc 2b3d 5015 0f3d fa1e ee3c 0c7e 853d
00000040: 72a7 2e3d d0a5 603d 9765 9e3d b9b8 74bd
00000050: 4504 d2bd f000 12bc 46c0 ac3d 521a 263d
00000060: 4fa2 aabd 1b30 943c 1cd4 eabc abe7 cc3d
00000070: 2157 cf3d 5d94 b5bd c6ec 7abd f89f 8abd
00000080: 201d db3c c9dd 2e3d 475f 99bd f899 40bc
00000090: 180c 0a3c c1a5 ba3c c9a5 7c3d 1082 9c3d
000000a0: bd76 963d 2516 4f3d d0b3 98bd 41b9 333d
000000b0: cae3 a2bd 2ee8 023d ae94 7f3d 2cc9 6d3d
000000c0: 7ec4 573d 60cd c6bd 707f ba3d c872 14bd
000000d0: ddc3 733d 1ecb 023d a5e8 213d 60bb 9fbb
000000e0: a897 9fbd 495b a53d fce0 b0bd 5392 923d
000000f0: b1b3 693d 80ad 46bd e85f 6c3d 0533 d43d
00000100: 4b2a a4bd 1879 423c 7544 d2bd c7b1 96bd
00000110: 54e7 7d3d 9b15 983d 6cdd 073d c9ef 393d
00000120: db24 bd3c fc3c 263d f048 e1bc 409f f9bb
00000130: cfe4 a33d 83b8 76bd 9453 b73d c996 4e3d
00000140: 766e c63d 43d2 db3d d0d4 673d 1f8c 963d
00000150: b8f4 2b3d f4ce ed3c 98b4 80bd f18c d13c
00000160: 698c cebd 6900 84bd 8f0f 69bd 9438 9fbd
00000170: 8196 aabd 3b26 2f3d 6fb9 a93c de51 483d
00000180: bf3f b23d ea23 b1bd 83ab 77bd c0f1 d4bd
00000190: 8f6a 48bd 6ccf 95bc 9855 d53d 8402 cfbd
000001a0: da1d 523d f75e c7bd 9a18 acbd e2e7 413d
000001b0: 570f 5abd 5ade bebd 5db4 81bd d6dc 6a3d
000001c0: e9d0 cbbd 3b4b bd3c 2e0f e3bb 019f bb3d
000001d0: 13e6 bdbd 8303 53bd b5a6 a0bd e2b6 a8bd
000001e0: 0a69 1f3c 5342 e2bd db48 223d 8884 623d
000001f0: e977 8bbd f5a7 7abd b8b7 abbd 18b9 d7bd
00000200: 5e93 2fbd c731 8c3d 3e59 d0bd 476c 4a3d
00000210: aefc 523d 14e9 41bd b803 77bd 1ae7 a1bd
00000220: 5040 8abb 548c 97bd 7009 013c b19a b9bb
00000230: c88f 98bc 0e74 6c3d 9099 663c ba2a ddbd
00000240: 8642 e0bd 53ac 883c be7b 55bd 6332 48bd
00000250: 5851 d03c 7876 6e3d ac94 9d3c 8de7 273b
00000260: 55b6 86bd 42b9 723d 0b4b 1b3d e031 5d3d
00000270: 20c4 6d3c 3ce0 86bc bac5 4e3d 2599 e73c
00000280: 2e15 50bd 0102 7cbd 76f4 033c 91bf b9bd
00000290: b408 cb3c b317 223d 52b1 3e3c 086f 76bd
000002a0: ff45 90bd 6395 a4bd c253 48bd c448 f2bc
000002b0: 40e6 9d3b 17a2 df3d 8264 573d 05fb bd3c
000002c0: 15b3 3c3d 008a 0b3d a539 ad3c 2224 b5bd
000002d0: 796f 613d f4d8 563d 4570 e53d 9aed 9b3d
000002e0: db7b bdbd 08d8 adbd 1c74 cb3c 19c5 a83d
000002f0: c855 b4bd b4e9 b63d 2a8c 45bd 09a4 a23d
00000300: 8d80 383d 3d60 ec3c 7aff cfbd 88c1 b2bd
00000310: b516 cbbd 35da 9f3d 1e66 e6bd 7b66 9e3d
00000320: af50 92bd c718 863d 9ef8 0a3d c067 893d
00000330: 3b34 c5bd c4e1 f93c 2453 c8bd d235 75bd
00000340: cd9f d9bd 252b 8b3d 31b1 f3bd 8241 ce3d
00000350: 65da 87bd fb79 89bd dac6 d1bd c9d1 6a3d
00000360: 4931 42bd d2fd 99bd 896b 473c c807 dfbd
00000370: c769 d23c 6081 5abc fc0f 8d3b a080 ef3b
00000380: c8aa fe3c a0ac 0a3b 86f1 4e3d 4e3d 7abd
00000390: bd80 70bd 0d9e af3d 10f7 be3c 2a34 80bd
000003a0: 704f 8fbb f680 333d f003 a23c 57f5 a2bd
000003b0: 1409 cabd 8a37 033c 58f8 d03d 6f3e b03d
000003c0: 04dc 4cbd 1ca3 0abd 9186 f2bd 2f35 adbd
000003d0: b424 50bd b243 77bd f422 c13d aba6 973c
000003e0: 70c6 d63b 681a 5b3c 56b3 ddbd fe77 65bd
000003f0: 7014 be3d 017a 4a3d 23d9 78bd 9b6d 5a3d
