archive/new/runs/phase2/pessimist.pt (torch, 276525 bytes, 5 tensors)

net.0.weight f4 [256, 8]
0	0x3e012110	0.12610269
1	0x3ebf8e5b	0.37413296
2	0xbe9ae577	-0.30253193
3	0xbea23181	-0.31678393
4	0xbe1ded28	-0.15422499
5	0xbdcb0cd6	-0.09914558
6	0x3d42a742	0.04752279
7	0x3e4b9903	0.19882588
8	0x3d9a2d4d	0.07528172
9	0x3db16097	0.08661001
10	0xbea8156e	-0.3282885
11	0xbe3285fc	-0.17433923
12	0xbefaee25	-0.49009815
13	0xbd9b5748	-0.07585007
14	0xbe477a7b	-0.19480316
15	0xbe75b326	-0.23994121
16	0x3e8a19ed	0.26972905
17	0x3ed1f2f5	0.41005674
18	0xbe551f59	-0.2081274
19	0xbe918ce6	-0.2842781
20	0x3de2d1d4	0.11075178
21	0x3d3b685e	0.04575383
22	0x3e5fbc09	0.21849073
23	0x3e360afb	0.17777626
24	0xbc4cfffc	-0.012512203
25	0x3dec1408	0.11527258
26	0x3e736526	0.23769054
27	0xbf02fb55	-0.5116475
28	0xbe080f04	-0.13286978
29	0xbdd23424	-0.10263851
30	0xbdb54cf5	-0.08852569
31	0x3e98b03c	0.29821956
32	0xbe439b0c	-0.19102114
33	0x3c852bdd	0.016256267
34	0xbe906b35	-0.28206792
35	0xbee9ab3b	-0.4563845
36	0xbe18838d	-0.14893933
37	0x3ebcdd73	0.36887702
38	0x3dbfff77	0.09374898
39	0x3dc6a420	0.09699273
40	0x3d8ea6aa	0.069653824
41	0xbe046bd0	-0.12931752
42	0x3e68bc6b	0.22728126
43	0xbf05cdc7	-0.52267116
44	0xbe874c16	-0.26425236
45	0xbec000b3	-0.37500533
46	0x3e793395	0.24336083
47	0x3ebc13e4	0.36733925
48	0xbe5706bf	-0.20998667
49	0x3c110fc7	0.008853859
50	0x3f1ff6d9	0.62486035
51	0x3e278786	0.16360292
52	0x3e9c4786	0.30523318
53	0x3d04909c	0.032364473
54	0x3ea4dbaa	0.3219884
55	0xbd46312e	-0.048386745
56	0x3d8f550b	0.069986425
57	0xbe7e4c22	-0.2483373
58	0xbe6bc6b3	-0.23025016
59	0xbee3b412	-0.4447332
60	0x3e946845	0.289858
61	0x3ec0a76e	0.3762774
62	0xbdc2d0bb	-0.095124684
63	0x3d9dd6e3	0.07707002
64	0x3e600699	0.21877517
65	0x3c124deb	0.00892971
66	0x3c4d0f9c	0.012515929
67	0xbcdb5676	-0.026774626
68	0x3e90b3d7	0.28262207
69	0x3e6a8cab	0.22905223
70	0xbe1de194	-0.15418082
71	0xbe39bc5e	-0.18138263
72	0x3e44acfa	0.1920661
73	0x3eb39b8d	0.35079613
74	0x3e6fa27b	0.23401825
75	0x3e153f6f	0.14574979
76	0x3e24b223	0.16083579
77	0xbeafde60	-0.34349346
78	0x3dddacab	0.108239494
79	0xbe2f6518	-0.17128408
80	0xbe855d83	-0.26047906
81	0x3f050176	0.51955354
82	0x3e4023ba	0.18763629
83	0xbedb99a6	-0.42890662
84	0x3e35bf92	0.1774886
85	0xbc5a0bc9	-0.013308474
86	0xbd97780f	-0.07395946
87	0xbe1eb787	-0.15499698
88	0xbd2352ec	-0.039874002
89	0xbde4c027	-0.11169463
90	0x3e122472	0.14271715
91	0x3dd9f6fe	0.10642813
92	0x3f2cfbec	0.675719
93	0xbd60a765	-0.05484714
94	0xbe2c6e5b	-0.16838972
95	0xbdf46a06	-0.11934285
96	0x3e8e975b	0.2784985
97	0x3e4b18e5	0.19833715
98	0xbe5599c5	-0.2085944
99	0xbeb2adfe	-0.3489837
100	0x3e9868cf	0.29767463
101	0x3ca36b9b	0.019948771
102	0x3dbe2d87	0.092860274
103	0xbe565604	-0.2093125
104	0xbe6b6eff	-0.2299156
105	0x3e21bb21	0.1579404
106	0xbe5e5fb0	-0.2171619
107	0xbed637f5	-0.41839567
108	0xbd32a534	-0.04361458
109	0xbd6f843f	-0.05847573
110	0xbde238a0	-0.110459566
111	0x3db74ecc	0.08950576
112	0xbe0fe566	-0.14052352
113	0x3f1329d4	0.574857
114	0x3e2ce0b0	0.16882586
115	0xbecbe9ee	-0.39826912
116	0xbba047c1	-0.004891366
117	0xbd318031	-0.043335143
118	0x3d4c4fc4	0.049880758
119	0x3d807269	0.06271822
120	0x3e45f599	0.1933197
121	0x3cc778cc	0.024349593
122	0xbe92d49b	-0.2867783
123	0x3d26778a	0.040641345
124	0xbe89b4d6	-0.2689578
125	0xbe7e49b9	-0.2483281
126	0xbe0887f6	-0.13333115
127	0xbea3e65d	-0.3201169
128	0x3d3451e6	0.044023417
129	0xbe49f899	-0.19723739
130	0xbcffe040	-0.03123486
131	0xbb138ac1	-0.0022513124
132	0xbf48ffa3	-0.7851507
133	0xbce9ac72	-0.028524611
134	0x3e76d09b	0.24103014
135	0xbe731d5f	-0.23741673
136	0x3d549beb	0.051906507
137	0x3c619fda	0.013771022
138	0x3da4ed62	0.0805309
139	0x3e31b912	0.17355755
140	0x3ed7895d	0.42096987
141	0x3e1fa567	0.1559044
142	0x3eb84b55	0.35994974
143	0xbd537772	-0.051627584
144	0xbc03ceda	-0.008044923
145	0x3ca54514	0.02017454
146	0x3ea1e911	0.31623128
147	0xbd9473fd	-0.072486855
148	0xbebdd256	-0.37074536
149	0xbf21f00c	-0.6325691
150	0xbed65307	-0.4186022
151	0xbe554610	-0.20827508
152	0xbd757911	-0.05992991
153	0x3e856ffa	0.26061994
154	0x3e293b2b	0.16526477
155	0xbef8d7b3	-0.48602065
156	0x3e934b35	0.28768316
157	0xbe8ef84c	-0.2792381
158	0xbe40aa6b	-0.1881501
159	0xbea2970c	-0.31755865
160	0xbb4bf378	-0.003112046
161	0xbc2333a6	-0.009961044
162	0xbeed5b1a	-0.46358567
163	0xbef237e4	-0.47308266
164	0x3d533378	0.051562756
165	0x3e16bbf3	0.14720134
166	0x3e98d74a	0.29851753
167	0x3e025dcf	0.12731098
168	0xbed51d68	-0.41623998
169	0x3c210856	0.009828648
170	0x3f0553c0	0.5208092
171	0xbcbb5689	-0.022868412
172	0x3f1c41e4	0.6103804
173	0x3d58b0eb	0.052903097
174	0xbe996fc9	-0.29968098
175	0x3e9a8a2d	0.30183545
176	0x3d1fd641	0.039022688
177	0xbe539467	-0.2066208
178	0x3e81831c	0.2529534
179	0xbedf307b	-0.43591675
180	0xbe53f6c3	-0.20699601
181	0xbee267b3	-0.4421974
182	0x3e5bef01	0.21477892
183	0x3e7b3de6	0.24535331
184	0x3e876d7b	0.26450714
185	0x3ea37917	0.31928322
186	0xbdcbf9cc	-0.09959754
187	0xbe28c041	-0.16479589
188	0xbe93dc55	-0.28879037
189	0x3c30ddbc	0.010795053
190	0x3e97932b	0.29604468
191	0x3e2364a8	0.15956366
192	0xbe8659cc	-0.26240385
193	0x3d9fb5c4	0.07798341
194	0xbe960c27	-0.29306147
195	0xbe0c5229	-0.13703217
196	0x3bd41b61	0.0064729904
197	0x3e9fc813	0.31207332
198	0x3db3df26	0.087827966
199	0xbd852b73	-0.06502428
200	0x3dd59211	0.104282506
201	0x3ef116d9	0.47087744
202	0xbe94449b	-0.28958592
203	0xbea2733b	-0.3172854
204	0xbe2d507e	-0.16925237
205	0x3d389580	0.04506445
206	0xbd8f2766	-0.069899365
207	0x3e4fa99f	0.20279549
208	0x3e441eb8	0.19152343
209	0x3de79d6a	0.11309321
210	0xbc9b5660	-0.018962085
211	0xbe554da3	-0.20830397
212	0x3dc5a854	0.09651247
213	0xbdf9f927	-0.12205725
214	0x3d7d912a	0.061906017
215	0x3d53967e	0.051657192
216	0xbbe0d179	-0.0068609086
217	0xbe10f135	-0.14154513
218	0x3e937036	0.28796548
219	0xbf0441fa	-0.5166317
220	0xbd9b19a4	-0.0757325
221	0x3e2211ba	0.15827075
222	0x3d59eb1c	0.053202733
223	0xbcc3c179	-0.023895966
224	0xbe3d0049	-0.1845714
225	0x3ed8d084	0.42346585
226	0xbe61294d	-0.21988411
227	0xbe4ebf82	-0.20190242
228	0xbdf450c0	-0.11929464
229	0xbe2935ee	-0.16524479
230	0x3d1ca82b	0.038246315
231	0x3e6be29c	0.23035663
232	0x3d8a279c	0.06745836
233	0x3ecfcdb6	0.40586632
234	0x3e18ef5c	0.14935058
235	0xbea13fdb	-0.3149403
236	0x3e666439	0.2249917
237	0xbe85b194	-0.26112044
238	0xbe9d846f	-0.307651
239	0x3d7ab4f3	0.061207723
240	0x3e49edf6	0.19719681
241	0x3eae3467	0.34024355
242	0xbe141adf	-0.14463376
243	0xbdb388be	-0.08766316
244	0x3e8c8614	0.27446043
245	0xbeac2d64	-0.3362838
246	0x3ea660ca	0.3249572
247	0xbe7fe6c2	-0.24990371
248	0xbdbf4edb	-0.09341212
249	0xbd026ca0	-0.031841874
250	0xbed9ca83	-0.42537317
251	0xbdf18582	-0.11793043
252	0x3e1768fb	0.1478614
253	0xbd1b3749	-0.03789452
254	0x3e2ef943	0.17087273
255	0xbe210fad	-0.15728636

net.0.bias f4 [256]
0	0xbc25ab2c	-0.010111611
1	0xbd6f350a	-0.05840019
2	0xbd05f20b	-0.032701533
3	0x3e519dd2	0.2047036
4	0x3dee297a	0.11629005
5	0xbdf6736b	-0.12033733
6	0xbdba8ef0	-0.091092944
7	0x3c4a0a72	0.012331592
8	0x3ece725e	0.4032163
9	0x3ec3188a	0.3810466
10	0xbdfc672b	-0.12324365
11	0x3e35a5ad	0.17738982
12	0x3e874a58	0.26423907
13	0x3e91a0d1	0.28443006
14	0x3e14e3b2	0.14539984
15	0x3e016e9f	0.12639855
16	0x3e135b92	0.143904
17	0x3eda0e9d	0.42589274
18	0xbe63a4c1	-0.22230817
19	0xbdd55955	-0.10417429
20	0xbeb36e06	-0.3504488
21	0xbe3fb019	-0.1871952
22	0xba09b6ee	-0.0005253394
23	0x3ed1284c	0.40851057
24	0xbea5a7da	-0.32354623
25	0x3ee989a0	0.45612812
26	0x3ec3d8e5	0.38251415
27	0xbde1a4c0	-0.11017752
28	0x3eabe0ef	0.33570048
29	0xbe1939f5	-0.14963515
30	0x3e08050d	0.13283177
31	0xbe5b9585	-0.21443756
32	0xbd979896	-0.0740215
33	0xbea11a46	-0.31465358
34	0xbe3f7c37	-0.18699728
35	0x3eb02280	0.3440132
36	0x3d565bd6	0.052333675
37	0x3d3cbeec	0.046080515
38	0xbcc14c6b	-0.02359601
39	0x3ea91ba8	0.33028913
40	0xbd9dfafd	-0.07713888
41	0xbe42a7a2	-0.1900926
42	0xbe43f855	-0.191377
43	0xbe5f1869	-0.21786655
44	0x3f00f5a3	0.5037481
45	0xbe62ec49	-0.22160448
46	0x3d61e975	0.055154283
47	0xbe1eec5d	-0.15519853
48	0x3eb573ed	0.35440007
49	0x3e68bda5	0.22728594
50	0xbe65b226	-0.2243124
51	0x3ef3523e	0.47523683
52	0xbeb5fda5	-0.35545078
53	0x3dbf9d54	0.0935618
54	0xbdf458ad	-0.11930976
55	0xbd57e08e	-0.052704386
56	0x3e9092db	0.28237042
57	0x3ee53c3a	0.44772512
58	0x3dbbf717	0.09177988
59	0xbe342702	-0.17593005
60	0x3ebaeb21	0.36507514
61	0x3e62f6ee	0.22164509
62	0x3be96892	0.0071230615
63	0x3d57941c	0.052631482
64	0xbdca7927	-0.09886389
65	0x3eb9a0f0	0.36255598
66	0xbd0e672a	-0.034766354
67	0x3d993995	0.07481686
68	0xbe994d08	-0.29941583
69	0x3952aee2	0.0002009231
70	0x3eecb36c	0.46230638
71	0x3cd7cb1d	0.02634197
72	0x3e7ef08c	0.24896449
73	0x3e250da9	0.16118492
74	0xbde05bd1	-0.109550126
75	0x3d82c27b	0.063847505
76	0xbe1c1486	-0.15242204
77	0x3ec39437	0.38199016
78	0x3e647f6e	0.22314236
79	0x3e7ed9a2	0.24887708
80	0x3f02f320	0.5115223
81	0xbe72a01d	-0.23693891
82	0x3d66c882	0.056343563
83	0x3e84dd05	0.25949875
84	0xbddec61a	-0.108776286
85	0x3e4f2f03	0.20232777
86	0xbe743349	-0.23847689
87	0x3e504fc0	0.20342922
88	0x3efac669	0.489795
89	0xbe04069a	-0.12893143
90	0x3ea6cf63	0.32580099
91	0x3e2033a7	0.15644704
92	0xbe06e8a2	-0.1317468
93	0x3ef21f8d	0.47289696
94	0xbe4b077d	-0.19827075
95	0xbe21d9ab	-0.1580569
96	0xbe042cda	-0.12907735
97	0xbd777622	-0.060415395
98	0x3d2aaf6b	0.041671198
99	0xbc24efc9	-0.010066935
100	0xbe94d45b	-0.29068264
101	0xbd667289	-0.056261573
102	0x3ed5088a	0.41608077
103	0x3eb9ec6f	0.36313197
104	0x3e4d9ab4	0.20078546
105	0x3e1d89b4	0.15384561
106	0x3e1eb37d	0.15498157
107	0xbe491a35	-0.19638903
108	0x3e16ad98	0.14714658
109	0xbe49b8a5	-0.19699343
110	0xbdc5b8d8	-0.09654397
111	0x3dde10c9	0.10843045
112	0x3ebdd653	0.3707758
113	0x3d030865	0.031990428
114	0xbe3eb7a7	-0.18624745
115	0x3da26bed	0.079307415
116	0xbed0ba6b	-0.40767226
117	0xbd5c9e00	-0.053861618
118	0x3d83f87d	0.0644388
119	0x3c954a3d	0.018223876
120	0x3d20ef5c	0.03929077
121	0x3ecc11d1	0.39857343
122	0xbe3ee856	-0.18643317
123	0xbe78089a	-0.24222031
124	0x3ec406d9	0.38286474
125	0x3dfdb4d3	0.12388005
126	0xbd949afd	-0.07256124
127	0x3e1c421c	0.15259594
128	0x3ec48f7b	0.38390717
129	0xbe0edc69	-0.13951267
130	0x3daf5a89	0.0856219
131	0x3e68a231	0.22718121
132	0x3e81e9f3	0.25373802
133	0xbc096d84	-0.008387927
134	0x3e2f10a0	0.17096186
135	0xbdb47c6f	-0.08812796
136	0xbe70063b	-0.23439877
137	0x3ea09ca6	0.31369513
138	0x3e80d0b0	0.25159216
139	0x3e12de66	0.14342651
140	0x3e5a6d5f	0.21330784
141	0x3d068ed5	0.03285106
142	0xbe41564b	-0.18880574
143	0x3e254050	0.16137815
144	0xbcef3621	-0.029200615
145	0xbe1dca2b	-0.15409152
146	0x3e4c32ba	0.19941226
147	0x3e07650f	0.13222145
148	0xb9ffc0c2	-0.00048781006
149	0xbe7a788d	-0.24460049
150	0x3d079195	0.033097822
151	0xbe390044	-0.18066508
152	0x3ea24496	0.31692952
153	0xbe36d3d7	-0.17854248
154	0x3ea741f9	0.3266752
155	0x3e35c836	0.17752156
156	0xbe5019b6	-0.20322308
157	0x3e96ab56	0.29427594
158	0xbeb496b2	-0.3527122
159	0x3d17618b	0.03695826
160	0xbe577662	-0.21041253
161	0xbe5be81e	-0.21475264
162	0xbd078423	-0.033085
163	0x3c2f116b	0.010685305
164	0x3e266c72	0.16252306
165	0xbe8add9f	-0.27122208
166	0x3e8c9081	0.27453998
167	0x3ea3f3e8	0.32022023
168	0x3eb51196	0.3536498
169	0x3ddc8d68	0.107691586
170	0x3cc94c43	0.024572497
171	0xbe2b1dbc	-0.16710562
172	0x3ec54b3d	0.38533965
173	0xbc0a2f75	-0.008434166
174	0x3cf3d8b1	0.029766412
175	0xbdd2c1e0	-0.10290885
176	0x3e025d56	0.12730917
177	0xbe451d87	-0.19249545
178	0x3eabc44f	0.3354821
179	0xbd449211	-0.047990862
180	0x3ef2cc9f	0.47421739
181	0xbda7e472	-0.08197869
182	0xbe361ae5	-0.17783697
183	0x3c9995e9	0.01874824
184	0x3e3318cb	0.17489927
185	0xbd355853	-0.044273686
186	0xbe9e1943	-0.30878648
187	0x3e7ad0f9	0.24493779
188	0x3eda418c	0.42628133
189	0x3e579b9f	0.21055458
190	0x3f00b2cb	0.50272816
191	0x3db88676	0.090100214
192	0xbd4fbbe2	-0.05071629
193	0xbe1dd78b	-0.15414254
194	0xbe5f6aff	-0.2181816
195	0xbe4a2dbd	-0.1974401
196	0xbcd1a037	-0.025589092
197	0x3e975ac5	0.2956144
198	0xbe892685	-0.267872
199	0xbdd4250d	-0.103586294
200	0x3e5895a0	0.21150827
201	0xbe285673	-0.16439228
202	0xbd225825	-0.039634842
203	0x3efd8cb1	0.49521402
204	0x3eb919fe	0.36152643
205	0x3ea87000	0.3289795
206	0x3d0dc037	0.03460714
207	0xbd3b43b4	-0.045718864
208	0x3ec7ae3d	0.3900012
209	0xbd6ed8ec	-0.05831234
210	0x3d9aa3a0	0.0755074
211	0x3ed74e1a	0.42051774
212	0x3e1a2109	0.15051664
213	0xbe083304	-0.13300711
214	0x3e902cb5	0.2815911
215	0x3d9babef	0.07601153
216	0x3e81f035	0.25378576
217	0xbe5cc779	-0.21560468
218	0x3d871e90	0.06597626
219	0x3e84d94e	0.2594704
220	0xbbc73037	-0.0060787457
221	0xbe713c69	-0.23558201
222	0x3e80e27e	0.251728
223	0x3dc8d5c9	0.09806401
224	0x3e4b2c5c	0.1984114
225	0x3e9d5841	0.30731395
226	0x3e9d8a62	0.3076964
227	0x3e8365a0	0.2566347
228	0x3d8c38af	0.06846749
229	0xbe494616	-0.19655642
230	0x3e6b2cde	0.22966334
231	0x3d9b9b24	0.0759795
232	0x3eb11c22	0.34591776
233	0x3e0c5b01	0.1370659
234	0xbd0db1ff	-0.03459358
235	0x3d6a1ae2	0.057154544
236	0x3e84f056	0.25964612
237	0xbe566910	-0.20938516
238	0xbdf67dfb	-0.120357476
239	0x3e09dded	0.13463564
240	0xbe4d3e04	-0.20043188
241	0xba910d2b	-0.0011066546
242	0x3e4ecf01	0.20196153
243	0xbc5eef6d	-0.013606888
244	0x3e552da2	0.20818189
245	0x3c53731a	0.01290586
246	0x3df5f1d9	0.120090194
247	0x3d699309	0.05702499
248	0x3c4c1766	0.0124567505
249	0x3e02e154	0.12781268
250	0x3e971910	0.2951131
251	0xbe8bbabd	-0.27290908
252	0x3c7444f6	0.01490902
253	0xbea60319	-0.32424238
254	0x3befd6e1	0.0073193167
255	0x3eb05934	0.34443057

net.2.weight f4 [256, 256]
0	0x3ca203b7	0.019777162
1	0x3de8402c	0.11340365
2	0x3df29e67	0.11846619
3	0x3d0645ba	0.03278134
4	0x3dcf87fa	0.10133357
5	0xbe859545	-0.26090446
6	0x3edd1243	0.43177995
7	0xbe23a9da	-0.15982762
8	0xbce33255	-0.027733961
9	0x3da7e669	0.08198244
10	0x3de4f4a8	0.11179477
11	0x3e0ecc71	0.13945176
12	0x3d8f8017	0.07006853
13	0x3d37fa14	0.044916227
14	0x3d3ab079	0.045578454
15	0x3ca986b9	0.020694124
16	0x3e8e37a7	0.27776834
17	0x3da03e7e	0.078244194
18	0xbea2e1ff	-0.31813046
19	0x3d9892fc	0.0744991
20	0xbf00c2fb	-0.50297517
21	0x3ea8e49b	0.32986912
22	0xbe5dd093	-0.21661596
23	0x3dc66c67	0.09688645
24	0xbe37ce48	-0.17949784
25	0x3d9aec16	0.07564561
26	0x3d7b3fb2	0.06134004
27	0xbd4c2c1d	-0.049846757
28	0x3c9e5c36	0.019331079
29	0x3ca2352c	0.019800745
30	0x3d491793	0.049094748
31	0xbeaabf15	-0.3334891
32	0x3d05bb48	0.03264931
33	0xbf359e4e	-0.7094468
34	0xbb2a722f	-0.0026008
35	0xbe6c8b81	-0.23100092
36	0xbe0f1e09	-0.13976301
37	0xbe8c3fff	-0.27392575
38	0xbf150850	-0.5821581
39	0x3dab2fc0	0.08358717
40	0xbe158d46	-0.14604673
41	0xbe876c05	-0.264496
42	0x3d8f955a	0.070109084
43	0xbd13638f	-0.03598362
44	0x3db44c2f	0.08803593
45	0xbebbefcb	-0.36706385
46	0x3e31f7af	0.1737964
47	0x3e04f07c	0.12982363
48	0x3d9933e9	0.07480604
49	0xbe35a7e1	-0.17739822
50	0xbeca1fc1	-0.3947735
51	0x3cf7285f	0.030170618
52	0xbe69a5ea	-0.22817197
53	0xbe5d7cdb	-0.2162966
54	0x3e61d092	0.2205222
55	0x3e3823be	0.17982385
56	0x3e14da81	0.14536478
57	0x3d4db0f3	0.05021758
58	0x3dfa3926	0.122179314
59	0xbe7d2ab0	-0.24723315
60	0xbdd82cc1	-0.10555411
61	0xbcbe7913	-0.023251092
62	0xbe2d2c7c	-0.169115
63	0xbeb2c00a	-0.3491214
64	0xbeda3e33	-0.4262558
65	0x3d396db0	0.04527062
66	0xbed8f073	-0.42370948
67	0x3e68dfe3	0.22741656
68	0x3d7d79fc	0.06188391
69	0xbecd4c59	-0.4009731
70	0xbc8c2407	-0.017107023
71	0x3da3acce	0.07991944
72	0xbee14503	-0.43997964
73	0x3e43b5bd	0.19112296
74	0x3d5fe95a	0.0546659
75	0x3e1a9994	0.15097648
76	0xbe04f2ff	-0.1298332
77	0x3d853ec9	0.06506116
78	0x3e0ec73a	0.13943186
79	0x3cc15c20	0.023603499
80	0x3d9a5420	0.07535577
81	0xbe453015	-0.19256623
82	0x3d8f0034	0.069824606
83	0xbc8a786f	-0.01690313
84	0xbe9d47a6	-0.30718726
85	0xbe9df642	-0.30851942
86	0x3e543ffb	0.20727532
87	0xbec266e6	-0.3796913
88	0xbcf91e10	-0.030409843
89	0x3e83c6ab	0.2573751
90	0x3e2ccbd0	0.16874623
91	0x3e82b94d	0.25531998
92	0xbe53911f	-0.20660828
93	0x3da85509	0.08219344
94	0x3cca5f25	0.024703572
95	0x3d3b5bd6	0.04574188
96	0xbe196713	-0.14980726
97	0xbe44dcf6	-0.19224915
98	0x3df34ea8	0.11880237
99	0x3deda1c9	0.11603124
100	0xbeb18390	-0.34670687
101	0x3d92ca5a	0.07167502
102	0x3c2f4447	0.010697431
103	0xbb1ad253	-0.0023623898
104	0x3dbaae02	0.091152206
105	0x3d2607fb	0.040534955
106	0xbc01771e	-0.007901935
107	0xbeb53abf	-0.35396382
108	0x3e44f3cc	0.19233626
109	0xbe41eb6a	-0.1893746
110	0xbe8e6bde	-0.2781667
111	0xbc6fc3de	-0.014634101
112	0x3c0e9f34	0.008704949
113	0x3e38bc91	0.18040682
114	0xbe879729	-0.26482514
115	0xbe160e83	-0.14653973
116	0xbe235849	-0.15951647
117	0xbe9d0758	-0.30669665
118	0x3d204638	0.039129466
119	0x3e809311	0.25112203
120	0x3dc9d8c9	0.098558016
121	0x3cfde85f	0.030994592
122	0x3c086030	0.008323714
123	0xbf169a32	-0.58829033
124	0x3cb80075	0.022461155
125	0xbe826fb8	-0.2547586
126	0xbe283f4b	-0.16430394
127	0x3d75dd88	0.06002572
128	0xbded7f4c	-0.115965456
129	0xbf0b63cf	-0.5444917
130	0x3e043051	0.12909056
131	0x3de4722a	0.111545876
132	0x3de68624	0.11256054
133	0xbe7f3cd7	-0.24925552
134	0x3dd234d3	0.10263982
135	0xbeb63d6d	-0.3559374
136	0xbf44eda9	-0.7692514
137	0x3e232192	0.15930775
138	0x3d7a1a40	0.06106019
139	0x3cd9fbbd	0.026609296
140	0x3e4915d6	0.19637236
141	0xbe979f0d	-0.29613534
142	0xbe72ea11	-0.23722102
143	0xbe6065a6	-0.21913776
144	0x3c74085d	0.014894572
145	0xbe67100c	-0.22564715
146	0x3e294e50	0.1653378
147	0x3dc083ae	0.09400116
148	0xbd93c61d	-0.072155215
149	0x3d80aae4	0.06282595
150	0x3e019f0e	0.12658331
151	0xbea5f13b	-0.32410607
152	0xbb822340	-0.0039714873
153	0x3da2dd5e	0.07952379
154	0x3df9c910	0.12196553
155	0x3da9534b	0.0826784
156	0xbf0c157c	-0.5472028
157	0xbe9b917f	-0.30384442
158	0x3e9b2303	0.3030015
159	0xbe35a6b4	-0.17739373
160	0x3e1a83e1	0.1508937
161	0xbf2a45da	-0.66512835
162	0xbe4646dc	-0.19362968
163	0x3dccf3f8	0.10007471
164	0xbe82c1a8	-0.25538373
165	0xbe254e70	-0.16143203
166	0x3e0fd5d9	0.1404642
167	0xbc8f4683	-0.017489677
168	0x3a7f0628	0.00097283954
169	0x3d237da8	0.039914757
170	0x3dd8a80f	0.1057893
171	0xbd5b54ee	-0.053547792
172	0x3dbbc1fd	0.0916786
173	0x3d356f27	0.044295456
174	0x3c3701a8	0.0111698285
175	0xbe9e083c	-0.30865657
176	0xbe9ce8d3	-0.3064638
177	0xbe8836ab	-0.26604208
178	0x3c92b818	0.017910048
179	0xbebab882	-0.36468893
180	0x3b47b549	0.0030473045
181	0x3c9bb3d0	0.01900664
182	0xbed73239	-0.42030504
183	0x3e36e026	0.17858943
184	0x3ce5e016	0.028060954
185	0x3d7507ba	0.05982182
186	0xbf212696	-0.629495
187	0x3e7d142e	0.24714729
188	0x3d806c38	0.06270641
189	0xbc4b16ce	-0.012395574
190	0xbb4451a8	-0.0029955897
191	0x3e974520	0.29544926
192	0x3e902a66	0.28157347
193	0x3e14a91c	0.14517635
194	0xbea89a87	-0.32930395
195	0x3e84662c	0.258592
196	0x3dc64344	0.09680799
197	0x3da861e5	0.08221797
198	0xbf37de86	-0.7182392
199	0xbe256a43	-0.16153817
200	0x3d0bd674	0.034140065
201	0xbe4f6948	-0.20255005
202	0x3e5412df	0.20710324
203	0x3dbbb4bc	0.09165332
204	0x3c48ed43	0.012263599
205	0x3e4799a7	0.19492207
206	0xbebb3b3e	-0.36568636
207	0xbe9e315d	-0.30897036
208	0x3dae7a7b	0.08519455
209	0x3ed9e95c	0.42560852
210	0x3cb0a439	0.021562682
211	0x3ce23389	0.027612465
212	0x3d8d5166	0.06900291
213	0xbe90f503	-0.2831193
214	0x3db3e0d8	0.0878312
215	0x3ea5f734	0.32415164
216	0x3d25f41d	0.040516008
217	0xbed9d462	-0.42544848
218	0x3de0b5c2	0.109721676
219	0x3df0f82a	0.117660835
220	0x3dc4b245	0.09604315
221	0xbf0a5cc9	-0.5404783
222	0x3e604531	0.21901394
223	0x3ead9649	0.3390372
224	0x3d37fce9	0.04491893
225	0x3d6e12ba	0.058123328
226	0x3d901bbc	0.0703654
227	0x3ca4a761	0.020099344
228	0x3e70b7f1	0.23507668
229	0xbe4f74cc	-0.20259398
230	0x3e3ae35c	0.18250793
231	0x3d8f6b93	0.0700294
232	0x3bac8012	0.0052642906
233	0xbe1c3d12	-0.15257671
234	0x3dac6fe2	0.084197775
235	0xbe806a4f	-0.25081107
236	0xbe586d83	-0.21135525
237	0xbf2b7129	-0.66969544
238	0x3e9f2686	0.3108408
239	0x3da0c6d2	0.07850422
240	0xbf379257	-0.7170767
241	0x3caf0f4b	0.021369597
242	0x3d9a15e4	0.075237066
243	0x3e1c4e04	0.15264136
244	0x3dc09e1a	0.094051555
245	0x3e960bb7	0.29305813
246	0x3e097680	0.1342411
247	0x3dca2bfc	0.098716706
248	0x3dd690a6	0.10476808
249	0x3e1304b1	0.14357258
250	0x3daa4eb0	0.0831579
251	0x3b2ec485	0.0026667428
252	0x3c869c5b	0.016431978
253	0xbeac87d1	-0.3369737
254	0xbe0c3c77	-0.1369494
255	0xbb3c77e1	-0.0028757977

net.2.bias f4 [256]
0	0x3dc40f38	0.09573215
1	0x3d847799	0.06468124
2	0xbca3c467	-0.019991113
3	0x3cd5d1e2	0.026101056
4	0xbd206abc	-0.03916429
5	0x3d2ef571	0.04271454
6	0xbd53b064	-0.05168189
7	0x3cf25dfe	0.029585835
8	0x3d8598d7	0.065232925
9	0x3cff1c93	0.031141555
10	0xba2155bd	-0.00061544386
11	0x3c5a5d85	0.013327961
12	0x3db5edd3	0.08883252
13	0x3e0e8592	0.1391814
14	0x3dcee2b2	0.101018324
15	0x3c57196d	0.013128621
16	0x3d47a247	0.048738744
17	0x3dc7ecf7	0.09761994
18	0xbc5e395d	-0.013563481
19	0x3dde52a6	0.10855608
20	0x3dcd6a8f	0.1003009
21	0x3da0f63f	0.07859468
22	0xbd4f0fdc	-0.050552234
23	0x3da68cc1	0.081323154
24	0xbbad992a	-0.0052977996
25	0x3d0d3de5	0.034482855
26	0x3dfadd66	0.1224926
27	0xbd44b3d3	-0.048023056
28	0xba9a9104	-0.0011792486
29	0x3d8a0a80	0.06740284
30	0x3d87e15c	0.06634781
31	0x3dbc23ac	0.09186491
32	0x3cd0a41f	0.025468884
33	0x3d9308a4	0.071793824
34	0x3c6ca14c	0.014442753
35	0x3de3c8e0	0.11122298
36	0x3d9bf01e	0.07614158
37	0x3daff25f	0.085911505
38	0xb9bd1381	-0.0003606342
39	0x3ca38b61	0.019963922
40	0x3d018ef6	0.03163048
41	0x3cd595ce	0.026072409
42	0xba2b9468	-0.00065452466
43	0x3d80af87	0.06283479
44	0xbc92b7b0	-0.017909855
45	0xbdae4735	-0.085096754
46	0x3d90d932	0.07072677
47	0x3c09cc36	0.008410504
48	0x3ce643d8	0.028108522
49	0x3c87c29c	0.01657229
50	0xbca51650	-0.020152241
51	0x3e0c7fac	0.13720578
52	0x3a081ea7	0.0005192556
53	0x3cd70a88	0.026250139
54	0x3db2c85b	0.08729621
55	0xbb197cf3	-0.0023420423
56	0x3d83cb77	0.06435292
57	0x3bb57c12	0.005538472
58	0x3d99dd3b	0.075128995
59	0x3d3a7be0	0.045528293
60	0x3de1f482	0.11032964
61	0xbd23d4bd	-0.039997805
62	0x3dc64182	0.096804634
63	0x3de0aa4f	0.10969984
64	0x3c071de5	0.0082468735
65	0xbd0af17f	-0.033921715
66	0xbc248623	-0.010041746
67	0xbcce5a80	-0.025189638
68	0xbd859e75	-0.06524364
69	0x3d01f477	0.03172728
70	0x3cade881	0.02122903
71	0xbc60523c	-0.013691481
72	0xbcf50e7a	-0.02991413
73	0xbc005598	-0.007832907
74	0xbb95bda2	-0.004569725
75	0x3ca06f91	0.019584449
76	0xbd634460	-0.05548513
77	0x3d8d1d37	0.06890338
78	0x3dd432e0	0.10361266
79	0xbd804dfa	-0.06264873
80	0x3d5f52e3	0.054522406
81	0x3d841c3c	0.06450698
82	0x3d960a37	0.07326167
83	0x3cc5764c	0.02410426
84	0x3d403907	0.046929386
85	0x3d13786e	0.036003523
86	0x3d90b58a	0.07065876
87	0x3cca65cf	0.02470675
88	0x3d064abf	0.032786127
89	0xbce1726c	-0.02752038
90	0x3d600343	0.05469061
91	0x3d9d05d1	0.07667125
92	0x3c4c8ea5	0.012485181
93	0xbc8351a5	-0.016030142
94	0xbc12e6b9	-0.008966141
95	0x3bddb0f0	0.0067654774
96	0x3d920948	0.071306765
97	0x3de8936c	0.113562435
98	0x3c6cc774	0.01445185
99	0x3dc38a4f	0.09547865
100	0x3db0212d	0.08600078
101	0xbc07cb94	-0.008288283
102	0x3d5e069a	0.054205514
103	0x3d9c2b91	0.07625497
104	0x3ced339e	0.028955277
105	0xbd68f4e1	-0.05687416
106	0x3ca8f78a	0.020625848
107	0x3d175c64	0.036953345
108	0xbc851835	-0.016246894
109	0x3c2ca0e0	0.010536402
110	0x3d991f0e	0.07476626
111	0xbd49aa8c	-0.04923491
112	0x3d3df28a	0.04637388
113	0xbdc87175	-0.09787265
114	0x3de6017b	0.11230751
115	0x3d1fdbb9	0.039027903
116	0x3d16b376	0.03679224
117	0x3db44243	0.08801701
118	0x3dfcb0cc	0.12338409
119	0x3d000519	0.03125486
120	0xbcc86e72	-0.024466727
121	0x3d2695ab	0.04067008
122	0xbd2bd2ca	-0.04194907
123	0x3c004243	0.007828298
124	0x3cc198e6	0.023632478
125	0xbd7f21d6	-0.062288128
126	0x3d25d003	0.04048158
127	0x3da503a7	0.08057337
128	0x3d48d89b	0.049034696
129	0xbc2fcc1b	-0.010729815
130	0xbd7b3c30	-0.061336696
131	0x3d469e0c	0.04849057
132	0x3d26f8ad	0.0407645
133	0x3d4c401b	0.049865823
134	0x3dd0add2	0.101894036
135	0x3d4e8a95	0.05042513
136	0x3dfc44b2	0.1231779
137	0xbb236047	-0.0024929212
138	0x3c9812f1	0.01856372
139	0x3a640173	0.0008697726
140	0xbc615a14	-0.013754386
141	0x3dff29ac	0.1245912
142	0x3d3076cd	0.043082047
143	0x3d4ba5df	0.049718734
144	0x3da3988e	0.07988082
145	0x3d553af5	0.05205818
146	0xbccafe8a	-0.024779577
147	0x3d2edd4b	0.04269151
148	0x3b62949b	0.003457344
149	0x3cc41870	0.023937434
150	0x3da0a559	0.078440376
151	0x3df29d22	0.11846377
152	0x3cc4332b	0.02395018
153	0x3c47d69b	0.012197162
154	0x3c4f9edf	0.012672155
155	0x3dac3dcc	0.08410224
156	0xbd3ffb5a	-0.046870567
157	0xbbeac88c	-0.0071650203
158	0xba05d0ca	-0.00051046594
159	0x3d1915cc	0.037374303
160	0x3da805d6	0.08204238
161	0x3d9eac2f	0.07747685
162	0xbc325ea9	-0.010886827
163	0x3e06f0da	0.13177815
164	0x3d039d68	0.032132536
165	0x3caf8b8d	0.021428848
166	0x3df3253d	0.11872337
167	0x3d2e1183	0.04249717
168	0x3c092543	0.0083707
169	0xbb14f4ca	-0.0022728913
170	0x3df35cc2	0.118829265
171	0x3b92c96c	0.0044795778
172	0x3d907b70	0.07054794
173	0x3d9c7816	0.07640092
174	0x3dbf191d	0.09330962
175	0xbd3c3752	-0.045951195
176	0xbb9a3859	-0.004706424
177	0x3df65fc9	0.12029988
178	0x3c044f51	0.008075551
179	0x3dbea995	0.09309689
180	0xbd7767fc	-0.0604019
181	0x3b930b23	0.0044874116
182	0xbc1431a2	-0.0090450365
183	0xbc3ea20c	-0.011635315
184	0x3d9a7308	0.07541472
185	0xbcea360f	-0.02859023
186	0xbda93a6b	-0.082630955
187	0x3d8031d1	0.06259502
188	0x3dd83e6d	0.10558782
189	0xbd3b9db3	-0.04580469
190	0x3da2cd2c	0.0794929
191	0xbd845926	-0.06462316
192	0x3cc44823	0.023960179
193	0x3caf6fda	0.02141564
194	0x3d89d1ea	0.06729491
195	0x3e0ff71c	0.14059108
196	0xbd3e84c4	-0.046513334
197	0xbdad6dab	-0.08468183
198	0x3bd36b2a	0.006451984
199	0xbd9517b5	-0.072799124
200	0x3dca0a4a	0.09865244
201	0x3d8a18ce	0.06743012
202	0x3d912b54	0.07088342
203	0x3dc1d016	0.09463517
204	0xbd37abb4	-0.044841483
205	0x3d38ee5d	0.045149196
206	0x3d13c061	0.03607214
207	0x3c3ef2b7	0.011654547
208	0xbc32e0a8	-0.01091782
209	0x3d879fe5	0.06622294
210	0x3d32c860	0.043648124
211	0x3d3e83cb	0.046512406
212	0xbd85f6b4	-0.065411955
213	0xbd7d574c	-0.06185083
214	0x3d9589f4	0.07301703
215	0xbbb1ef99	-0.0054301736
216	0x3db9d027	0.09072905
217	0xbcde07b1	-0.027103277
218	0xbcc354fd	-0.023844237
219	0x39d824a5	0.00041226033
220	0x3d7f83ff	0.06238174
221	0xbca7efb5	-0.020500043
222	0x3d5a2555	0.05325826
223	0x3d4d29f1	0.050088827
224	0xbc448b7e	-0.011996148
225	0x3daa9979	0.08330054
226	0x3d7324f2	0.059361406
227	0x3d8bcda6	0.06826334
228	0xbd7a9839	-0.061180327
229	0x3df5f8ce	0.12010346
230	0x3d8d586a	0.06901629
231	0x3d410aff	0.047129627
232	0x3d91edaa	0.07125409
233	0x3d51fe9e	0.051268212
234	0x3d213779	0.039359543
235	0x3dc95d61	0.09832264
236	0x3cb82b83	0.022481686
237	0x3ca79073	0.020454621
238	0xbc1dad50	-0.00962384
239	0x3d7152d2	0.058916874
240	0x3da7fc41	0.082024105
241	0xbcf89cb1	-0.030348154
242	0x3d37d031	0.04487628
243	0x3c85a100	0.016312122
244	0xbb8c2e20	-0.0042779595
245	0x3d0b1637	0.033956733
246	0x3e0fc5a7	0.14040242
247	0xbd6baafc	-0.05753611
248	0x3d247654	0.04015191
249	0x3d8dfd3c	0.06933066
250	0x3d2367f7	0.03989407
251	0x3c4ed672	0.01262437
252	0x3dd1735d	0.10227082
253	0x3d5c1e82	0.053740032
254	0xbcfdd6bd	-0.030986184
255	0x3e149c1e	0.14512679

net.4.weight f4 [1, 256]
0	0x3e8994b1	0.26871255
1	0x3e94b862	0.29046923
2	0x3e80bd9e	0.25144666
3	0x3e6f031c	0.2334103
4	0x3d3cff03	0.046141636
5	0xbe8287a9	-0.25494125
6	0x3e83ec30	0.25766134
7	0xbe861650	-0.26188898
8	0xbe8f2a2c	-0.27961862
9	0xbe607d6e	-0.21922848
10	0x3c46e0e1	0.012138576
11	0xbeab8058	-0.33496356
12	0x3e81802e	0.25293106
13	0xbe80cbcf	-0.25155494
14	0xbe9dfb39	-0.3085573
15	0xbe87ab2e	-0.26497787
16	0x3e5ce9dd	0.21573587
17	0xbe8c355c	-0.2738446
18	0x3e931e4a	0.28734046
19	0xbe9493d3	-0.2901903
20	0xbe8a6675	-0.27031294
21	0x3e7de3dc	0.24793953
22	0x3ee21332	0.4415527
23	0xbe7541b8	-0.23950851
24	0x3e827946	0.2548315
25	0x3e696d18	0.22795522
26	0xbe7e5043	-0.24835305
27	0xbea8e8c7	-0.32990095
28	0xbe674e87	-0.2258855
29	0xbe8a2cf0	-0.2698741
30	0x3e9aeed8	0.30260348
31	0xbe9157e4	-0.28387368
32	0xbe84fbd6	-0.25973386
33	0x3e895aa2	0.2682696
34	0xbe8f3667	-0.27971193
35	0xbe83f25d	-0.25770846
36	0x3e6e59b2	0.23276404
37	0xbe55481e	-0.20828292
38	0xbe7b108c	-0.24518031
39	0x3b36d214	0.0027896212
40	0x3e8100e8	0.25196004
41	0xbe96daa8	-0.29463696
42	0x3e79355d	0.24336763
43	0x3e6c9c64	0.23106533
44	0x3e999482	0.29996115
45	0xbe96878d	-0.29400292
46	0x3e7dbda2	0.2477937
47	0xbeb011be	-0.34388536
48	0x3e87e32b	0.26540503
49	0xbe7f3db0	-0.24925876
50	0x3e8c38fa	0.2738722
51	0xbe8298b5	-0.2550713
52	0x3e97ae9b	0.296254
53	0x3e6701da	0.225593
54	0x3e80cf09	0.25157955
55	0x3e7805c4	0.2422095
56	0xbe9437fb	-0.2894896
57	0x3e7f9292	0.24958256
58	0xbe827ece	-0.2548737
59	0x3e8e7049	0.27820042
60	0xbe6b502c	-0.22979802
61	0xbeb043e5	-0.344268
62	0x3e600fdf	0.21881054
63	0xbe845b32	-0.25850827
64	0x3e8d5706	0.27605456
65	0x3e7ff4d3	0.24995737
66	0x3e89ac32	0.26889187
67	0x3eadeaec	0.33968294
68	0xbeb33bbe	-0.35006517
69	0x3d5678e3	0.05236138
70	0x3e8729c7	0.2639906
71	0x3d5a0d91	0.053235594
72	0x3e93c1dc	0.2885884
73	0xbea39744	-0.31951344
74	0x3e97a4fa	0.29618055
75	0xbe945c13	-0.28976497
76	0xbba3b090	-0.004995413
77	0x3e728b89	0.23686041
78	0xbe92ac72	-0.2864719
79	0x3d3933bb	0.04521535
80	0x3e5dc9ec	0.21659058
81	0xbe8fdc09	-0.2809756
82	0x3e53bb35	0.20676883
83	0xbe45663c	-0.1927728
84	0xbe8ed7f2	-0.27899128
85	0x3e5300b3	0.20605735
86	0x3e687eca	0.22704616
87	0x3e8c0f00	0.27355194
88	0x3e7827fb	0.24234001
89	0x3c0dcffd	0.008655545
90	0xbe84449b	-0.25833592
91	0x3e8c7686	0.27434176
92	0xbe97e3fc	-0.29666126
93	0x3e982499	0.29715422
94	0x3e51f1a3	0.20502333
95	0xbeb8b567	-0.360759
96	0x3e84fa11	0.25972036
97	0xbe78239e	-0.24232337
98	0x3e67123e	0.22565553
99	0xbe80d59e	-0.25162977
100	0x3e4ea51b	0.2018017
101	0x3e893279	0.2679632
102	0x3e54904a	0.20758167
103	0xbe95d6d2	-0.29265457
104	0xbe739b6d	-0.23789759
105	0xbe8c6096	-0.2741744
106	0xbd5041a5	-0.050843854
107	0xbe977294	-0.29579604
108	0x3d0c778c	0.034293696
109	0x3e9a8993	0.30183086
110	0xbe8e63c3	-0.27810487
111	0x3f0022fa	0.5005337
112	0xbe908dc3	-0.28233156
113	0xbea9b315	-0.3314444
114	0xbe5a3acb	-0.2131149
115	0xbe80f1e7	-0.25184557
116	0xbe6bf317	-0.2304195
117	0xbe928cb0	-0.2862296
118	0xbe7b8afb	-0.24564736
119	0x3ea74221	0.3266764
120	0x3d637547	0.055531766
121	0x3e76c007	0.2409669
122	0xbc23458d	-0.009965313
123	0x3e78543b	0.24250881
124	0x3ec43d86	0.3832819
125	0xbeaccf77	-0.33752033
126	0xbe6e6113	-0.23279218
127	0x3e91f2a0	0.2850542
128	0x3e8a992d	0.2706999
129	0x3e841f2a	0.25805026
130	0x3cebf2c7	0.028802289
131	0xbe8f1796	-0.27947682
132	0x3ec9a2da	0.39382058
133	0x3e878963	0.26472005
134	0x3e8bd91a	0.27314073
135	0x3e71569a	0.23568192
136	0xbe958382	-0.29201895
137	0x3e6dac9e	0.2321038
138	0x3e63afa6	0.22234973
139	0xbe51d1ad	-0.20490141
140	0xbc658014	-0.014007587
141	0xbe4cc380	-0.19996452
142	0x3e6bf8df	0.23044156
143	0xbe9f0045	-0.31054893
144	0xbe83c066	-0.25732726
145	0xbe8eabea	-0.27865535
146	0x3e7f4749	0.24929537
147	0x3e88d207	0.26722738
148	0xbec1996b	-0.3781236
149	0x3e8e9e3f	0.27855107
150	0xbe9b9d7b	-0.30393586
151	0xbea26116	-0.31714696
152	0xbeaf8677	-0.34282276
153	0xbe852423	-0.26004133
154	0x3e700c6d	0.2344224
155	0xbe933622	-0.28752238
156	0xbeb36078	-0.35034537
157	0xbe738dc8	-0.23784554
158	0x3e8e58cc	0.27802122
159	0x3eadd94e	0.33954853
160	0xbe8fa0b3	-0.2805229
161	0x3e7b4eb8	0.24541748
162	0x3e8aa693	0.2708021
163	0xbe6ce85f	-0.23135518
164	0xbd1cb2bc	-0.038256392
165	0x3e94d91b	0.29071888
166	0xbe9abf59	-0.30224112
167	0x3e85ca9d	0.26131144
168	0xbea2db9b	-0.3180817
169	0x3e9ea7fb	0.30987534
170	0xbe868b78	-0.2627828
171	0x3e849452	0.2589441
172	0x3e647a7f	0.22312354
173	0xbe9db8a8	-0.30804944
174	0x3e7d2ddd	0.24724527
175	0xbe8fec0b	-0.28109774
176	0x3e76d4ba	0.24104586
177	0xbe7cd3c2	-0.24690154
178	0x3e85c508	0.26126885
179	0x3e83669b	0.2566422
180	0xbc162a90	-0.009165421
181	0x3e83516d	0.2564806
182	0x3eb672c6	0.3563444
183	0x3e9a6ea7	0.30162546
184	0xbecacd11	-0.39609578
185	0x3d3ca758	0.04605803
186	0xbe9b3871	-0.303165
187	0x3e69d476	0.22834954
188	0xbe8225a0	-0.2541933
189	0xbeaf018d	-0.3418087
190	0xbe942aa5	-0.28938785
191	0x3eba38ad	0.36371365
192	0x3e9895ce	0.29801792
193	0x3e6a2694	0.22866279
194	0xbe86f90a	-0.26361877
195	0xbe787907	-0.24264918
196	0xbeb64ef4	-0.3560711
197	0x3eb10773	0.34575996
198	0x3e834f50	0.25646448
199	0xbe9726f9	-0.2952192
200	0xbe6b76f8	-0.22994602
201	0x3e63e203	0.22254185
202	0x3e5e6fa5	0.21722277
203	0xbe653b09	-0.22385801
204	0xbeab91ec	-0.33509767
205	0x3e93ec36	0.28891152
206	0xbe8fb7f5	-0.28070036
207	0x3e808401	0.2510071
208	0x3e83e485	0.25760284
209	0xbe6bb4cb	-0.23018186
210	0x3e827f4a	0.2548774
211	0xbe833f05	-0.25634018
212	0x3d44c655	0.048040707
213	0x3d24adb6	0.040204726
214	0xbe6660d1	-0.2249787
215	0x3e8831d8	0.26600528
216	0x3e739ae6	0.23789558
217	0x3d756f10	0.05992037
218	0x3e8b20af	0.27173373
219	0x3e72b5b8	0.23702133
220	0x3e800c60	0.2500944
221	0xbeac5878	-0.33661246
222	0xbe93b5a1	-0.2884951
223	0x3e869b8e	0.26290554
224	0x3e716867	0.23574983
225	0x3e8c34cb	0.27384028
226	0xbe85b14c	-0.2611183
227	0x3e68a1ae	0.22717926
228	0xbe9cabfd	-0.30599967
229	0xbe77f0aa	-0.242129
230	0xbe93e585	-0.28886047
231	0xbea0a637	-0.31376812
232	0x3e8a8c26	0.2706005
233	0x3e7be68f	0.2459967
234	0x3e9009dc	0.28132522
235	0xbe91446a	-0.28372508
236	0xbe70a6e8	-0.2350117
237	0x3e70ddf9	0.23522176
238	0xbec136ab	-0.3773702
239	0x3e84bbf5	0.2592465
240	0xbe8cdae6	-0.27510756
241	0x3d6a0750	0.05713588
242	0x3e86422a	0.26222354
243	0xbe9bd1c1	-0.30433467
244	0xbb9fbb0d	-0.004874593
245	0x3e7c6c62	0.2465072
246	0xbe7d1402	-0.24714664
247	0x3eb7797b	0.3583487
248	0xbe695547	-0.22786437
249	0x3e7a04c0	0.24415874
250	0x3e89d7b4	0.2692238
251	0xbe8373a7	-0.25674173
252	0xbe858c29	-0.26083496
253	0xbe9c01cd	-0.30470124
254	0xbe966fc1	-0.29382136
255	0xbe8f5abd	-0.27998915
