archive/new/runs/phase3/pessimist.pt (torch, 343149 bytes, 5 tensors)

eps_model.0.weight f4 [256, 73]
00000000: 379a 1f3c 63ec 543d 1b2f 9dbd 63e7 89bd
00000010: 1df3 8fbd 735f 0e3d e9b9 bc3b 6bd6 023d
00000020: f8ab 5b3c ecb1 4f3d 57d0 ccbc 14f0 37bc
00000030: 063f 08be 912f 84bd e6b4 e3bc 1921 cfbb
00000040: c4a1 843c b8a3 673d 4567 a4bd 551c 96bc
00000050: 290f 603d dc62 a63d 7db1 683c 474e 873d
00000060: 0a29 10bd 85af 293d 5c8e bd3d 5d5b e2bd
00000070: aaf1 9abd 5ca2 e0bc b134 69bd 1e33 c33d
00000080: 6051 89bd acb5 53bd f6fc 7dbd 9980 05be
00000090: 46c0 7cbd 0bd7 b13d 21df 2f3d 0bb8 b03d
000000a0: 7a7a 0b3c 445e b6bd 47f3 27bb 92d9 f7bd
000000b0: 812b 9fbd 886b b8bd 7154 903d 1177 603d
000000c0: be19 22bd 8947 23bc 1800 8c3d 43af 013e
000000d0: d604 0f3d 4c73 a43c 811a ba3d 96bf 4abd
000000e0: 6437 083d 79b0 b5bd e278 68bd 31ea 9dbd
000000f0: d45b 473d 9475 633d 9187 8bbd e87f d33c
00000100: 2ad2 973d a770 ddb8 4921 38bc ec78 7d3c
00000110: 5d8b 723d 3ae0 dc3d 45ea c8bd 6bf6 1cbd
00000120: 0b57 f03c 93a5 cc3d fa3c b03d bfe9 f23d
00000130: f978 8c3d c4e5 00be 9444 2c3d ea67 7fbd
00000140: 2c1e b1bd d028 7c3d 35a8 af3d 12b2 d1bd
00000150: 3bf0 c0bc 5b9a 32bd 156e 463c e8fe 9cbd
00000160: c6eb 5c3d 5f68 72bd 9b73 673d 279e 863d
00000170: 5bde a83d 63e9 823d 01d0 8dbd 4a40 23bd
00000180: 707c 953d ee7f 073d 40ff e6bd aa78 a9bd
00000190: 7d17 d33d b977 ac3d b5fa 5fbd f98a fcbc
000001a0: 8840 e2bd 319a 1abb 457e 98bd 51ec afbd
000001b0: 2e02 e13c 093d eb3c 86fc 2abd 68dc 623d
000001c0: 46d5 b9bd fca4 e73d 1d18 b53d faf5 d3bd
000001d0: 552b 0fbd 6b77 713c 8b53 813c 26cf ce3b
000001e0: 4cfc b43c 3f2a 80bc 5cf2 aabd 72de 3d3d
000001f0: 3258 20be 8f01 6cbd 68f4 32bc 0d78 64bb
00000200: 1d8a 46bd 7c4c b5bd 9a15 0bbd 7858 5d3d
00000210: c161 4ebd a477 86bd eb45 c83d ab06 9b3c
00000220: 62c5 5fbc 9780 06bc cdf1 0c3d 1239 7c3d
00000230: 16cb e13d 1693 a23d e0b9 b23d 6efe 1bbc
00000240: 9f43 efbd c780 f0bc 1662 7e3d 37de 14bd
00000250: b789 6ebd a3e5 3fbd a01f cabd 4f7d bcbd
00000260: 567b 39bc 6744 a83d 8aa7 d03c 9074 ebbd
00000270: 643d 903d 8362 02be e3b8 85bc 096c 3fbd
00000280: af36 a0bc d20e 0ebb 3aaf 9fbd b16f b0bd
00000290: 82d0 aab9 2955 88bb 2ad1 8bbd d5d7 123d
000002a0: ff10 ccbd 49ae 6b3b 69dd 963d 9e2a e3bc
000002b0: a1f4 c13d 0d40 323d 86b4 99bd bbea 9e3d
000002c0: de69 83bd a77a 8bbd 42d9 043e e795 e0bd
000002d0: ae10 8e3c 1bd9 8dbc 28a3 b63d 9e13 233d
000002e0: 931f 2f3c dd09 813d 1d1e ebbc 6b2e 37bd
000002f0: c054 abbd f1e3 6e3d f79f 7c3d 9ee1 253a
00000300: 1206 b9bd 39f2 693c 9045 7abd be0d c9bd
00000310: 8c2d 8dbd 2804 033d 1fdd 55bd 31a0 0f3b
00000320: 355d fe3b 4690 7d3d 0223 e2bd ea58 abbd
00000330: 8b87 54bd 722e 163d 2122 a7bc d950 db3d
00000340: e31b 493d 7944 5d3c 671c 36ba 8582 53bc
00000350: 00bf f23b 58e6 f6bc ef21 1c3d bdb5 b8bc
00000360: c82f a2bd c27e 80bd 2ec5 473d 219e 2dbe
00000370: 700f 27bd 0443 aa3d f2ab e93d be5a 0fbd
00000380: 4cf8 c5bd 860b 1e3d b130 5cbd b5ad 763b
00000390: 7114 09bd 1872 6dbd c47b 143d 1346 d83d
000003a0: 1213 6a3c cba8 f53d 7622 843d 531a d8bd
000003b0: 0e10 bc3d c96d b5bd cbc6 b9bc 7bc8 94bc
000003c0: 4eb3 443c ab21 823d 8d2f 43bd b712 673b
000003d0: 2724 c13d 45ac bdbd c681 a23d e2bc a2bd
000003e0: 81db ec3b d3b5 7ebd 5fbf a1bd 1bf7 4cbc
000003f0: 7a8b eb3d f4b9 7cbd cce5 bfbd d0f8 30bd
0.0097413575 0.05198325 -0.07675 -0.06733587 -0.07028792 0.034758996 0.005759467 0.031942766
0.0134077 0.05070679 -0.025001688 -0.011226673 -0.13305292 -0.06454385 -0.02779622 -0.006321084
0.016190417 0.05655262 -0.080275096 -0.018324057 0.054701958 0.08124325 0.014202473 0.06606727
-0.035195388 0.041427154 0.092556685 -0.110525824 -0.07565625 -0.027421169 -0.056935016 0.09531234
-0.06704974 -0.051686928 -0.06200882 -0.13037337 -0.061706804 0.08683594 0.0429374 0.086288534
0.008513087 -0.089046985 -0.0025627182 -0.12102045 -0.077719696 -0.09004885 0.07047356 0.05480105
-0.03957533 -0.009965786 0.068359554 0.12664513 0.03491672 0.02007451 0.090870865 -0.049499117
0.03325595 -0.0887155 -0.056755908 -0.07710684 0.04867156 0.055532053 -0.068129666 0.025817826
0.074131325 -0.00010559084 -0.011238405 0.015470725 0.05921494 0.10784955 -0.09810308 -0.03832094
0.02933838 0.09992518 0.0860538 0.1186099 0.06859011 -0.12587649 0.04205759 -0.06235496
-0.08648333 0.06156236 0.08577005 -0.10239042 -0.02355205 -0.043604236 0.012111207 -0.07665807
0.05393579 -0.059181567 0.056506734 0.06573134 0.08245536 0.06392171 -0.06924439 -0.039856233
0.07299125 0.033080988 -0.11279154 -0.08274968 0.103072144 0.08421273 -0.054682452 -0.030827986
-0.110474646 -0.002359044 -0.07445959 -0.08589996 0.02746686 0.028715627 -0.04174473 0.055385977
-0.09073882 0.11310765 0.0884249 -0.10349651 -0.034953434 0.014737944 0.015786907 0.006311315
0.02209296 -0.015645145 -0.08347008 0.04635472 -0.15658644 -0.057618674 -0.010922529 -0.0034861595
-0.04847156 -0.08852479 -0.033956148 0.05403945 -0.050386194 -0.065657884 0.09778961 0.018924078
-0.0136579 -0.008209369 0.034410287 0.061577864 0.11025064 0.07938211 0.08726859 -0.00952111
-0.116828196 -0.02935828 0.06210526 -0.036344733 -0.058236804 -0.046849858 -0.09869313 -0.09203588
-0.0113209095 0.08216172 0.025470514 -0.11496842 0.07042959 -0.12732892 -0.016323512 -0.04673389
-0.019557325 -0.0021676314 -0.07797094 -0.086150534 -0.00032580277 -0.0041605425 -0.06827004 0.035850365
-0.09964179 0.0035962036 0.073664494 -0.027730282 0.094704874 0.043518115 -0.07505135 0.07759615
-0.06416677 -0.068105035 0.12973502 -0.109660916 0.017341938 -0.017315438 0.08917838 0.03981363
0.01068868 0.063007094 -0.028700883 -0.044722002 -0.08365774 0.05832285 0.061675992 0.000632787
-0.09034361 0.014278942 -0.061101496 -0.09817074 -0.06893453 0.031986386 -0.05221283 0.002191555
0.007762576 0.061905168 -0.110418335 -0.083665684 -0.051887076 0.036665387 -0.020402016 0.1070878
0.04909886 0.013505095 -0.00069469813 -0.012909536 0.007408023 -0.030139133 0.0381183 -0.022547597
-0.0791927 -0.06274177 0.04877203 -0.16954853 -0.040786207 0.083135635 0.11409749 -0.034998648
-0.096664995 0.03858521 -0.053757373 0.0037640159 -0.03346676 -0.057970136 0.036250845 0.105602406
0.014286773 0.11995085 0.064518854 -0.10551896 0.0918275 -0.088588305 -0.0226778 -0.018162003
0.01200564 0.06354078 -0.04765277 0.0035258958 0.09430724 -0.092613734 0.079349086 -0.07946183
0.0072283153 -0.06218512 -0.07897829 -0.012510086 0.115012124 -0.061700776 -0.09370002 -0.043206036

eps_model.0.bias f4 [256]
00000000: c6db af3c 3fb9 573d 6b50 3fbd cb63 13bb
00000010: e556 25bd 05fe 6fbd ed1e 073e 28b4 973b
00000020: e9e4 5abd 0b7b c6bd f795 e5bd 0457 e4bc
00000030: 127f ac3d 48ea 51bd a804 1b3c 978f 153d
00000040: 5f5d aebc bf45 4e3c abd7 bebd a27a 233c
00000050: 0d09 0bbd 71de ac3c c62f 943d 60e2 ccbd
00000060: 08bb 84bd f7f1 d0bd 9bd3 983d f936 fb3c
00000070: 9a22 4c3d 88dc db3c 04eb 19bd 7988 283d
00000080: 2175 fcbd 9fc5 10bd 0c29 1fbe e593 eabd
00000090: 3e36 d2bd 346b 1e3d 020c 1e3d 0bfc 09be
000000a0: b334 19be c751 0cbd aebe fc3c f634 843d
000000b0: 93fd f4bc 7e3d c1bd ad8b 963d 8de4 723d
000000c0: 0bf3 e33c a573 a73c 232e c1bd d1a8 d9bc
000000d0: 39cc 9cba 2cb9 5abd ef38 b83c 32b8 b93d
000000e0: 4aa4 ec3c 1f38 7dba 55e8 e0bd aa80 c63d
000000f0: e300 ffbc ccac 8cbd f2f2 a5bc 9757 01be
00000100: c5d5 97bc 4fbc 00bd 486a 023b cbea 5e3c
00000110: 2164 4c3c 13fc 673d 566f 13be c508 a2bd
00000120: 84c7 c1bd d009 e2bd 501f 0abe 1105 783d
00000130: b851 adbd f8a1 ba3d ea5b 9d3d 77f9 c8ba
00000140: 5580 a7bd 68db 903d 8d2f 253d 6761 503c
00000150: c619 38bd a3be fbbb aabb 0ebe 3b8c 5b3d
00000160: d84b d83d a8e3 263c 42d1 1fbd dd8f 77bd
00000170: aafa b03c 76ef 92bd 0d2f efbd 495d 8abc
00000180: c991 b5bd 7410 0b3c 887f b8bd c0ef 14be
00000190: f259 d13d 2b05 09be c33c 2cbd bd7d 8ebc
000001a0: f32e 00be ec6a b5bd bdf0 9abd 5a53 2cbc
000001b0: 2ae0 8bb8 b960 efbc 42cb aabd f044 db3d
000001c0: e091 2abd a4b6 bb3a 422a fabd 8494 d6bd
000001d0: e027 0dbe cd2d a3bd f0e6 b1bd e5b5 503d
000001e0: 6993 183c 2ff1 493d 5345 31be 262f 62bd
000001f0: 23b1 36be 8cc3 e3bd 3e2c 103c 2d91 c13d
00000200: b5a4 2bbd 4c29 1fbc 9b78 bb3b 954c 033c
00000210: d2ae 793d 59d8 59bd bd79 e9bc 1b76 b6bd
00000220: 55ae 303d a92e f73b 8802 04be 2e17 7e3d
00000230: 1936 793c 3537 d8bd 3c36 cfbd 16db debd
00000240: 5bba 863d b73a 22be 83a1 68bd 4753 ebbd
00000250: 5866 1f3d 8b58 4e3d 3fe0 43be 4cf1 0fbe
00000260: 63d0 acbd 762f 1b3d d862 983d 6b44 40bc
00000270: acf6 77bc 18bd edbd 8ca2 22bd a425 cb3d
00000280: 3140 b1bd 5869 84bd bee1 2e3d e0ee 70bd
00000290: a1e0 d7bd aed3 cabd 238a 57bd 33e0 23be
000002a0: c92a 60bd b82a 22bd 6504 a73d 7b8d 8cbd
000002b0: ba97 1cbd 9509 1bbe e83c b93d 2f46 b0bd
000002c0: a851 09be bf8a 283d 9f58 913d 6f2d 3e3d
000002d0: c238 e03d e611 d7bc 96f5 b63c ba41 ea3c
000002e0: b9cb 2a3d 8f50 d43b 4400 99bc 886e 4abd
000002f0: 5553 4b3d 0c34 503c 6f31 253d 1205 d5bb
00000300: d7aa e13c 8ba4 a0bd e300 b3bd 05ff c6bc
00000310: e560 20bb 7213 a6bd 1a89 6c3d 6a50 373d
00000320: e0fa 88bd 9855 f8bd 06b4 27bd a67e efbd
00000330: 4b15 433d 1dbe 6f3d a540 b33c 6367 01bd
00000340: b8bc bcbd b885 05be c3b8 3e3a af5a cc3d
00000350: 5a2f 41bd efff 45bc 257d 6abd 4429 96bc
00000360: 2f70 b9bd f8fe ddbd 7963 28bd 7c52 18bd
00000370: 1d53 e5bd caed e6bd 1476 afbd 5544 03bd
00000380: 145e 08be 1732 5ebd 7c0d d2bd cb6b 183c
00000390: 6a1a d2bb 1261 49bd 5658 43be 6789 a0bd
000003a0: de3d 10be 25c9 55bd ba74 0abe 3044 37be
000003b0: 1a91 353d 75a5 a3bd f60d 87bc 8485 123d
000003c0: 7870 ecbd 53e0 13be a464 00be f556 b23c
000003d0: 054a b93d e37d 16bc 96b3 d2bd c8ba bfbd
000003e0: 4060 cdbd c5f0 0dbe d249 c63c 38be 4b3d
000003f0: 5968 303d af66 ddbd fc55 593b a344 a7bd
0.0214671 0.0526669 -0.046707552 -0.0022489901 -0.040366072 -0.05859186 0.13195391 0.0046296306
-0.053440962 -0.09691437 -0.11210244 -0.027873524 0.08422674 -0.05124882 0.009461559 0.03651389
-0.021284757 0.012589871 -0.09318479 0.009977968 -0.03394418 0.021102162 0.072356746 -0.10004115
-0.06480986 -0.10202401 0.074622355 0.030665861 0.049837686 0.026838556 -0.037577644 0.041145775
-0.12327028 -0.035344716 -0.15543002 -0.1145399 -0.10264252 0.038676456 0.03858567 -0.13475053
-0.1496151 -0.034257676 0.030852642 0.06455414 -0.02990607 -0.09435557 0.0735086 0.059299994
0.027825853 0.020440886 -0.09432628 -0.026569756 -0.0011962719 -0.05339925 0.022488086 0.090683356
0.028886933 -0.0009659547 -0.10981814 0.096925095 -0.031128353 -0.06868896 -0.020257447 -0.12631069
-0.01853455 -0.031429585 0.0019899774 0.013605784 0.0124750445 0.05663688 -0.1439794 -0.07911829
-0.09461883 -0.11037028 -0.13488507 0.060551707 -0.08462852 0.09112924 0.07683547 -0.0015333135
-0.08178774 0.070730984 0.04032855 0.012718535 -0.044946454 -0.007682638 -0.13938776 0.05360053
0.10561341 0.010186113 -0.039017923 -0.060439933 0.021603901 -0.0717458 -0.11678896 -0.016890185
-0.08865697 0.008487809 -0.090087 -0.14544582 0.10222234 -0.13380878 -0.042050134 -0.017393941
-0.1251791 -0.08858284 -0.075654484 -0.010517919 -6.66979e-05 -0.029220926 -0.083395496 0.10706508
-0.041643023 0.0014321399 -0.12215091 -0.10477546 -0.13784742 -0.0796772 -0.08686626 0.05095472
0.009312489 0.049302276 -0.17311601 -0.055220746 -0.1784101 -0.11121282 0.008799611 0.09451518
-0.041905124 -0.009714436 0.0057211644 0.008013864 0.060957737 -0.05318484 -0.028500432 -0.089092456
0.043135006 0.007543404 -0.1289159 0.062033825 0.015210652 -0.10557405 -0.10117766 -0.10881631
0.06578513 -0.1584271 -0.056794655 -0.11490493 0.038915962 0.05037741 -0.19128512 -0.14056891
-0.08438184 0.03788706 0.07440728 -0.011735062 -0.015134495 -0.116083324 -0.039705798 0.09919289
-0.08654822 -0.06465405 0.042695753 -0.05882156 -0.105408914 -0.09903656 -0.05262197 -0.16003494
-0.054728303 -0.03959152 0.08155135 -0.06862923 -0.038230635 -0.15140374 0.0904482 -0.086071365
-0.13410056 0.041147944 0.07096981 0.046430048 0.10948326 -0.026253652 0.022333901 0.028595794
0.04169819 0.00647933 -0.018676884 -0.049421817 0.04964002 0.012707721 0.040330347 -0.0065008486
0.027547283 -0.07843884 -0.087404035 -0.024291525 -0.0024471816 -0.08109178 0.057747938 0.044754423
-0.066884756 -0.12125701 -0.040943168 -0.11694078 0.04762773 0.058530916 0.02188141 -0.031592738
-0.09215683 -0.13039291 0.00072754564 0.09978234 -0.0471643 -0.012084945 -0.057248253 -0.018330224
-0.090546004 -0.10839647 -0.04111049 -0.03718804 -0.11197493 -0.112758234 -0.085674435 -0.03204759
-0.13317138 -0.05424699 -0.10256478 0.009303044 -0.00641184 -0.04916484 -0.19076666 -0.078387074
-0.140861 -0.05219378 -0.1352109 -0.17897105 0.044327833 -0.07990543 -0.01648615 0.03577186
-0.11544889 -0.14441042 -0.12538391 0.02176998 0.09047321 -0.009185287 -0.102881595 -0.093617976
-0.10028124 -0.13861378 0.024205122 0.049741954 0.043068264 -0.10810601 0.0033162823 -0.08167388

eps_model.2.weight f4 [256, 256]
00000000: 51a5 85bd 71e0 0e3d 7fd1 e03c c9a9 f0bb
00000010: a0fe 72bb ea5f 50bd bb7e df3c 3492 ddbc
00000020: b575 43bc 545f 373d 0ddc 3abd 1d8e 4d3d
00000030: 8274 a13c a956 48bd f117 4cbd 5498 8abd
00000040: 8a42 0e3d 9607 0dbc 9fbe 63bc 7ec1 133d
00000050: c599 a5bc a2eb 7d3c 77b6 0b3a 0010 1ebc
00000060: bdde 28bd 257c 2bbd 72e8 92bd 365c 333d
00000070: 0854 373d a428 2b3d c95f c83c 9bd6 8bbc
00000080: 1167 31bd 74d1 74bd 791c 03bd edb7 49bd
00000090: ab3e e1bc 5953 56bd 57a7 4bbd 5c40 3cbb
000000a0: 67ed 42bd 1b5f 083a 3030 64bc 7f5d 4c3d
000000b0: 1b7b f13c 2351 1f3d f270 39bd 59a0 4a3b
000000c0: 7e65 39bd 73d4 e73c 79cc 413d d672 61bd
000000d0: 7d7a 2d3d e4ef 49bd 6b24 11bd cbd7 27bd
000000e0: 46e2 333c c6ae 6fbd 8a8f 59bd 775a 6e3b
000000f0: 4fe6 12bd 65f4 263d 2a05 1abc c259 873c
00000100: 497c 183c 2d23 37bd fcea 453d a226 163d
00000110: 45cf 833c 63be 89bd 95d4 523d 9f01 3fbd
00000120: 2848 493d 11fa 463d 6386 87bc 6712 843c
00000130: d956 61bd b348 9d3c 1a6b bdbb 8882 213b
00000140: a77f 38bc 91bc 103d 044b 6abd 405f 2a3c
00000150: 2bb7 f03c 398c e73c acfe 37bd ef75 9abb
00000160: 56ff 8d3c 76ad 2bbd 4a4c 29bd f271 b3bb
00000170: d90f 31bd 7d22 3a3d d0c0 d53b 3c00 11bd
00000180: 13cd 653b 3423 0bbd 86e3 3dbc 00b4 c83b
00000190: 92b7 e03c a314 0bba 2437 7fbb b214 e9bc
000001a0: 8862 80bd 6afd 193d 67be 9dbc ddf5 14bd
000001b0: 29cd 273d 4090 2c3d 4b62 12bd ffdf 56bc
000001c0: 556d 4bbd 979c 263d 8cd3 6dbd 2721 353d
000001d0: 4262 b03b 7e3c 503d 8f15 2cbd 58dc 55bc
000001e0: d06b 14bc a409 223c 835e 313c b953 023c
000001f0: c0bc 553d 3f67 953b ff0c 39bd bc74 10bd
00000200: 8ad3 d73c ad89 5d3d 5dc0 88bd 2bb6 7ebd
00000210: 5f4b 63bd e92e 3d3d 0403 51bd 76ab f63c
00000220: a7ce f7bc 0efd e23c 6e84 69bc f820 bdbc
00000230: 5739 093d fcc3 653d 97fb 40bd d0ad 223d
00000240: 40f7 6dbd a047 63bd 6989 41bc 699f 573d
00000250: b5ec 25bb bc8f 043d 9870 e63c 36c9 ea3c
00000260: 754b 6d3c 34cf 87bd d131 6abd d755 5cbd
00000270: 723d 1a3c 5b8d 113a 020a 7e3b 7803 8dbd
00000280: 26f5 273c a402 3bbd d1cf 8ebd ebb9 0d3c
00000290: 1417 dfbb 799b 5cbd 050d 4bbb b30b b53c
000002a0: 6bdd 82bd e770 72bc 0c47 2d3d d908 303d
000002b0: bff4 0dbd 3a8a 05bd f3e3 12bd 495a 66bd
000002c0: add2 29bd 09f2 083d 550c 0b3d 7441 00bd
000002d0: 679a 593a b456 4fbd b8fe a2bc cb12 0b3d
000002e0: d50e e63c 9fe9 e0bc 7da8 73bd 1f95 abbc
000002f0: 938c 28bd 8b5d 533b a468 393d e26d 12bc
00000300: ae1d ffbc 32b4 74bc b81b 05bd 08bf 0e3c
00000310: 9e6b 04bd fe70 7ebd 4fad fe3c e049 31bd
00000320: 51cf 563d a6b4 64bc 9ff5 28bc e797 b83c
00000330: 2b2a 1fbd 4498 0dbc 8870 0dbd 5fcb 57bd
00000340: 2f35 0e3d 28d2 113d 81a6 e73c a289 413d
00000350: 394b db3c fb53 293d 28db bebc cbf3 3c3d
00000360: 1720 1c3c b463 05bc 6d5f 2c3d 1c6f 3dbd
00000370: 6ccd 61bb b8a8 20bd 87e3 5d3d 9134 a9bb
00000380: 9538 403c 7496 213d 1ba3 bc3c d15e f1bc
00000390: d576 10bc 414a 303d 7994 f8bc 9440 14bc
000003a0: 5e3a 66bd 4fbd bd3b f793 173d 8d5a 10bc
000003b0: 90e3 de3b f925 273d 5d54 10bc d2b1 f0bc
000003c0: 5f59 173d 1c6a 37bd da7c 223d be64 f73c
000003d0: 9979 3cbc 08d2 94bd 60a3 9f3c 1ada ce3c
000003e0: 1036 86bc 0b8a 8c3c c037 403c 1ae0 063c
000003f0: a270 483d 9a30 e1bc 3ef1 5c3c 7aa5 18bd
-0.06525672 0.034882013 0.027443646 -0.0073444587 -0.0037078038 -0.05087272 0.02728211 -0.027047254
-0.011929919 0.044768646 -0.045620013 0.050184358 0.019708876 -0.04891077 -0.04982752 -0.067673355
0.034731425 -0.008607766 -0.013900428 0.0360732 -0.020214925 0.015498074 0.00053296186 -0.009647369
-0.041228045 -0.04186644 -0.07173242 0.04378911 0.044757873 0.041786805 0.024459736 -0.017070105
-0.043311182 -0.059770063 -0.032009576 -0.04924767 -0.027495703 -0.05232558 -0.049720135 -0.0028724885
-0.047589686 0.000520216 -0.013927504 0.049893852 0.029477647 0.038895737 -0.04527373 0.0030918329
-0.045262806 0.028299546 0.04731414 -0.055041157 0.042353142 -0.049301043 -0.03543512 -0.04097728
0.010979241 -0.058516286 -0.053115405 0.003636984 -0.03586417 0.040760417 -0.009400645 0.016522292
0.009306976 -0.04471128 0.0483198 0.036657937 0.016090045 -0.067257665 0.051472265 -0.046632405
0.04914108 0.048578326 -0.016543573 0.016122056 -0.055014465 0.019199705 -0.0057805898 0.0024644453
-0.011260903 0.03533608 -0.057200447 0.010398686 0.029384216 0.028265106 -0.04492061 -0.004713766
0.017333668 -0.041913472 -0.04133252 -0.00547623 -0.043228004 0.045443047 0.006523229 -0.035400614
0.003506486 -0.03396912 -0.01158989 0.0061249733 0.027431283 -0.00053055043 -0.0038942778 -0.028452251
-0.06268793 0.03759519 -0.01925583 -0.036367286 0.04096714 0.042129755 -0.03573827 -0.013114928
-0.049664814 0.04067668 -0.058063075 0.04422107 0.005382807 0.05083894 -0.042012747 -0.013053022
-0.009058908 0.009889994 0.010825756 0.007954531 0.05218196 0.004559427 -0.04517841 -0.035267577
0.026345987 0.054086376 -0.066773154 -0.062185448 -0.0554918 0.046187315 -0.051028267 0.030111056
-0.030249907 0.027708557 -0.014252765 -0.02308701 0.03350195 0.05609511 -0.047114935 0.03971654
-0.058097124 -0.05548823 -0.011812546 0.05264226 -0.002531809 0.03236364 0.02812986 0.028660398
0.014483322 -0.06631318 -0.057176415 -0.0537928 0.009414064 0.00055523746 0.003876329 -0.06885427
0.010251319 -0.045656815 -0.069732316 0.008650283 -0.006808171 -0.053859208 -0.0030983102 0.022100305
-0.063898884 -0.014797426 0.042304084 0.042977188 -0.034657236 -0.032602526 -0.03586192 -0.056238446
-0.04146068 0.033433948 0.033947308 -0.03131242 0.0008300901 -0.050619796 -0.01989685 0.03395347
0.028083244 -0.02745515 -0.059486855 -0.02094513 -0.041149687 0.00322518 0.04526581 -0.008937331
-0.031142082 -0.01493554 -0.032497138 0.008712538 -0.032329194 -0.062119476 0.0310885 -0.043283343
0.052443806 -0.013959086 -0.010312467 0.02253337 -0.038858574 -0.00864226 -0.034531146 -0.052684184
0.03471869 0.03560081 0.028277637 0.047250398 0.026769267 0.041339856 -0.023297861 0.046130937
0.009529135 -0.008141447 0.042083193 -0.04624854 -0.0034454716 -0.039223403 0.054172065 -0.005163737
0.01173224 0.039450124 0.023026993 -0.029464157 -0.008817394 0.043039564 -0.030344235 -0.0090486
-0.056208007 0.0057903896 0.037006345 -0.0088106515 0.00680203 0.040807698 -0.008809176 -0.029381666
0.036950465 -0.04477893 0.03966985 0.030199405 -0.0115036005 -0.07266623 0.019487083 0.025250483
-0.0163832 0.017155668 0.011732042 0.008232141 0.04893554 -0.027488995 0.013485251 -0.037267186

eps_model.2.bias f4 [256]
00000000: 24a9 86bd 5d70 c3bc c594 4cbd e95d a83d
00000010: 8705 a4bd e313 79bd 5951 b3bd 9c08 423d
00000020: 0d10 153d 8e4e 6d3c d037 46bd 6e89 9ebd
00000030: d3a2 84bd 69cb 2e3d 7838 9dbc eee1 cc3c
00000040: 6a4f 7abb 4c3e 313d 2b04 513d 8cbc 603c
00000050: 7b5a 3ebc bc3e 22bd 0645 94bd 6f4f 103d
00000060: b09a 0e39 61e2 2f3d c174 46bd e65c 06bd
00000070: 6bba 41bd cf60 593d 2938 b23c 5a16 863d
00000080: 5229 bfba e38b 18bd 5ae3 7f3d ce9c 473d
00000090: f055 e13c 3eaf a1bc f9ba c1bc 7ddf 06bd
000000a0: 6390 0fbd 57ea f0bb 4a46 113c 0948 ee3c
000000b0: e18a 103c b2d2 563c 2b89 9ebd e0c1 ffbc
000000c0: 553a c73c e988 3fbd 7785 9cbd d228 7cbc
000000d0: da5f c23c af26 9cbd b419 75ba 035b 36bd
000000e0: 8d08 26bd 2d3f 37bd a513 e9bb ac84 75bd
000000f0: 671e c6bc 2d0f 52bd 4c0f 013d 96f8 bebc
00000100: 4d29 293b c7d9 59bd 9e79 8638 caea 90bd
00000110: bc98 1bbd 1651 ea3b f420 8e3d 9f16 7a3c
00000120: 31bc 1ebd 69dc 283c b5f2 f4ba ea6c 063d
00000130: 2ee6 20bd 602c 33bd 16a6 4f3c 1e0b a73c
00000140: eab2 6dbd 9057 e73c f8ed 1f3d 6920 90bd
00000150: 2117 263d d323 2ebd 1132 01bd 742b b23c
00000160: 00bf 91bb 274c 343d 5646 8cbd 2011 103c
00000170: 4e32 123b d2fe 38bd f711 1bbd 72c7 163c
00000180: 4568 eb3c 57f4 80bd 7972 b43b fba8 62bd
00000190: 074f dcbc 11b5 43bd 15c8 2dbc 9aac 95bd
000001a0: a0c0 f63c ab0e 71bd ccb7 f93c 8e96 61bd
000001b0: 92c3 fe3c a541 633c 7e58 a2bd 3eab 2fbd
000001c0: 2b1a 47bd 751a 93bd 1348 9dbd 4823 f9bc
000001d0: 5662 74bd c8bf 433b 73de 94bd d359 22bd
000001e0: 03b7 2d3c 4446 b43c 95a4 573d bfda 9fbd
000001f0: 6706 96bd 4cff 37bd f113 a03c aac5 11bd
00000200: 41d1 aa3c 8de1 833c dabd 2bbc e9e9 873c
00000210: b227 bf3c 77fc 74ba 36a4 8dbd ad9b 5bbc
00000220: 914b ff3c 6efb 32bd 39aa 86bc a1bb 1ebd
00000230: e7cd e0ba 8b39 113d 59cf 38ba d785 613d
00000240: 8cde 9e3d de10 be3c bb15 21bd 8a3a a9bc
00000250: efe8 3f3c 7da5 473d 6094 89bd f59c 13bd
00000260: 25b5 85bd c98c 37bd 073e 473d d352 f63c
00000270: 81e6 8cbd 9bd1 5cbd 38da 323c d931 db3c
00000280: bc27 6abc d5a9 05bd 5be9 2dbd dbfc 9bbd
00000290: b87f 2dbd 3777 bbbd 209f ff3c a5a4 243d
000002a0: 9bdd 2bbd 963d 163c 9969 1c3d c724 ed3c
000002b0: 9c20 933c ff8f 6cbd 10c4 533d f64c 033d
000002c0: ddaf 21bc 0361 433c 2402 b2bc 1723 3d3d
000002d0: 5af6 31bd b78a 82bd 23da 823c 7758 0bbd
000002e0: 439b 91bc 7efd d13b 7010 6d3c 1052 313d
000002f0: 091a 783d 207a e63b 4b02 4dbd ced3 f93c
00000300: fb5a 61bd 8f18 a13c a1d2 bd3c 0856 963d
00000310: 0612 a93c 64a5 243d 4ec8 8dbc 2760 a2bd
00000320: 64b2 bf3c fdbc 96bd 6b93 4ebc 7e09 293c
00000330: bbd3 d2bb e85b b63c 4f5f cb3c 44e0 41bc
00000340: 1abd 04bd 3ce8 66bd 5bf2 3abd d0ea 7bbc
00000350: c0b1 403d cdfe 2cbd 1f5d 523c 1fb6 f7bc
00000360: ecbd c7bd 2bd6 823c 3546 c93c 6f1d 7ebc
00000370: a6c2 5e3c 5019 853d 1822 f63b d554 b93c
00000380: 761c 2d3d a7ab 93bd 534f b9bc e561 43bd
00000390: c645 95bd f0ff 27bc a3fc 39bb fd3f ecbc
000003a0: fba9 2f3c 5498 6d3d 6c26 83bd b36b aabc
000003b0: 0102 debc 5023 983c 48ee f8bc cc74 afbd
000003c0: a7b5 d6bc 2b45 58bd 142b 9bbd d7eb c3bd
000003d0: 070e 4dbd bda1 973a cdca 2bbd ab26 ebbc
000003e0: bc11 61bd 3045 96bd dc5e b7bc fd54 17bd
000003f0: 36a8 c1bc c9da 113c 560a 823c d245 38bd
-0.0657523 -0.02385729 -0.049946565 0.08221037 -0.08008867 -0.06080998 -0.0875575 0.04737149
0.03639226 0.014484061 -0.04839307 -0.077410564 -0.06476369 0.042674456 -0.019191965 0.025010075
-0.0038194307 0.0432723 0.051029366 0.013716828 -0.011618252 -0.03961061 -0.07239728 0.035232004
0.00013599801 0.0429405 -0.04845119 -0.03280344 -0.047296923 0.05307084 0.021755295 0.06547232
-0.0014584458 -0.03724278 0.06247268 0.048733525 0.027506799 -0.019736882 -0.023648726 -0.03292798
-0.035049807 -0.0073521542 0.008866856 0.029087083 0.008822174 0.013111757 -0.077410065 -0.031220376
0.024319807 -0.046761427 -0.07642644 -0.015390592 0.023727346 -0.07624566 -0.00093498384 -0.04452039
-0.0405355 -0.044737983 -0.0071129375 -0.05994098 -0.024184419 -0.051284004 0.03150873 -0.023311894
0.002581197 -0.053186204 6.412271e-05 -0.070760325 -0.037987456 0.0071507795 0.06939879 0.015264182
-0.038753692 0.010306456 -0.0018688055 0.032818712 -0.039282016 -0.04374349 0.012673875 0.020391043
-0.058031954 0.028239995 0.039045304 -0.07037432 0.0405494 -0.042514633 -0.031541888 0.021749236
-0.004447818 0.044017937 -0.06849353 0.008793145 0.0022307816 -0.04516489 -0.03785893 0.009202825
0.028736243 -0.06296604 0.0055068103 -0.055336934 -0.026893152 -0.0477801 -0.010606785 -0.07308312
0.030121148 -0.05885188 0.030483149 -0.05507522 0.031099115 0.013870631 -0.07927035 -0.04288792
-0.04860894 -0.07182781 -0.07679763 -0.030412331 -0.059664093 0.002986895 -0.07268991 -0.039636444
0.010602715 0.022006162 0.052647192 -0.078053944 -0.0732544 -0.044921204 0.019540759 -0.035588898
0.020851733 0.016098762 -0.010482276 0.01659103 0.023334358 -0.00093454815 -0.069160864 -0.013403815
0.031163963 -0.043696813 -0.01643859 -0.038753156 -0.0017151207 0.035455268 -0.000704994 0.05505928
0.07757291 0.023201402 -0.039327364 -0.020657796 0.011713251 0.048741806 -0.067177534 -0.036038358
-0.06528691 -0.044811998 0.04864314 0.03006879 -0.06879903 -0.053910833 0.010916285 0.026757168
-0.0142917 -0.032632668 -0.042458873 -0.07616588 -0.04235813 -0.09153598 0.031203806 0.04019608
-0.041959386 0.009169957 0.038186643 0.0289482 0.017959885 -0.057754513 0.05170065 0.032055818
-0.009868589 0.011924985 -0.021729536 0.046176042 -0.04344783 -0.06374114 0.015973156 -0.034019914
-0.01777423 0.0064083925 0.014469251 0.04329115 0.060571704 0.0070336014 -0.050051015 0.030496504
-0.055018406 0.01966503 0.023171725 0.07340628 0.020638477 0.04019679 -0.017307427 -0.07928496
0.023400493 -0.073602654 -0.012608389 0.0103172045 -0.0064339316 0.022260621 0.02482572 -0.011833254
-0.032406904 -0.05637382 -0.045641284 -0.015375808 0.047044516 -0.042235184 0.012839585 -0.03023821
-0.097530216 0.015971264 0.02456961 -0.015509947 0.0135962125 0.064989686 0.0075113885 0.022623459
0.04226347 -0.072104745 -0.022620833 -0.04770078 -0.07288699 -0.010253891 -0.0028379343 -0.028839106
0.010721679 0.0580066 -0.06403813 -0.020803308 -0.027100565 0.018571526 -0.030387059 -0.08567199
-0.026209665 -0.05280034 -0.07576576 -0.09566467 -0.050062206 0.0011568588 -0.041941453 -0.028704962
-0.054948553 -0.07337415 -0.0223841 -0.036946286 -0.02363978 0.00890226 0.01587407 -0.04498846

eps_model.4.weight f4 [1, 256]
00000000: 07d0 cbb8 81ea db39 0f15 4239 249f f63b
00000010: aa8e 4d39 c5e9 d6bc 9283 24ba d087 ce3a
00000020: 4def 07bd 6379 6d3a 3864 2f3a 79b8 173d
00000030: 3fe1 2f3c c725 093b 3206 11bb ebe0 0eb9
00000040: 4a73 a93c 6329 00bd d0c2 8b3a ea32 15bc
00000050: 3ebc 24ba 983f 103a bd1c e438 1863 e238
00000060: 7bb9 bd3c ffbc e23b 68a8 ef3c 9913 dcba
00000070: 1a19 103c 0c09 c23b 9720 bf3a c77a cf3b
00000080: ecd0 1bba 903f 32bd f81d 0c3c 168c 053c
00000090: bf11 22bc 8af7 e23b 7cbb 39bb 5b7f 75b9
000000a0: d64f 683a 967d 903c b70c 183b aaf0 cb3c
000000b0: 7654 b93c d50a 813b d625 6abb 3484 debc
000000c0: 379c 02bd bd90 0a3c 5148 0c3d dd9e 06bc
000000d0: 1aef 7a3c 5829 75bc 166a adbc fed6 af3b
000000e0: da07 2c3b 678f bd3c 5be5 19ba 2f64 3fba
000000f0: 14e7 a239 ed13 28bd 818b 843a 1578 8e3b
00000100: e471 8bb9 a67c 353b 5d06 9fba f4e4 9239
00000110: 5a62 01bc 329a 9f3b 246c 983c 2044 633b
00000120: 1440 4339 13f5 063c 0151 933c b6dc 47bc
00000130: f0c6 573c b5e8 86b8 ddd8 dbbb d606 f23b
00000140: 104b 78bc 493c 18bc ef06 9b3c d381 5bbb
00000150: a06e c23b 1364 e93c 7dcc 04bc 07b8 14bd
00000160: a739 123b e18c 1f3b fdc2 083b f570 123a
00000170: 14f1 cd3a 6092 bd3c 8cb7 7239 eaae 26b9
00000180: 4ec5 993a d38d ec3c 4e37 c239 5ebe 903b
00000190: 102d 053b 15dc acbc 215a da3a 7a54 8b3a
000001a0: c192 e73c 51b9 09bd 25ae cd3a 348c 8fbc
000001b0: 3bea 413b 2c49 78bc 2e40 913c aacf 2c3c
000001c0: c787 dfbc 491a 783a 833e ffba a270 0fbc
000001d0: 6b9b 12bb db8a 7dbb d8b8 b3bc 0327 d9bb
000001e0: 3675 913b debf 8b3b 77cb 883a b877 a5bb
000001f0: a1b2 053c fdc0 72ba b1da b23c 9cba 54bd
00000200: 8571 243c 54ce 51bb 11ce bcba fd15 c0bb
00000210: b828 913b 94b8 26bc 19d5 12bd f45f 273a
00000220: ffa3 bebc 3517 e6b9 1db1 a03c a3d6 f03c
00000230: 06a9 7cb8 2b4a 52ba 2eb6 37bb 6363 133c
00000240: d1ad b13b acc5 a83c 49f7 d03b 5597 68b9
00000250: 69e0 b53b 2949 1bba 6276 96bc e1a7 813b
00000260: 937b 4e3d a076 853b e326 26bb 4c3c 57bb
00000270: 3df7 d5bc a6c8 edbc 0b65 b6bb bed1 3c3c
00000280: 2158 3838 5dde f7bc 2246 8dba 00f5 8a3c
00000290: adc7 54bb e8bb 70bc 7f97 3b3b 0e3d 8e3b
000002a0: 623f 8b3a 6739 efbb e52f e4b8 5b0f 04bb
000002b0: 83a0 0dbb 9608 433d 16e0 d03a 467a e5ba
000002c0: a0eb c0b8 d0d0 82bb c14b 913b 3769 d339
000002d0: 10c4 1a3b 231e 70bb 47eb a438 a181 d63a
000002e0: 5dc3 113c 0101 233a 05f3 47bc 0edd 08bb
000002f0: 73bd 923b c661 caba 6e21 bf3a 6474 023c
00000300: d163 563c 515c 8c3b 08cd fb39 ef9d 293c
00000310: 274f 8fbc 99cc bdbb efd4 dd3c 8fa8 a2bc
00000320: c82c 10bd b364 10ba 6e3d faba 0a00 c8ba
00000330: d557 913c 94f5 5f3b bd7a eeba 2571 3d3c
00000340: c0d9 ffbb 7060 143c 7c88 cb3a 3bc0 49bc
00000350: 5cbd 3c3c d713 e4bb d72c 323b 83b9 5fb9
00000360: 6ac8 56ba 428d ae3b 3c7f 1fbd 65ab 0b3d
00000370: 83eb 75bb ebb4 d23c db6f 52bb 309a 043d
00000380: b06c a4bb 7cdf bbba c817 9fb8 dcd2 44bd
00000390: 71e6 b5bb d601 d7bc 6c7c ae3b 7da1 5cbb
000003a0: 8cfe 093d ff3d 87b9 9dab 13bb 7803 b23b
000003b0: 9b6a 2ebc 8f00 ba3a 5f50 0f3b c99e 35bc
000003c0: e51d 293a 57ca 82bc 6f93 37bd 1ac9 e4bb
000003d0: 9d77 283b 38aa 63bb 0725 8139 1f01 85bc
000003e0: 8ec5 f938 ea86 02bc bab0 b93c 3304 8e3c
000003f0: 83d8 4e39 5000 50bd 20b9 80ba 3712 983c
-9.7185424e-05 0.00041945654 0.00018509127 0.0075262953 0.0001960347 -0.026234517 -0.0006275709 0.0015757028
-0.0331872 0.00090589206 0.0006690654 0.03704116 0.010734855 0.0020927058 -0.0022128937 -0.00013625964
0.020684857 -0.03128947 0.0010662917 -0.009106377 -0.0006284154 0.000550264 0.0001087724 0.000107949774
0.023159733 0.0069195027 0.029255107 -0.0016790509 0.008795047 0.0059214886 0.0014581856 0.006331775
-0.00059439125 -0.04351765 0.008552067 0.008151075 -0.009891926 0.0069264816 -0.002834051 -0.00023412464
0.0008861994 0.017638009 0.0023200938 0.024895031 0.022623282 0.003938059 -0.0035728118 -0.027162649
-0.03188726 0.00845736 0.034248654 -0.008216587 0.015315795 -0.01496347 -0.02116875 0.0053662052
0.0026249797 0.023139669 -0.00058706634 -0.00073010003 0.00031071214 -0.041034628 0.0010112376 0.004347811
-0.00026597 0.0027692704 -0.0012132634 0.00028017873 -0.007896984 0.0048706764 0.018606253 0.0034678057
0.0001862052 0.008237141 0.017982962 -0.012198618 0.013169989 -6.432963e-05 -0.0067092017 0.007386069
-0.015154615 -0.009291717 0.018924205 -0.003349413 0.0059335977 0.028490102 -0.008105394 -0.036308315
0.0022312196 0.0024345445 0.0020868175 0.000558629 0.0015712106 0.023141086 0.00023147295 -0.00015896154
0.0011731775 0.02887622 0.0003704377 0.004417225 0.0020321049 -0.021101037 0.0016658941 0.0010630034
0.02826822 -0.033623997 0.0015692158 -0.017522909 0.0029589075 -0.015154164 0.017730799 0.010547558
-0.027286423 0.0009464366 -0.0019473586 -0.008754881 -0.0022370468 -0.00386875 -0.021938726 -0.006626965
0.0044390215 0.0042648157 0.0010436614 -0.005049672 0.008160264 -0.0009260325 0.021832796 -0.051935777
0.010036831 -0.003201385 -0.0014404674 -0.005861996 0.004429903 -0.010175843 -0.035847757 0.00063848426
-0.023271559 -0.0004388631 0.019615704 0.029399222 -6.0238897e-05 -0.0008021916 -0.0028032172 0.008995864
0.005422332 0.02060207 0.006377135 -0.0002218162 0.0055504334 -0.00059236825 -0.018366996 0.0039567803
0.05041082 0.004072979 -0.0025352768 -0.0032842336 -0.026118869 -0.02902634 -0.0055662445 0.011524616
4.3951095e-05 -0.030257398 -0.0010778347 0.016962528 -0.003246765 -0.014693238 0.0028624234 0.0043407744
0.0010623748 -0.007300544 -0.00010880808 -0.0020150754 -0.0021610565 0.04761561 0.0015935923 -0.0017507754
-9.199162e-05 -0.0039921775 0.0044340794 0.00040323447 0.0023615398 -0.0036639057 7.863953e-05 0.0016365537
0.008896676 0.0006218106 -0.012203936 -0.0020883712 0.0044781505 -0.0015440516 0.0014582106 0.00796232
0.0130853215 0.004283466 0.0004802721 0.010352596 -0.017493797 -0.005792212 0.027079074 -0.019855766
-0.035198957 -0.00055081694 -0.0019091794 -0.0015258801 0.017742077 0.0034173476 -0.0018194538 0.01156262
-0.0078079402 0.009056196 0.0015528346 -0.012313898 0.011519756 -0.006960373 0.002718737 -0.00021336046
-0.0008193316 0.005326898 -0.0389397 0.034099 -0.003752441 0.025721034 -0.0032110128 0.032373607
-0.0050178394 -0.0014333571 -7.5861404e-05 -0.048052654 -0.0055511524 -0.026245993 0.005324891 -0.003366559
0.03369002 -0.00025795397 -0.002253271 0.0054325424 -0.010645534 0.001419084 0.0021867973 -0.011085221
0.0006451293 -0.015965624 -0.044818338 -0.006981981 0.002570606 -0.003473891 0.00024632385 -0.016235886
0.00011910043 -0.007966736 0.022667278 0.017335987 0.00019726348 -0.050781548 -0.0009820797 0.018563373
