runs/phase2/pessimist.pt (torch, 276525 bytes, 5 tensors)

net.0.weight f4 [256, 8]
000000 07 f9 54 be 07 e0 60 3e 04 cc cd be af 55 28 be
       -0.20798121 0.2196046 -0.40194714 -0.16438936
000010 79 b9 83 3d 64 dc 17 3f ce 82 db 3b 75 31 89 3e
       0.064318605 0.59320664 0.0066989427 0.26795545
000020 6a 9f db be c4 cb 31 3d 49 83 1b be 0c 2a d2 3b
       -0.4289506 0.043407217 -0.151868 0.006413704
000030 65 c1 ce be fb 44 97 bf bd 14 be bd 43 58 a6 3d
       -0.40381923 -1.1817926 -0.09281299 0.08122303
000040 76 aa 15 3e 1b fb 1e 3e 16 7c ce bd f1 5f 4e 3e
       0.14615807 0.15525477 -0.10082261 0.20153786
000050 b8 84 6a 3e 97 2c a3 3f 67 51 48 bd 4e 6b 55 3e
       0.2290219 1.2747983 -0.048905756 0.20841715
000060 9c e3 02 bd 33 a1 56 3b 85 99 c4 3e 11 61 af be
       -0.031955346 0.003274989 0.38398376 -0.34253743
000070 d0 db d3 be 7a ff 17 bf 40 2d 73 bd d4 35 5e 3e
       -0.4137864 -0.593742 -0.059369326 0.21700221
000080 97 b9 25 be 67 76 07 be f0 38 6e be 70 a2 77 be
       -0.16184078 -0.1322876 -0.23263907 -0.24183059
000090 6c 41 15 3e 97 a2 7f 3f 1e 57 11 3e 44 b7 3a 3e
       0.14575738 0.9985747 0.14193389 0.18233973
0000a0 6a f1 37 3d b0 99 4c bc 7c 97 2d 3e 48 b9 b5 be
       0.044907965 -0.012487814 0.16952318 -0.3549292
0000b0 71 a4 f2 be 05 f6 4a bf c7 22 7f 3e e0 39 89 3e
       -0.47391084 -0.79281646 0.2491561 0.26801968
0000c0 eb 77 d6 bc 67 22 4c 3e 54 c1 b9 3e 64 ee f7 3e
       -0.026180228 0.19934998 0.3628031 0.48424065
0000d0 5e 9d 62 be b1 f9 c7 be 58 bf c5 3d af 18 99 be
       -0.22130343 -0.39057687 0.096556365 -0.29901645
0000e0 9e c0 18 bc b5 14 89 bd 74 fd 7d be 2b 31 73 be
       -0.009323267 -0.06693403 -0.24803716 -0.23749225
0000f0 b3 3f fd 3e d4 59 35 3f a5 ad 95 bd a9 e5 f7 3d
       0.4946266 0.7084019 -0.07308511 0.12104351
000100 a9 21 e0 3e f0 ee 68 3d 34 aa 2c 3e c3 3e 8e 3d
       0.4377568 0.056868494 0.16861802 0.069455646
000110 ca 79 43 3e 94 37 b8 3d 30 d7 2e be a1 d4 62 be
       0.19089428 0.08994976 -0.17074275 -0.22151424
000120 d0 ef b2 3e b5 5b b6 3e e1 ea f1 3e 99 b1 13 3f
       0.34948587 0.35616842 0.4724951 0.5769287
000130 43 49 e4 3d 78 02 49 bd 1e 2d ac bd f9 bb b1 be
       0.11146786 -0.04907462 -0.08407043 -0.34713724
000140 6d 1a 0b be 1e 4d e9 3e 9c 50 84 3e 48 86 00 bf
       -0.135843 0.45566648 0.2584275 -0.50204897
000150 15 7f 33 3e 19 93 2c 3e 61 1d 03 3d 13 12 86 3d
       0.17528947 0.16852988 0.03201044 0.06546416
000160 73 4f ff 3e da 95 ab bd 94 2c a4 3e a5 1a aa 3d
       0.49865302 -0.08378191 0.3206526 0.08305863
000170 af 75 4b 3d 18 9a ed be d5 da 16 bf a6 2a a6 bd
       0.04967278 -0.46406627 -0.5892766 -0.08113603
000180 af 09 b1 3d 15 92 a1 bc b2 52 91 be 46 ff 91 be
       0.08644425 -0.019722978 -0.28383404 -0.2851507
000190 70 c1 20 3f 3f 9e 27 3f 0d b8 8c be 03 45 82 3b
       0.6279516 0.6547584 -0.2748417 0.003975512
0001a0 19 2b f3 be e4 25 c7 bd 16 1b a3 be a1 f0 95 bd
       -0.47493818 -0.09724024 -0.31856602 -0.07321287
0001b0 c4 df a0 3e 33 aa 4d 3f 66 9a 15 bd 3c ef 36 3e
       0.3142072 0.8033783 -0.0365242 0.17864698
0001c0 ef 95 ba 3d 0c 1f dd 3e 08 cf ab 3e 95 1d b6 be
       0.09110629 0.4318775 0.3355639 -0.35569444
0001d0 a0 43 d4 bd 3f 9e 97 3c fe 66 a7 3d 63 e2 14 bd
       -0.10364461 0.018508075 0.08173941 -0.03634871
0001e0 f2 82 80 bd f9 7f 4e 3c 3a 29 62 ba 11 60 e8 3e
       -0.06274976 0.012603753 -0.0008627359 0.45385793
0001f0 0b 38 16 bf d7 27 61 bf aa 67 49 be 97 d1 e6 be
       -0.58679265 -0.87951416 -0.19668451 -0.4508178
000200 58 d5 e9 be 13 a9 1d be 71 e5 c2 bd 6d 0b c4 3d
       -0.4567058 -0.15396528 -0.09516419 0.09572492
000210 20 6a ce be 37 0a 9d bf c5 2b 58 3e 91 3a 07 bd
       -0.40315342 -1.2268742 0.21110447 -0.033014838
000220 f0 b2 4f 3d f4 84 81 bd f3 7a 6b 3d 41 48 9b 3e
       0.050707757 -0.06324187 0.0574903 0.30328563
000230 0f f6 03 3f d9 7b 0e 3f 71 9b 0f 3e 9e aa e5 bd
       0.5154733 0.55657727 0.1402414 -0.11214183
000240 4e 7b b9 be 56 42 bf 3d 63 d8 60 3e f6 a0 8b 3e
       -0.36226887 0.093388245 0.21957545 0.2727124
000250 37 b7 dd be 1d 0b 65 bf 89 14 f8 be 71 02 c5 be
       -0.43303844 -0.8947008 -0.48453167 -0.38478425
000260 da ed 8b 3d 4f 33 a6 3e f0 d4 5d 3e 87 85 d6 be
       0.06832476 0.3246102 0.2166326 -0.41898748
000270 ba 1a 5c 3e d3 83 02 be 4e e8 19 3e c4 92 9a 3d
       0.2149457 -0.127456 0.15030023 0.075475246
000280 04 a4 53 be 5c ab 02 bd 5c 5d ef be 52 b4 39 be
       -0.20668036 -0.031901702 -0.46750915 -0.18135193
000290 84 63 78 3e 3b 49 bb 3e d1 8c 7d 3d cf a9 7c 3e
       0.24256712 0.36579308 0.06190187 0.24674152
0002a0 18 66 b5 bd f3 9b 0c 3c f1 b6 36 3e e6 0b 38 3d
       -0.088573635 0.008582103 0.17843224 0.044933222
0002b0 13 64 08 3f 4c b5 ad 3f f0 0a 2e bf e2 b1 42 3e
       0.532777 1.3570952 -0.6798544 0.1901317
0002c0 15 e8 4c 3d 5b 4f 2f be e9 be b3 3e da 0f 9f be
       0.05002602 -0.17120115 0.3510659 -0.3106678
0002d0 6b 96 00 be 2a c4 32 bf bc ea 48 3e 54 d5 f8 3d
       -0.1255738 -0.6983057 0.19620794 0.12150064
0002e0 5a 65 86 3e fc 6b 58 3e f1 1e 01 bd c7 92 9d bd
       0.262492 0.21134943 -0.03152365 -0.07694011
0002f0 51 b3 7b be d0 ef 46 3e d6 03 94 3e d1 8c 62 3e
       -0.24580123 0.19427419 0.28909177 0.2212403
000300 8e 5a f4 be ea 26 64 3d d3 93 bf be d7 f0 12 bd
       -0.47725338 0.055701174 -0.37417468 -0.035874214
000310 5a c4 71 bc f3 2a 0e 3f 37 cd 36 be 15 71 3e bc
       -0.0147562865 0.55534285 -0.17851721 -0.011623641
000320 da d0 c7 3d ed c9 9f 3e ed fb 59 be 9f 14 7c be
       0.09756632 0.31208745 -0.21287508 -0.24617241
000330 65 01 5f be 04 ef db 3d 88 2e 6a bd 5a 4f 89 3e
       -0.21777876 0.10738948 -0.057173282 0.26818353
000340 4d 27 5e 3e 84 b2 07 3e 2e 5a 0f 3d 0b ea 95 bc
       0.2169468 0.13251692 0.03499811 -0.018300077
000350 13 ea 94 3d 52 42 26 bd bc f1 ae bc fc 92 ba 3c
       0.072712086 -0.04059059 -0.021355502 0.022775166
000360 3a 02 4b 3d a0 f9 bd be 63 1e d5 3e 86 03 f9 be
       0.04956267 -0.3710451 0.41624746 -0.486355
000370 2a 5b 3c 3d d9 f1 de bb 10 a3 19 3e cb ec 59 3c
       0.04598538 -0.006803733 0.1500361 0.013301085
000380 f5 85 8e be 9b 88 b6 3e 8d d1 be be f6 36 1b 3d
       -0.27836576 0.35651097 -0.3726925 0.03789421
000390 4c 55 13 be 6e d9 f7 bd ec 11 95 bd 4c 7d 8d 3e
       -0.14388007 -0.12102018 -0.07278809 0.27634656
0003a0 eb ae 15 3e d5 54 e2 3e ec af 83 3e 57 e0 85 be
       0.14617507 0.44205347 0.25720155 -0.2614772
0003b0 c8 4c 1a 3e 29 94 b5 bd 33 6c dc 3d 3a 01 38 3e
       0.15068352 -0.0886615 0.10762825 0.17969218
0003c0 ba eb 3b 3e 48 41 c4 3e 55 88 de bd 16 62 01 bd
       0.18351641 0.38331056 -0.10865847 -0.031587683
0003d0 8f f6 44 3e 66 a5 11 be 56 3b 4e 3e d2 1c cb bd
       0.1923468 -0.14223251 0.20139822 -0.099176064
0003e0 c8 c4 dc bd 81 47 94 bc 35 e0 46 be 18 bd b1 3e
       -0.107797205 -0.018100502 -0.19421466 0.3471458
0003f0 9f 6f fa 3e e3 4a 11 3f 5f 20 3e be 02 0b c0 bd
       0.48913285 0.56754893 -0.18567036 -0.093770996

net.0.bias f4 [256]
000000 34 fc 48 be c3 70 73 bd 7d cf 94 be 6b fb 0a 3e
       -0.19627458 -0.05943371 -0.2906455 0.13572471
000010 19 98 1e 3e b1 44 db 3d 9e e2 8e bc c1 85 61 3e
       0.15487708 0.10706461 -0.017442044 0.2202368
000020 26 19 f6 3e f4 5e 6b 3e 75 b6 35 3d 8a 5d 58 3e
       0.48066062 0.2298544 0.044363458 0.21129432
000030 69 b8 33 3e 24 ec ac 3d d2 09 f9 3d 74 2c f2 bd
       0.17550816 0.08443478 0.12160076 -0.11824885
000040 9a 29 44 3e 49 10 f9 3e 5d 9f 84 be 95 a7 42 3e
       0.19156495 0.48645237 -0.25902835 0.1900924
000050 7c 28 fa bc fb ad 6b bd 8c 0f eb 3d fd 02 cf 3e
       -0.030536883 -0.057538968 0.11477575 0.40431967
000060 72 f5 34 be e7 62 df 3e fd e9 ec 3e 18 ed 69 bd
       -0.17671755 0.43630144 0.4627227 -0.057110876
000070 9c d2 89 3e 31 fe 34 3e d8 3a aa 3e 0a 62 fe bd
       0.26918495 0.17675091 0.3324802 -0.12421043
000080 6d 62 79 be b1 fb 06 be dc 3a d2 be 04 5e ac 3e
       -0.24353953 -0.1318195 -0.4106053 0.33665478
000090 b2 0f bd bd 6b 50 09 3e 7a ba ff bd 71 7e e3 3d
       -0.09231509 0.13409583 -0.124867395 0.11108101
0000a0 77 29 52 be 19 52 1a 3e f9 77 ff be f8 71 c2 be
       -0.2052363 0.1507038 -0.4989622 -0.37977576
0000b0 8c 55 ec 3e 21 3e aa 3d a4 85 de 3d 9f 8b 7c bd
       0.46159017 0.083126314 0.10865334 -0.06165659
0000c0 9b 44 47 3e f2 85 47 3e 13 5a 67 bd cb b2 02 3f
       0.19459765 0.1948469 -0.056482386 0.51054066
0000d0 fb ee 39 bf 1b 1d 6b 3d 2f 94 e0 bd 3b 68 5e bc
       -0.7263028 0.057400804 -0.10965764 -0.013574655
0000e0 ac 32 f8 3e 18 4a ff 3e 14 e5 59 3e e8 df f1 bd
       0.4847616 0.49861217 0.21278793 -0.11810285
0000f0 1d 95 a6 3e 8d c4 b8 3e 30 62 97 bd 90 34 e0 bb
       0.3253564 0.36087456 -0.07391775 -0.0068422034
000100 88 73 cc bd 60 df 02 3f ac 8e 9c bd e2 52 bf 3d
       -0.09982973 0.51122093 -0.076444 0.093419805
000110 1c d9 9e be 15 f1 5f bd 7d 00 b0 3e 63 99 7e be
       -0.31025016 -0.054673273 0.34375373 -0.248632
000120 5e bb a3 bc b7 9e 02 3e 08 d9 e3 be 0b 29 22 3e
       -0.019986805 0.12755857 -0.4450152 0.15835969
000130 b3 20 a2 3d 6f da e5 3d c1 20 d6 3e ab 8b 57 3e
       0.07916393 0.112233035 0.41821864 0.21049373
000140 37 55 f1 3e cb bd aa be 5a 0b f3 3d 4b 01 05 3e
       0.47135326 -0.33347926 0.118673995 0.12988774
000150 55 ed 5e be a7 3c 9d 3e cd 3a 97 be c5 14 96 3e
       -0.21770222 0.30710337 -0.2953705 0.2931272
000160 6f fa e2 3e 72 a8 ee be 13 56 13 3f b3 4a 13 3e
       0.4433169 -0.4661289 0.57553214 0.14383964
000170 2d a9 bd 3d b1 1d eb 3e 4c 7d 23 bf 7e 48 8b be
       0.09260783 0.4592109 -0.6386306 -0.27203745
000180 ab a4 bf 3d 62 64 c4 bc 5a 26 2d 3e e3 23 97 be
       0.0935758 -0.023973648 0.16909161 -0.29519567
000190 44 13 68 be dc 7f 6e 3c 8f 2c f7 3e f9 cc ea 3e
       -0.22663599 0.014556851 0.48276183 0.45859507
0001a0 d3 91 57 3e 96 ca 39 3e d4 e4 b5 bd 5a 25 d2 be
       0.21051721 0.18143687 -0.08881536 -0.41044122
0001b0 61 4f 90 3e f0 4b 88 be 89 30 2f bd ec 36 dd bd
       0.2818556 -0.26620436 -0.042770896 -0.10801491
0001c0 7b 29 67 3e a9 5a 9b 3d 9d 2c 8b be 55 37 75 3e
       0.22574417 0.075856514 -0.27182475 0.23946889
0001d0 d9 a8 88 be ec 15 7b 3d 3d 37 a5 3d 02 f6 7a bd
       -0.2669132 0.061300203 0.080671765 -0.061269768
0001e0 20 9c fc 3c ef 34 b7 3e 23 c7 12 bf ee 3d 73 3d
       0.030836165 0.35782573 -0.5733511 0.059385233
0001f0 8d 5f be 3e 7f 08 1f 3e 2a be af bd 49 eb f6 3d
       0.37182274 0.15530585 -0.08581193 0.12056596
000200 c3 fa d6 3e fa a6 0c be 7f fe dc 3d b1 fa 06 be
       0.4198819 -0.13735572 0.10790729 -0.13181569
000210 47 0b 0c 3e f5 7a 2c 3e 1a 16 7d 3e 88 ae 95 bd
       0.13676177 0.1684378 0.24715462 -0.0730868
000220 1f 37 9b be ab b8 e3 3e bd f2 a4 3d 18 df 7a 3e
       -0.30315492 0.44476828 0.08054111 0.24499166
000230 f2 f5 87 3e a1 02 74 bd 55 92 93 bd 15 cb 65 3e
       0.2655483 -0.05957282 -0.07205645 0.22440751
000240 f3 7f 77 bd 42 fe f8 bd 6f 05 e4 bb 6b 01 88 3e
       -0.060424756 -0.12157871 -0.0069586555 0.26563582
000250 f7 6f 2e 3e e0 0c dc 3d 07 4f 29 bd 65 41 74 3c
       0.17034899 0.10744643 -0.041335132 0.014908169
000260 65 5b a7 3e 55 bc a7 be 28 d1 e5 3e f8 ec 97 3e
       0.32686916 -0.32760873 0.44886136 0.2967298
000270 f9 29 85 be 28 59 9e 3e fd 69 4a be be b6 6a 3e
       -0.26008585 0.30927396 -0.19766994 0.22921273
000280 ac 1b 40 be 34 3d 2f be 10 5a 73 3d 7d 6b f7 3c
       -0.18760556 -0.17113191 0.059412062 0.030202622
000290 93 a9 bb 3e 97 5b ba be fb 44 c5 3e 4c cf 55 3e
       0.36652812 -0.36398003 0.3852919 0.20879859
0002a0 67 e0 f8 3e 77 c1 6c be 4b 55 9d be 27 92 81 be
       0.48608705 -0.23120676 -0.30729136 -0.25306818
0002b0 99 e4 00 3f ff 60 51 bd a9 0d 15 3e ac 59 e5 3d
       0.5034881 -0.051117893 0.14555992 0.11198744
0002c0 1d e1 15 3e 1a 6b da bd d5 73 45 3d 5a de ca bd
       0.14636655 -0.10664959 0.04820617 -0.099056914
0002d0 fb 03 0e 3f 90 05 b7 3c c9 c9 17 3c f3 d9 a5 3e
       0.55474824 0.02234152 0.009264418 0.32392845
0002e0 77 48 99 3e 69 a4 2e 3e 1e 3a 4d be 47 63 a2 3e
       0.299381 0.17054905 -0.20041701 0.31716368
0002f0 14 22 dc 3e dd aa 56 3e e5 3d 12 3f 8d 08 d0 3d
       0.4299475 0.20963617 0.57125694 0.10157881
000300 1f 3e 2e 3e 78 42 b9 3d 55 55 b4 be 97 d0 de be
       0.17015885 0.09045881 -0.35221353 -0.43518516
000310 e8 3c 40 be 84 24 a7 3e 19 9c 03 be b6 16 8f bd
       -0.18773234 0.32645047 -0.12852515 -0.06986754
000320 3d 7e 2b 3e 34 90 33 be 39 cd 0c 3d f5 dd eb 3e
       0.16747375 -0.17535478 0.034375403 0.46067777
000330 dd b4 eb 3e da 81 c6 3e 8a 50 46 3d 77 5b 52 bd
       0.46036425 0.38770944 0.04841665 -0.05135676
000340 ca 86 dc bc 77 73 0d be f7 56 fd 3d 3e bb ed 3e
       -0.026919741 -0.13813578 0.12370103 0.46431917
000350 89 36 ff 3d 29 0d 76 bc 0e 25 cc 3e 2d 01 bf 3d
       0.12461574 -0.015017786 0.3987202 0.09326396
000360 04 58 84 3e a2 2f 65 be 04 58 37 3e ed 0d aa 3e
       0.258484 -0.22381452 0.17904669 0.3321375
000370 47 4d 60 bd 08 27 c8 3d b4 62 80 3e bd 97 a0 3e
       -0.054761197 0.097730696 0.25075305 0.31365767
000380 0d 40 a5 3e 97 df 1b bc 1a e5 18 be 7b 3d a5 3e
       0.3227543 -0.009513757 -0.14931145 0.32273468
000390 40 f8 fe bd 84 10 b8 3d 6e 3f 2d 3e 03 22 de 3d
       -0.12449694 0.08987525 0.16918728 0.10846331
0003a0 42 87 6d bd d9 8b 44 3d 0a cf 1a 3e a0 26 67 bb
       -0.05799032 0.04798493 0.15118042 -0.0035270825
0003b0 f0 1f ea 3c 88 f9 c3 be 20 cc f2 be 8b 52 24 3e
       0.028579682 -0.38276315 -0.4742136 0.16047113
0003c0 82 55 a6 be fd 47 a2 3d d8 89 82 3e f6 51 be 3d
       -0.32487112 0.07923887 0.2549579 0.092929766
0003d0 a5 bb f3 3e 8d 83 21 3e 27 54 3c 3e e5 e7 24 3e
       0.476041 0.15772839 0.18391477 0.16104086
0003e0 ee c6 46 3e 0b 3f af 3b 53 50 c0 3e d2 f2 e1 be
       0.19411823 0.0053480915 0.37561283 -0.4413057
0003f0 43 f2 17 3e 27 6d 33 be 4f 2c 1e be de c3 85 3e
       0.1483851 -0.17522107 -0.1544659 0.26125997

net.2.weight f4 [256, 256]
000000 a7 f2 82 bd 5e 4f 7b bd 81 44 ff 3c df 39 2e bd
       -0.063939385 -0.061354987 0.031160595 -0.04253566
000010 26 87 2d 3d f4 55 88 3c d6 56 08 3c 9e 5e 4b 3d
       0.042365216 0.016642548 0.008321485 0.04965078
000020 b1 b6 82 bd 07 e1 22 3d 1f 2b 6e 3c a0 bf 37 bd
       -0.06382502 0.039765384 0.014536648 -0.044860482
000030 f9 25 22 3c e7 3b b5 bc fc ff fc bc 52 97 51 bc
       0.009896749 -0.02212329 -0.030883782 -0.012792425
000040 b2 af 05 bd a6 e3 46 3d fa 56 5c 3d 58 51 48 bc
       -0.03263826 0.048556946 0.053793885 -0.012226425
000050 cc 03 63 bd 5b dd e6 bb 90 48 0e ba 90 82 13 3d
       -0.055423543 -0.0070454306 -0.0005427683 0.036013186
000060 00 c9 03 3b 60 0a 4d 3c 9b 2a 31 3c c8 59 1e bd
       0.002010882 0.012514681 0.010813381 -0.03865984
000070 0f 42 36 bd f8 a7 7c bd 24 0b d1 bb 6c 15 8a 3c
       -0.044496592 -0.061683625 -0.006379502 0.016855918
000080 3c ad 17 bc 94 7d 78 3d 66 03 71 bc 99 cd 3b bd
       -0.009257611 0.060666636 -0.014710283 -0.04585037
000090 51 87 cb 3b db 4b a6 bc 28 61 0c bc da bb 5e 3d
       0.0062111993 -0.020299843 -0.008568086 0.054378368
0000a0 d5 c8 bf bb b4 00 52 3d 68 55 0b 3b 22 89 f2 bc
       -0.0058527985 0.0512702 0.0021260623 -0.029606406
0000b0 cf 60 23 3d 02 ba 1c bd e0 60 ed ba ba 01 01 3c
       0.039887246 -0.03826333 -0.0018110536 0.007873947
0000c0 d8 d4 b4 3c 26 58 79 bd 29 2d b8 3a 89 4c b4 bc
       0.022074148 -0.06087508 0.0014051545 -0.022009151
0000d0 56 fb 25 3d 60 42 ac 3c 0a 6e ac 3c 20 3e 11 3d
       0.040522896 0.021027744 0.021048564 0.035459638
0000e0 86 f9 90 bc c0 85 1f bc f8 f3 35 3d 47 0b 5f bd
       -0.017697107 -0.009736478 0.04442212 -0.054454114
0000f0 a9 e8 44 bd 74 35 9e ba 42 43 f7 bc 00 95 6a 3b
       -0.048073445 -0.0012070374 -0.030183438 0.0035794377
000100 84 53 55 3d 8e 2b 52 bc 12 eb 73 bd c4 1b f5 bc
       0.0520816 -0.012827767 -0.059550352 -0.029920466
000110 89 ec 53 3d 17 ef 7a bc 96 7b 02 bd 6f b6 b4 3c
       0.05173925 -0.0153157925 -0.031856142 0.022059647
000120 fb 21 bb 3b ee fd 71 bd 64 d7 3b 3d 60 94 02 3d
       0.005710838 -0.059080057 0.04585971 0.031879783
000130 4c 87 51 3d de 57 af 3c fe b3 d8 bc d8 df d6 bc
       0.05115442 0.021404203 -0.026453014 -0.026229784
000140 68 c7 c7 3c bb b6 69 bc 6d 54 cc 3b aa 66 88 bd
       0.024387076 -0.014264758 0.0062356503 -0.066602066
000150 56 e3 1c bd 0c 4f a8 3c 33 a7 01 bc f5 31 08 bd
       -0.038302742 0.020545505 -0.007913399 -0.033250768
000160 16 c4 78 bd de ef 16 3d fd af 88 bc 94 98 86 bd
       -0.060733877 0.03684985 -0.01668548 -0.06572071
000170 06 3e 6c 3d ef 56 c9 3c 4f 42 32 bd 2a be 52 bd
       0.057676338 0.024577586 -0.043520268 -0.051450886
000180 11 88 6c 3d 5b 56 81 bb 64 46 27 bd c0 95 fd 3c
       0.05774695 -0.003947062 -0.040838614 0.030955195
000190 f5 44 6f bc 1a e1 fc 38 1d c2 1d bd 29 eb 6f bd
       -0.014603843 0.00012058225 -0.0385152 -0.058573876
0001a0 a9 2d 3d bd fc b9 52 bc 67 da 52 bd ac 0d 75 3d
       -0.046186123 -0.012861725 -0.051477816 0.05982749
0001b0 af de 5c bb 8f 2c d0 bc 37 b4 b4 3c d9 30 7c bd
       -0.0033702066 -0.025411872 0.02205859 -0.061570022
0001c0 52 d1 1b bd 2d 6f ab 3c d3 50 72 bd 12 28 ea 3c
       -0.03804142 0.020927036 -0.05915911 0.02858356
0001d0 a1 63 62 39 dc 87 5f bd 5e 55 87 bd 96 c1 89 3c
       0.00021590154 -0.054572925 -0.066080794 0.016815942
0001e0 c5 6a c5 3c 57 f0 96 bc db 11 7b bd 70 8b 13 bd
       0.024098763 -0.01842515 -0.061296325 -0.03602165
0001f0 50 5e 4c 3a 40 04 15 3b 95 84 5e 3c a1 73 aa 3b
       0.0007796036 0.002273813 0.013581415 0.0052017723
000200 40 ee d4 bb 16 19 07 3d 7d e5 60 3d 61 f9 3d 3d
       -0.006498128 0.03298291 0.054906357 0.046380404
000210 d8 dd 50 3d 08 e1 c2 bc 30 30 d7 bc f0 82 e2 bb
       0.050992817 -0.023788944 -0.026268095 -0.0069125816
000220 7c 53 97 3c 32 3f b4 3c e3 d8 32 bc dc 2f 3a bd
       0.018472426 0.02200279 -0.010915968 -0.0454558
000230 b4 f9 49 bd ba 74 76 3d 58 09 b0 bc f6 d6 36 bc
       -0.0493104 0.060169913 -0.02148883 -0.011159649
000240 27 e6 30 bd 4e ad 09 bd 79 11 32 3c 3f 08 ae 3c
       -0.04318824 -0.03361254 0.010868424 0.021244166
000250 d6 77 df bc 4c 96 ea bc b1 18 33 3d cf 08 0c bd
       -0.027278822 -0.02863612 0.04372472 -0.034188088
000260 ce 37 57 bd e6 17 78 bc d0 11 5d 3d 9b af 01 3c
       -0.052543454 -0.015142417 0.053972065 0.007915403
000270 48 7d 0d 3c 14 e1 47 bc c6 bb 06 3d 30 fe 0a bd
       0.008635826 -0.012199659 0.03289392 -0.03393382
000280 62 30 24 3d f8 e9 71 3c 45 fa 22 3b 96 83 73 3b
       0.040085204 0.014765255 0.002486841 0.0037157289
000290 06 b9 34 bd 5c e7 35 3d c6 fa e9 3c 96 99 60 bd
       -0.044121765 0.044410095 0.02856196 -0.05483397
0002a0 64 9b 82 bd 7e 15 b6 bc c0 33 11 3d 5f 5f 17 bd
       -0.06377295 -0.022227045 0.035449743 -0.036956187
0002b0 ff f2 54 3d e9 61 18 bd 22 1e 7f bd 8e 23 cb 3c
       0.05198955 -0.03720275 -0.062284596 0.024797227
0002c0 49 28 29 bd f0 6b 21 bc 65 e9 d0 bc 8b f4 db bb
       -0.041298185 -0.009852394 -0.025501916 -0.0067125014
0002d0 de 13 75 bd f8 fc 72 bd d0 18 dc 3c 5e 15 1c bc
       -0.0598334 -0.05932328 0.0268673 -0.009526579
0002e0 f3 c5 31 bd 76 bf ed bb 3c 63 77 bd e6 c6 3e 3c
       -0.04340167 -0.00725549 -0.06039737 0.011644101
0002f0 71 3e c2 3c 57 0b 6b 3d f7 30 68 bd 97 5d 56 bc
       0.023711415 0.05738386 -0.05668732 -0.013083837
000300 c3 c3 e4 3c 40 fc 53 3d 24 09 49 bd ec 0c bf 3c
       0.027925378 0.051754236 -0.049080983 0.023321591
000310 3b 7d ac 3c dd 9f 0e 3d c4 9e 3e bd f9 d5 1e 3d
       0.021055808 0.034820426 -0.04653813 0.03877828
000320 78 c9 07 bd 9a 94 1d bd 45 25 1d 3c 02 92 40 3d
       -0.03315112 -0.038471796 0.009591405 0.047014244
000330 90 26 3f bd 87 70 f5 3c 8f 84 26 bc 97 f5 82 3c
       -0.046667635 0.029960884 -0.01016344 0.015986247
000340 a5 99 2e 3d 56 5c 63 3c d0 7c 6b bd 13 c0 ca bc
       0.042626996 0.013876995 -0.057492077 -0.024749791
000350 bf 99 d7 3b 03 20 65 bd b3 63 8c 3b 11 ea 15 bd
       0.0065796073 -0.055938732 0.004284346 -0.036600176
000360 14 94 7f bc 63 2e aa 3c 1d 88 5f bd a1 c2 34 bd
       -0.015599269 0.020774072 -0.054573167 -0.044130925
000370 4d cb c6 3c c4 31 7d bd d2 70 15 3d a8 c4 54 bd
       0.024266863 -0.06181504 0.036484547 -0.05194536
000380 8a b9 e0 bb ff 13 f4 3b 3c 02 99 3c b3 ea 35 bd
       -0.0068580555 0.007448673 0.018677823 -0.04441328
000390 95 e0 e3 3b b0 b8 c3 3c 67 7d 4c 3d c0 24 53 bd
       0.0069542625 0.023891777 0.04992428 -0.05154872
0003a0 f1 1f 18 bd 23 d4 78 3c de 76 fc bb 61 dc 34 bd
       -0.037139837 0.015187296 -0.0077045998 -0.044155482
0003b0 09 5e 62 bd 56 4f 63 bd b2 22 33 bd a3 70 08 bd
       -0.05526546 -0.055495583 -0.04373426 -0.033310544
0003c0 2a c4 31 bd 9d 82 71 bd d8 e4 ff b9 76 55 f8 3c
       -0.043399967 -0.058962453 -0.00048807892 0.030314188
0003d0 f7 93 0b bd 0d 0f 8c b8 31 74 64 bb 37 3a c0 3c
       -0.034076657 -6.678524e-05 -0.0034859295 0.023465259
0003e0 18 eb 45 bd 8d d2 4d bb 25 57 56 3d fc f3 1d 3d
       -0.048319906 -0.0031406016 0.0523292 0.03856276
0003f0 d2 d2 89 bd b6 37 55 bc a0 a0 07 bb a7 35 dd bc
       -0.06729664 -0.013013771 -0.0020695105 -0.027003122

net.2.bias f4 [256]
000000 cc ce 61 3d 14 86 df bd 8f e2 ec bc f0 12 75 be
       0.055128857 -0.10914245 -0.028916625 -0.23933005
000010 9d a2 20 bd a5 f0 c4 3c fb 12 72 bd d0 18 3a 3c
       -0.03921758 0.02404053 -0.059100132 0.011358455
000020 b4 ed 60 3d 43 4f 15 3d 0f 93 2f ba 4b 76 97 3d
       0.05491419 0.036452543 -0.00066976337 0.073956095
000030 b2 b4 48 3d c6 d2 f1 3d 83 69 a3 3d f4 57 52 3c
       0.04900045 0.1180778 0.07979109 0.0128383525
000040 b4 ad b8 3d 6d f5 a8 3d 8c 55 50 bd 02 c2 b8 3d
       0.09017506 0.08249936 -0.050862834 0.09021379
000050 de d5 ab 3d ca e6 41 be 8d fb 57 be 6e de ac 3d
       0.08390401 -0.18935695 -0.21092053 0.084408626
000060 8a a5 13 be cf 3d 0a 3e 10 15 e0 3d 63 5d 54 3d
       -0.14418617 0.1350014 0.10941517 0.051846873
000070 e8 04 0d 3b 8c 8d 5d 3d a1 1d 0b 3d a6 b6 99 3d
       0.0021517817 0.054090068 0.033963803 0.075055405
000080 c0 08 87 3c 44 10 99 3e dd 94 58 bb 37 dc bd 3d
       0.016483665 0.29895222 -0.0033047714 0.09270518
000090 5f 7c 47 3e a7 ad 99 3d a0 d7 74 39 55 e1 9f 3c
       0.19481038 0.07503825 0.0002334998 0.019516626
0000a0 94 f9 32 bc b9 48 b1 3b 47 c1 8a be da 8d a5 3c
       -0.010923762 0.0054102805 -0.27100584 0.020209242
0000b0 ac 73 0c bd 23 a7 be 3c ff 81 fa 3c 53 0c a7 3d
       -0.03429 0.023273056 0.030579565 0.081566475
0000c0 e4 ca 30 bc 3a 1d 94 3c 6d ab 66 bd 1f e0 f2 3d
       -0.01079056 0.018080343 -0.056315828 0.11859154
0000d0 b6 53 69 be 2d 08 83 3d 9c 81 14 3d c9 c9 83 be
       -0.2278584 0.06398044 0.036256418 -0.25739887
0000e0 f4 c6 bd 3d e1 8c 18 bd f7 c6 62 3d 3c f5 30 be
       0.09266463 -0.037243728 0.05536553 -0.1728105
0000f0 24 36 bf 3d 47 ca 88 3d 45 aa 5b 3d fe 61 ad 3d
       0.093364984 0.06679206 0.05362918 0.08465956
000100 d5 fe 15 be a0 44 57 be 00 e1 40 be 6a e2 4a bd
       -0.14647992 -0.21022272 -0.1883583 -0.04953233
000110 df d6 df 3c da a0 0e be 95 c4 96 bc 42 61 b3 bd
       0.027324138 -0.13928548 -0.018404284 -0.08758785
000120 24 3f 80 bc 23 05 a2 3c 18 40 57 bc 3d ba 90 bd
       -0.015655108 0.01977784 -0.01313784 -0.07066772
000130 24 c7 84 bd 47 cb e3 3c 04 23 c0 3d 96 f4 34 be
       -0.064832956 0.027806891 0.09381679 -0.17671427
000140 f9 9f 94 3d 68 64 38 3d bb 19 c1 3d 0e e6 17 3d
       0.07257075 0.04501763 0.09428736 0.03708463
000150 31 c3 c5 3d 64 99 63 3d 70 5b 91 3d ce 85 1a bc
       0.096563704 0.055566207 0.070975184 -0.009431316
000160 52 2b 0d bc 8a 68 eb bc 43 7e 5b 3d 20 2c c6 bd
       -0.008616285 -0.028736372 0.05358721 -0.09676385
000170 80 bf 1c b9 b2 3e 5d bd e1 a3 5f 3c 3c 06 63 3d
       -0.00014948659 -0.05401487 0.013649912 0.055425867
000180 12 0d bb bd 14 bb d4 3d d3 d9 18 3d 82 73 9b 3d
       -0.09133352 0.10387245 0.03731711 0.07590391
000190 4c 5c de 3d 02 a8 45 bd a9 1a ad 3d a1 7f 73 3d
       0.10857448 -0.048255928 0.08452351 0.05944789
0001a0 44 22 aa 3c 2e b6 da 3b 0d ad ae 3d 04 8c c7 3c
       0.020768292 0.0066745495 0.085291006 0.024358757
0001b0 82 f1 82 bc c8 2d f8 bc 7a 6b 6a 3d 71 25 2c be
       -0.0159843 -0.030295268 0.057231404 -0.16811158
0001c0 ad a4 1a 3d 0f 73 a3 3b 1f 92 bb 3d c6 a9 fd 3c
       0.037754703 0.0049880813 0.0915873 0.030964743
0001d0 1d 73 fb 3c 55 23 91 3d c4 b9 dd 3d 90 79 23 3e
       0.030694539 0.07086817 0.108264476 0.15964341
0001e0 a2 69 cb bc 7b 27 f4 bd fc b1 b3 3c a7 86 06 bd
       -0.024830643 -0.11921593 0.021935456 -0.03284326
0001f0 db 09 57 bc a8 82 b4 3b 22 e4 3c 3d 1d 64 3d 3d
       -0.013124908 0.0055087395 0.046116002 0.046238054
000200 3f 92 09 3b 90 c7 f9 bd 30 7f 8a bd a2 b9 b2 3d
       0.002099171 -0.12196267 -0.0676254 0.08726813
000210 99 08 27 be 56 21 76 3e 4f 45 4b 3d b4 35 9c be
       -0.16311873 0.24036154 0.049626645 -0.30509722
000220 ab 9e cd 3d 1e 23 af 3c fa ab 6d 3c 30 68 d3 3b
       0.10040029 0.02137905 0.014506334 0.006451629
000230 2d 3d df bb 8c d6 d2 3d 54 42 8c 3d dc 99 b4 3c
       -0.0068127126 0.10294828 0.068485886 0.022046022
000240 a8 27 83 3d 38 d7 e5 3c b4 66 85 bd a5 54 ef 3b
       0.06404048 0.028056726 -0.0651373 0.0073037916
000250 ab e2 9f 3d 1f c7 3c be 65 3a 80 3d 03 c7 96 3d
       0.07806905 -0.18435334 0.06261138 0.07362177
000260 89 a0 f8 3b f5 0d 08 3c 10 37 fe 3c fe f0 c2 3d
       0.0075874967 0.008304109 0.031032115 0.09518622
000270 d9 a2 39 3c 65 c7 36 bb 76 ec 10 bd ff c9 2c be
       0.01133033 -0.0027889844 -0.035381757 -0.1687393
000280 59 9b 80 3d c6 cb ef bd 6a 51 46 be 83 5f d8 3d
       0.0627963 -0.117087886 -0.19366995 0.105650924
000290 e1 69 c6 3d c2 8b 66 3c be 94 0d 3e d4 ca bb 3b
       0.096881635 0.014071407 0.13826272 0.005730966
0002a0 d8 25 c9 3d da f0 6b be fe ba e2 3d 23 77 e0 bc
       0.09821671 -0.23041096 0.11070822 -0.027400559
0002b0 0e 30 b5 3d bb f1 73 3d b8 97 58 3d 94 7b 8c 3d
       0.08847056 0.059556704 0.052879065 0.06859508
0002c0 67 97 43 bd d9 b6 dc 3d f4 6b 01 bd 84 ad cc bd
       -0.04775181 0.10777063 -0.031597093 -0.09994033
0002d0 fc 67 77 bd 44 b7 24 bd ce 12 63 be eb 0f fc bd
       -0.0604019 -0.04021384 -0.22175142 -0.123077236
0002e0 1e ff 3f 3d cc 8b 42 be 55 41 9d 3c a4 9b a5 3d
       0.046874158 -0.18998641 0.019196192 0.08086327
0002f0 b5 49 b9 3d a6 e4 5d 3d b3 77 66 3d ef 27 5c be
       0.090472616 0.054173134 0.056266498 -0.21499608
000300 e6 69 6a 3c c0 14 a7 bc f6 16 f5 3d 4f f2 f1 3d
       0.014307475 -0.020395637 0.1196727 0.11813795
000310 ca 5c 8f 3c 7f de 67 be cb aa 2c be e2 eb 10 3d
       0.0175003 -0.2264347 -0.16862027 0.035381205
000320 3f 27 9b 3d cf 8d ad 3c 49 4f c1 3d fd 5a bd 3d
       0.07575845 0.021185784 0.094389506 0.0924587
000330 a3 32 52 3d cf a7 1d be 12 79 88 3c a1 1e dd 3c
       0.051317822 -0.15396045 0.016659293 0.026992144
000340 cb 1b 61 be 4c 36 4e 3d a8 e1 21 3e 0b 87 11 3d
       -0.21983258 0.05034475 0.15808737 0.035529178
000350 7b af 88 bd 3c 06 84 bd c2 b3 99 3d 12 bf 1d 3e
       -0.06674095 -0.064465016 0.07504989 0.15404919
000360 5d 12 3c 3d 1c 38 52 be ea 20 21 be f1 34 2d bd
       0.04591595 -0.20529217 -0.15735212 -0.042286817
000370 1e 61 1f be 0a 8e 54 3d 7c 50 1e 3d 92 a0 1d be
       -0.15564391 0.05189327 0.038650975 -0.15393284
000380 2e c4 60 bd 94 82 c2 bd 74 9c 7a 3d 66 40 f3 3d
       -0.05487459 -0.09497562 0.06118436 0.118775174
000390 a7 6b a0 3c bf 70 e5 3d 6d d4 55 3d 59 fd e5 3d
       0.019582583 0.11203145 0.052204538 0.11229963
0003a0 c0 d7 13 3d a9 47 0b be 17 c4 00 ba ee d6 a2 3d
       0.036094427 -0.13601555 -0.0004912032 0.07951151
0003b0 7e 32 b8 3c 84 b1 c7 bc 84 5f 95 3d 1c e2 a6 3c
       0.022485014 -0.024376638 0.07293609 0.02037149
0003c0 03 d5 8f 3d cf cf ef bc 6e a7 5d be e4 b9 87 3d
       0.07023051 -0.029273896 -0.216459 0.06627253
0003d0 8d 91 7b 3d 51 38 7d be 96 b9 f9 3d 04 5f 6f bd
       0.061418105 -0.24728514 0.12193601 -0.058440223
0003e0 0e bc 44 3d 82 88 df 3c 41 00 72 3a 9c 9d 95 ba
       0.048030905 0.027286772 0.0009231605 -0.0011414769
0003f0 21 bb c1 3d 97 a5 ed 3c 01 ed 03 3d 0a 34 ed 3d
       0.0945952 0.029009623 0.032208446 0.11582191

net.4.weight f4 [1, 256]
000000 64 5b 1d 3d 82 f3 42 3f 35 05 81 3c 10 0e 40 3f
       0.038417235 0.76152813 0.015749553 0.7502146
000010 03 8c 3c 3d 5d 38 74 be dc 6f 49 3c 4d b8 78 be
       0.046031963 -0.23849626 0.012294736 -0.24289055
000020 f6 8c 8c be e1 ee 68 be 79 19 5e 3c fd 04 91 be
       -0.27451295 -0.22747375 0.013555878 -0.28324118
000030 fb c8 89 3c ba f9 8d be 17 0a 98 be 52 64 8d be
       0.016819468 -0.2772959 -0.29695198 -0.276156
000040 91 f2 76 be 0b b2 91 be 48 b7 53 3d c0 d4 92 be
       -0.24115969 -0.28456149 0.051688462 -0.2867794
000050 8b 76 8f be e0 72 3c 3f 11 8e 4d 3f 80 92 89 be
       -0.2802013 0.73612785 0.802949 -0.26869583
000060 0c c6 d2 3e d7 e8 75 bf bd e2 81 be aa e2 83 be
       0.41166723 -0.9605841 -0.253683 -0.25758868
000070 ec 6b 7a be e9 e0 88 be c2 5d 69 3d 97 cf 90 be
       -0.24455231 -0.26734093 0.05697418 -0.28283378
000080 9e b7 87 be fb 7c 4c 3f 2d 1a 90 be 36 ca 84 be
       -0.26507276 0.79878205 -0.2814497 -0.25935525
000090 db 53 4c 3f 2f ad 6d be cc 29 84 be 9c 4b 4c 3b
       0.79815453 -0.23210596 -0.25813138 0.0031172996
0000a0 2a 5f 87 3c 73 10 93 be 99 5b 34 3f 7a 44 41 3c
       0.01652487 -0.28723487 0.70452267 0.011796111
0000b0 81 fb 59 3d 3e 84 84 be a1 81 b4 3c 91 29 84 be
       0.05321837 -0.25882143 0.022034468 -0.25812963
0000c0 d1 7b 04 3d a5 8a 82 be a9 29 1b 3d a4 3b 8a be
       0.032344643 -0.25496402 0.037881527 -0.26998627
0000d0 bd 86 39 3f 37 ec 18 bf e8 18 6e 3c d6 bf 1f 3f
       0.7247122 -0.59735435 0.014532305 0.62402093
0000e0 7d ad 81 be 8f df 24 3c 1f fc 89 be 58 2f 37 3f
       -0.25327674 0.010063066 -0.26950166 0.71556616
0000f0 92 02 80 be 8e 5b 93 be 31 1f 80 3b c9 34 84 be
       -0.2500196 -0.28780788 0.0039099683 -0.25821522
000100 f7 c3 b2 3f e2 97 0f 3f 40 7f 2a 3f 20 15 8f 3c
       1.3966054 0.5609113 0.6660042 0.017466128
000110 58 74 94 be 23 e1 27 3f 65 69 3b 3d 62 9b 23 3f
       -0.28995013 0.65577906 0.04575481 0.6390897
000120 e5 d3 47 3f 2b 6f 8f be f5 ca 37 3d c2 2a 09 3b
       0.780577 -0.28014502 0.04487129 0.0020930027
000130 f5 6a 23 bf 4c 5e da 3c 4f 08 94 be 9d 2e 21 3f
       -0.6383508 0.026656292 -0.2891259 0.6296175
000140 ba 5a 69 be a9 39 96 be 6f a2 5d be f4 f8 71 be
       -0.22788516 -0.29340866 -0.21643995 -0.23630124
000150 8d 9c 77 be bd a2 60 be 4f 0a 8d be d4 9e 2b 3d
       -0.24180813 -0.2193708 -0.27546927 0.041899517
000160 8f f4 20 3c 37 aa fd 3b 47 41 8d be 35 fa 22 3f
       0.009823932 0.0077412385 -0.27588865 0.63663036
000170 d3 dc 94 be af d1 56 3d 39 f0 5e be 30 26 94 be
       -0.29074726 0.052446064 -0.21771325 -0.28935385
000180 1c 61 25 3f ea c8 75 be 4a 77 b5 be 73 7f 8b be
       0.646013 -0.24002424 -0.35442573 -0.27245674
000190 a7 7d 66 be 95 f9 eb 3c 27 72 55 be 57 8e 92 be
       -0.2250887 0.028805533 -0.20844327 -0.28624222
0001a0 00 46 78 be 04 7c 72 be 4a a7 93 be 7d 91 98 be
       -0.24245453 -0.2368012 -0.2883857 -0.297985
0001b0 18 1a 0e 3d a2 2e 61 3d 17 fc 96 be 28 6f 3a 3f
       0.034692854 0.054976113 -0.29489204 0.7282586
0001c0 ea 7d 9a be 29 94 96 be 82 2e 6c be 24 3c 8a be
       -0.3017419 -0.29409912 -0.23064616 -0.2699901
0001d0 c2 02 71 be de a9 98 be 3f 3a 83 be af 29 6a 3f
       -0.23536208 -0.29817098 -0.25630376 0.91469854
0001e0 64 d4 62 3d 9b e4 19 3f d1 37 79 be 0f 03 b4 3c
       0.055378333 0.6011445 -0.24337699 0.021974115
0001f0 53 8f ab 3c 3a bf 89 be 9d f9 88 be 12 df 66 3d
       0.020942366 -0.26903707 -0.2675294 0.05636508
000200 40 13 01 3d c0 de 6a 3f 14 af ec 3c 97 dd 6e be
       0.0315125 0.9174614 0.028892078 -0.23326717
000210 25 98 34 3f 03 f4 51 3f ca a8 c5 3c e0 d7 0b 3f
       0.70544654 0.8201296 0.024128336 0.54626274
000220 6b 11 8f be 5e 07 63 be 23 d6 a5 be 21 4e 70 be
       -0.27942976 -0.22170779 -0.32389936 -0.23467304
000230 5c 7d 70 bc 43 b7 78 be 65 50 77 be 1b bf 98 be
       -0.0146783255 -0.24288659 -0.24151762 -0.29833302
000240 83 88 79 be de e1 93 be 97 1c b1 3c 39 e7 06 3d
       -0.24368481 -0.2888326 0.021620078 0.032935355
000250 da 43 97 be 52 03 1a 3f a0 e7 97 be dc 55 f7 be
       -0.29543954 0.60161316 -0.29668903 -0.48307693
000260 11 b7 8c be 5a 66 87 be 38 f4 58 be 40 a5 83 be
       -0.2748342 -0.26445276 -0.21186912 -0.25712013
000270 0b c5 94 be 04 de 81 be 6d 68 3e 3d 93 2e 39 3f
       -0.29056582 -0.25364697 0.046486307 0.7233669
000280 32 c2 8c be dd 14 39 3f 7b 5a 3b 3f 3a b6 83 be
       -0.2749191 0.7229746 0.7318494 -0.25724965
000290 29 36 8e be bd 35 32 3d e8 bf 31 bf 44 d6 1c 3d
       -0.27775696 0.04350828 -0.6943345 0.038290277
0002a0 71 da 84 be 4a 85 36 3f fb 68 92 be 13 66 a1 3c
       -0.25947908 0.7129713 -0.2859572 0.019701993
0002b0 e9 ea 67 be 5a 8b 91 be 24 ad d0 3c e7 59 71 be
       -0.22648205 -0.2842663 0.025473185 -0.23569451
0002c0 c7 95 04 3c 96 f8 86 be a0 ab 0b 3d 6f 77 39 3f
       0.00809235 -0.2636153 0.03409922 0.72447866
0002d0 90 2a 16 bc 2c 4c b5 3c c0 c8 2a 3f a2 94 1f 3f
       -0.009165421 0.022131048 0.6671257 0.6233617
0002e0 04 a9 9d be f8 57 32 3f 10 35 7d be 07 fa 67 be
       -0.3079301 0.6966548 -0.24727273 -0.22653972
0002f0 88 d3 8c be 0e f9 91 be 48 bd 99 be 31 da 23 3f
       -0.27505136 -0.28510326 -0.30027223 0.6400481
000300 e2 5c 4b 3d 23 e8 85 3b 11 0e 64 be 0c 52 89 be
       0.049649127 0.0040865107 -0.22270991 -0.2682041
000310 24 a7 89 be 1a 70 33 3f b8 e5 26 3f 7c cd 7c be
       -0.2688533 0.7009293 0.65194273 -0.24687761
000320 be 08 84 be 08 8d e9 3a 42 b8 65 be 36 08 6c be
       -0.2578792 0.001781852 -0.2243357 -0.23050007
000330 1e 77 91 be 26 60 34 3f 20 0b 88 be 27 1e 5a 3f
       -0.28411192 0.7045921 -0.26570988 0.8520226
000340 51 d1 20 3f e4 71 75 be e4 97 84 3f 12 25 83 be
       0.6281939 -0.23969227 1.0358853 -0.2561422
000350 59 a6 43 3d 67 49 22 3d 5f 13 70 be 3c 68 81 3f
       0.047766063 0.039620783 -0.2344489 1.0109935
000360 5b 33 2f 3c 72 02 2b 3f 17 9f 73 3f 76 88 97 3b
       0.010693396 0.66800606 0.95164627 0.0046244217
000370 70 0f 29 3f e4 51 8e be 2a c8 92 be f7 7e 24 3f
       0.6603918 -0.27796853 -0.28668338 0.6425623
000380 75 f0 26 3c 0c d6 2d 3f 46 ec 8e be 38 01 f5 be
       0.010189165 0.67904735 -0.27914637 -0.47852492
000390 14 55 70 be bc f0 75 be 32 fe 93 be 5a 3e 73 be
       -0.23469955 -0.24017614 -0.28904873 -0.23754254
0003a0 cd da 3f 3d 33 ce 18 3f 3e 9f 19 3d 3b 4b 8c be
       0.046839524 0.59689635 0.03750538 -0.27401146
0003b0 af f5 6e be 2e 56 c3 3b e5 fe 92 be 06 fc 0a 3d
       -0.23335908 0.005961201 -0.28710094 0.033931755
0003c0 06 85 8f be ad 25 6b 3d 24 8a 32 3f fb 16 7c be
       -0.28031176 0.057408977 0.69742036 -0.24618141
0003d0 39 4d 75 be 4d b1 31 3f 5d 55 72 be a9 39 29 3d
       -0.2395524 0.69411165 -0.23665376 0.041314755
0003e0 da 7a 71 be af 3e e6 3c 16 37 2f 3d 81 bc 86 be
       -0.2358202 0.028106062 0.042777143 -0.26315692
0003f0 fc 75 75 be 6f 84 95 be 65 c0 79 be af 72 7b be
       -0.23970789 -0.292026 -0.24389799 -0.24555467
